NICO-master/NICO_articulation_body/Assets/Gaze.onnx (onnx, 87453 bytes, 9 tensors)

network_body.observation_encoder.processors.0.normalizer.running_mean f4 [18]
0.0 -0.61007625 0.0 0.5480011 0.0 0.0 0.0 0.0
0.20833257 0.15196909 0.106767684 -0.13610381 -0.43145236 0.2509201 0.020261995 -0.62756217
-0.45457298 0.42557153
00000000: 0000 0000 f52d 1cbf 0000 0000 cd49 0c3f
00000010: 0000 0000 0000 0000 0000 0000 0000 0000
00000020: 2255 553e c99d 1b3e 04a9 da3d cc5e 0bbe
00000030: 53e7 dcbe 9978 803e 7cfc a53c eaa7 20bf
00000040: cabd e8be 83e4 d93e

network_body._body_endoder.seq_layers.0.weight f4 [128, 18]
-0.055730272 0.4842484 0.33103842 0.06719489 -0.024124112 0.11355919 -0.36886248 0.14589514
0.086432986 -0.048635036 0.07067878 0.24057484 -0.07373987 0.1257553 0.17041798 -0.048104133
-0.4057538 0.22216766 -0.25872418 -0.29408354 -0.48965776 -0.026668847 0.0434524 -0.0023676928
-0.033127796 0.39145902 0.069287576 0.111353956 -0.103011064 -0.14823511 0.06756481 -0.25418288
-0.2607863 -0.24193153 0.19475323 -0.065186255 0.09963217 -0.42660835 0.1486827 0.022223372
-0.17390557 -0.0927512 -0.54309654 0.06207274 0.2045847 -0.16348456 -0.33391705 -0.04593762
-0.22067882 0.13992342 -0.18606767 -0.20415029 0.004617056 -0.16564132 -0.034846276 -0.52355987
0.0008485893 -0.12852922 -0.021371456 -0.5803837 0.05927081 0.06758743 -0.07827443 -0.13654228
-0.18964726 -0.053354543 0.43185177 -0.325473 0.45727903 -0.22774751 0.4208762 0.066012554
-0.16411586 0.098579325 0.025164897 -0.703892 0.30221435 -0.06931668 -0.522554 0.3856354
-0.091108285 0.21466646 0.48842788 -0.18376963 0.44061005 0.38574472 -0.15691009 -0.090343416
0.1131573 0.26484385 -0.17255688 -0.12718523 0.50430626 -0.04759128 -0.1700451 0.0051099216
-0.25812912 -0.25012255 -0.04187412 0.32153207 0.3106656 0.23959571 0.033016674 -0.7979608
-0.2689106 0.087283745 0.03265599 0.54136366 -0.047948718 0.54500127 0.003130675 0.25098732
0.07491446 0.07691061 -0.02168401 0.7867437 -0.09622419 -0.06460209 -0.35066646 -0.19478275
0.08966232 0.17143047 -0.117018946 -0.13527314 -0.11026881 0.13990837 0.30199066 0.08427583
0.41221297 0.27188796 -0.018175172 -0.67631435 -0.19352403 0.0054659587 0.3960019 -0.3541699
-0.036000602 -0.22062378 -0.1925058 0.25391853 -0.008734184 0.2347558 -0.11349337 0.21574935
0.042094104 0.247405 -0.11005349 0.0064391717 0.11381933 0.2538096 -0.4468672 0.039045677
0.05291419 0.35892543 0.24686298 0.3806643 -0.48415107 0.24482597 -0.20534919 0.47574806
-0.092090026 0.2598909 0.0064206007 0.23190516 0.09537502 0.78552645 -0.13889211 -0.110474594
-0.005212201 0.26188484 0.37698108 -0.11577815 0.4013975 -0.20413713 0.091770515 -0.25269744
0.5268225 -0.041582167 0.17472899 0.10681046 0.16851526 0.0126804495 -0.0077384687 -0.124458395
-0.20307042 0.15939113 -0.014192422 -0.106450796 0.17254049 0.036623728 0.16563721 0.25686878
-0.18842354 0.18992291 0.15566105 0.028995004 -0.014481605 0.12573075 -0.20960996 0.105142206
-0.10286854 -0.09544033 -0.14165814 -0.44283697 -0.33955038 -0.39790773 -0.17225017 0.18857582
0.2666212 0.06015441 0.14739294 0.32887465 0.01165477 0.35975242 0.15262185 -0.39314598
0.3535463 -0.39519364 0.15648693 -0.02273423 -0.12894438 -0.3321533 0.18868661 0.15870234
-0.13605218 -0.09358788 -0.12036338 -0.09627728 -0.1192126 -0.30270836 0.2006364 0.012402372
-0.047159947 -0.1489141 -0.25755826 -0.005047511 -0.045929365 -0.44224894 0.13841288 -0.024345541
-0.44983914 -0.31460014 -0.06365735 0.4083914 0.18385395 -0.6183081 -0.0552197 0.22947468
-0.07597429 0.3510259 -0.1285178 -0.51371145 0.39920154 0.28551072 0.114458516 0.37994006
00000000: 6d45 64bd 68ef f73e de7d a93e 799d 893d
00000010: ee9f c5bc b891 e83d 8bdb bcbe 8965 153e
00000020: c703 b13d 8835 47bd 09c0 903d 4059 763e
00000030: ee04 97bd ffc5 003e 0d82 2e3e d708 45bd
00000040: f6be cfbe eb7f 633e 7f77 84be 1e92 96be
00000050: 6cb4 fabe a078 dabc 25fb 313d 4b2b 1bbb
00000060: 03b1 07bd 516d c83e a5e6 8d3d 8b0d e43d
00000070: 77f7 d2bd f2ca 17be 6b5f 8a3d 4224 82be
00000080: c885 85be e6bc 77be 646d 473e 5f80 85bd
00000090: f30b cc3d 696c dabe 4740 183e ca0d b63c
000000a0: 4d14 32be 57f4 bdbd 6008 0bbf fc3f 7e3d
000000b0: a77e 513e 7f68 27be 2df7 aabe 1629 3cbd
000000c0: a1f9 61be 1648 0f3e 8688 3ebe c60c 51be
000000d0: ac4a 973b e19d 29be f8ba 0ebd 0508 06bf
000000e0: dd73 5e3a 2a9d 03be 3113 afbc 0794 14bf
000000f0: f3c5 723d 476b 8a3d 584e a0bd bdd1 0bbe
00000100: e432 42be 4b8a 5abd ad1b dd3e 66a4 a6be
00000110: 7a20 ea3e a536 69be 167d d73e 9731 873d
00000120: fd0d 28be f5e3 c93d 9d26 ce3c 4432 34bf
00000130: d7bb 9a3e e7f5 8dbd 19c6 05bf 0172 c53e
00000140: fb96 babd 86d1 5b3e 3813 fa3e 1b2e 3cbe
00000150: a497 e13e 5580 c53e 0aad 20be f805 b9bd
00000160: 04bf e73d 9d99 873e c0b2 30be d83c 02be
00000170: 371a 013f 13ef 42bd 4d20 2ebe 2171 a73b
00000180: 8029 84be 1010 80be 3284 2bbd da9f a43e
00000190: 900f 9f3e 9458 753e 7e3c 073d 2947 4cbf
000001a0: a6ae 89be d2c1 b23d 4ac2 053d cf96 0a3f
000001b0: e065 44bd 3485 0b3f 032c 4d3b 6981 803e
000001c0: c16c 993d 4f83 9d3d aaa2 b1bc 0968 493f
000001d0: 3011 c5bd 1a4e 84bd 8e8a b3be 2175 47be
000001e0: e1a0 b73d 788b 2f3e a1a7 efbd 0b85 0abe
000001f0: 9dd4 e1bd 2444 0f3e 859e 9a3e ce98 ac3d
00000200: 940d d33e e634 8b3e 19e4 94bc f022 2dbf
00000210: 2a2b 46be c91b b33b c3c0 ca3e c255 b5be
00000220: 5e75 13bd 33eb 61be 3e20 45be 9c01 823e
00000230: d319 0fbc d363 703e 366f e8bd 66ed 5c3e
00000240: de6a 2c3d bc57 7d3e b963 e1bd b0ff d23b
00000250: 1c1a e93d 55f3 813e c7cb e4be 5cee 1f3d
00000260: 8dbc 583d 13c5 b73e a6c9 7c3e 6ee6 c23e
00000270: a6e2 f7be a9b3 7a3e 0f47 52be 4095 f33e
00000280: b299 bcbd 6c10 853e e763 d23b 8c78 6d3e
00000290: fa53 c33d 4318 493f bc39 0ebe 8140 e2bd
000002a0: 1ccb aabb c515 863e aa03 c13e 181d edbd
000002b0: f983 cd3e 5309 51be 2ef2 bb3d 8f61 81be
000002c0: d7dd 063f 1052 2abd 28ec 323e 71bf da3d
000002d0: 448f 2c3e a9c1 4f3c fb92 fdbb 0be4 febd
000002e0: b1f1 4fbe 6e37 233e 5587 68bc e002 dabd
000002f0: 74ae 303e c302 163d cd9c 293e 4e84 833e
00000300: 1af2 40be 277b 423e 9c65 1f3e ee86 ed3c
00000310: 4144 6dbc 90bf 003e fea3 56be cc54 d73d
00000320: beac d2bd 3876 c3bd d50e 11be 87bb e2be
00000330: 8cd9 adbe 90ba cbbe 5962 30be 051a 413e
00000340: 9382 883e 7864 763d 2dee 163e 4262 a83e
00000350: a6f3 3e3c 7831 b83e e748 1c3e 6e4a c9be
00000360: 0504 b53e d256 cabe 1c3e 203e 233d babc
00000370: ff09 04be ff0f aabe 1037 413e de82 223e
00000380: 4351 0bbe 01ab bfbd 1381 f6bd 062d c5bd
00000390: bc25 f4bd 97fc 9abe a173 4d3e 5233 4b3c
000003a0: ca2a 41bd f07c 18be adde 83be 9765 a5bb
000003b0: 6e20 3cbd 746e e2be 1bbc 0d3e 4d70 c7bc
000003c0: 5151 e6be 4513 a1be c95e 82bd ad18 d13e
000003d0: 3644 3c3e 7149 1ebf 0d2e 62bd 69fb 6a3e
000003e0: 6998 9bbd abb9 b33e 2c9a 03be 9882 03bf
000003f0: 2564 cc3e 762e 923e 3a69 ea3d 8187 c23e

network_body._body_endoder.seq_layers.0.bias f4 [128]
-0.030479083 -0.05031477 0.011916775 -0.07519313 -0.20595813 -0.21049008 -0.017800173 -0.14267164
-0.076701075 0.0038273362 -0.13798201 -0.16745451 -0.057793166 -0.10050629 -0.050145824 -0.14306973
-0.062387936 -0.08173492 -0.12844086 -0.109495826 -0.07926473 -0.0149857765 -0.07278763 -0.008819786
0.03447368 -0.06991432 -0.009161138 -0.07981037 -0.12762316 -0.123034514 0.00889237 -0.10813561
-0.01733151 -0.12997438 -0.05232702 -0.1318472 0.024144646 -0.16495223 -0.123860106 -0.069137566
0.008709995 -0.096631005 -0.051667206 -0.08180655 -0.0018277497 -0.034959804 -0.036927767 -0.05768786
-0.08971129 -0.07294951 -0.09536043 -0.142652 -0.10824808 -0.030549206 -0.08603487 -0.25349844
-0.10543986 -0.109274454 -0.14452183 -0.18350632 -0.048070576 -0.10909325 -0.15217564 -0.05032318
-0.1807344 -0.045953162 0.02409987 -0.13051602 -0.113068216 -0.06592001 -0.063880794 -0.04444367
-0.09986638 -0.06062889 -0.043508805 -0.056230076 -0.058130283 0.06474206 -0.15782945 -0.1339268
-0.050954808 -0.13310605 -0.09596356 -0.07418232 -0.013145228 -0.048523962 -0.024569437 -0.111804664
-0.11034515 -0.09441404 -0.095477365 -0.018123146 -0.15471496 -0.033028364 -0.0752208 -0.16810781
-0.028301748 -0.16702674 -0.21724126 -0.07734273 -0.14469212 -0.0876952 -0.09696469 -0.022323662
-0.03567571 -0.1286093 -0.14740591 -0.16062313 -0.18152589 -0.08184844 -0.03890604 0.007273808
-0.19121407 0.016677449 -0.07965874 -0.031231401 0.013959168 -0.079550534 -0.052243013 0.015519684
-0.15437369 -0.0050444584 -0.23816857 -0.24973106 -0.14343874 -0.095550634 0.03644602 -0.069940925
00000000: 45af f9bc dc16 4ebd 943e 433c dbfe 99bd
00000010: b0e6 52be b68a 57be abd1 91bc 8418 12be
00000020: 7415 9dbd 0cd4 7a3b 284b 0dbe 3279 2bbe
00000030: 87b8 6cbd 3ed6 cdbd b565 4dbd df80 12be
00000040: 7e8a 7fbd a364 a7bd 0086 03be 593f e0bd
00000050: 8c55 a2bd e786 75bc ae11 95bd dd80 10bc
00000060: 4634 0d3d 3d2f 8fbd 9918 16bc 9f73 a3bd
00000070: a5af 02be 85f9 fbbd 4eb1 113c 3476 ddbd
00000080: d0fa 8dbc 0118 05be db54 56bd f402 07be
00000090: feca c53c 3de9 28be 5eaa fdbd ff97 8dbd
000000a0: 5eb4 0e3c 7ae6 c5bd fea0 53bd 318a a7bd
000000b0: 1a91 efba 0332 0fbd 9241 17bd 1b4a 6cbd
000000c0: 8eba b7bd 8d66 95bd 544c c3bd 5e13 12be
000000d0: 2bb1 ddbd 5442 fabc 0d33 b0bd 8cca 81be
000000e0: daf0 d7bd 49cb dfbd 88fd 13be 15e9 3bbe
000000f0: a7e5 44bd 486c dfbd eed3 1bbe ae1f 4ebd
00000100: 7012 39be 6239 3cbd 176d c53c fea5 05be
00000110: 4f90 e7bd 1201 87bd efd3 82bd 910a 36bd
00000120: bf86 ccbd 0056 78bd 4a36 32bd 8251 66bd
00000130: 051a 6ebd 7c97 843d 0b9e 21be 1b24 09be
00000140: fdb5 50bd f44c 08be 8b88 c4bd e6ec 97bd
00000150: 155f 57bc 10c1 46bd d845 c9bc d8f9 e4bd
00000160: a3fc e1bd 265c c1bd a389 c3bd fe76 94bc
00000170: 996d 1ebe c048 07bd 5d0d 9abd 7424 2cbe
00000180: 11d9 e7bc 0f09 2bbe 7e74 5ebe dd65 9ebd
00000190: 2c2a 14be 8b99 b3bd 6c95 c6bd 1de0 b6bc
000001a0: b120 12bd 28b2 03be 93f1 16be 647a 24be
000001b0: ece1 39be 28a0 a7bd f15b 1fbd 2059 ee3b
000001c0: 9fcd 43be 259f 883c 1f24 a3bd ffd8 ffbc
000001d0: ffb4 643c 64eb a2bd c5fc 55bd 4646 7e3c
000001e0: 2314 1ebe fc4b a5bb 76e2 73be 80b9 7fbe
000001f0: 9be1 12be 0db0 c3bd 6c48 153d 303d 8fbd

network_body._body_endoder.seq_layers.2.weight f4 [128, 128]
-0.03832765 0.06656219 -0.261882 0.007077942 0.019308832 -0.1172339 0.04650932 -0.2675981
0.050381545 -0.08007726 0.018557869 0.080445334 0.011575095 -0.16304782 0.041467313 -0.0958374
0.021967003 0.19006371 0.06475975 -0.08582301 0.07870174 0.085926026 0.09537712 0.018519012
-0.15092938 0.2046637 -0.35801232 -0.002355453 0.118977234 -0.15424098 -0.13535865 0.053407434
-0.20375086 0.0154912565 -0.020201717 -0.08889103 -0.003976493 0.037121452 0.029154588 -0.086830854
-0.1817668 -0.07456072 -0.005185806 0.07203032 -0.103736535 -0.18032125 0.09233057 0.027216796
0.021911236 -0.11952732 0.09177262 -0.003831308 0.036272734 -0.091547236 0.054295804 -0.009291388
0.014817984 -0.09601819 0.058581352 0.09575178 -0.04211352 0.10878482 0.100855775 -0.03347243
0.06401378 -0.015956065 0.14750472 -0.09684022 0.023686357 -0.052599564 -0.0316093 0.02287467
0.012020847 -0.07385376 -0.06688715 0.011839798 -0.060863785 -0.10746262 0.10465891 -0.13983917
-0.14594895 -0.04443857 0.029225606 -0.07928757 0.05272987 -0.079402424 0.07055014 -0.3009451
-0.030111087 0.005481208 0.021959629 0.13353957 0.032822624 -0.07406472 -0.06536546 0.017641261
0.10283439 -0.13263193 -0.09409201 0.13353102 -0.019601557 -0.14318334 0.22217086 -0.11247922
-0.0051483894 -0.028983401 0.04248343 0.002471666 -0.16462164 -0.02305521 0.06460862 0.005397955
-0.01513807 -0.03374106 0.17727625 0.21527004 -0.148631 -0.16973959 0.011937711 0.023889028
0.042576503 0.011847444 -0.0019653344 -0.008450513 0.14036706 -0.009080711 -0.06854009 -0.05960375
-0.024057938 -0.048880614 -0.10261639 0.15590295 0.05207029 -0.06896258 0.025698196 0.03819985
0.16069281 0.20166263 0.032528423 0.21825662 -0.1379804 -0.096420355 -0.06516866 0.13672626
0.0115288785 -0.12666315 0.21057479 -0.12312353 -0.18791375 -0.0036672242 -0.01880806 0.055419113
0.05981292 0.019671021 -0.07040391 0.17821495 0.047165144 0.05757935 0.007634895 0.20829642
0.14648545 0.053989 0.061700743 0.012345998 -0.014052826 0.009000913 0.01483386 -0.068650655
-0.048554074 0.045369912 -0.045822103 0.11691051 0.0058505563 0.11978247 -0.1610441 0.078615
-0.19916742 0.048286907 -0.040944993 0.11891781 -0.039285965 0.006586472 -0.12780629 0.0840008
0.06437146 -0.05686004 0.01786299 -0.060629148 -0.01909466 -0.22457159 -0.07666098 0.06531124
-0.06507079 0.013350006 0.10188129 0.120083526 0.06752357 -0.03191313 -0.0728198 -0.059038155
-0.052993298 0.023747971 0.20675796 0.07515402 0.0050091133 -0.0047583333 0.11151928 -0.04252298
-0.03977075 -0.043301634 -0.0032229403 0.076603055 -0.06913548 0.099754415 -0.19139016 0.059305154
-0.057890955 -0.082658686 0.031313572 0.16218753 0.12170423 -0.09084065 -0.056452543 -0.048124425
0.09257575 0.007763258 0.05315743 0.030926717 -0.046428647 0.010272186 0.023813233 -0.048418567
-0.032023087 -0.032906093 0.04791067 0.053630035 0.09411834 0.029443683 -0.111254714 -0.0077292565
0.016996615 -0.06926286 -0.13183649 -0.011843476 0.10727593 -0.121707454 0.018228684 0.04340778
0.12386789 -0.106432185 0.0076337866 -0.10055546 -0.017922502 -0.1012651 -0.08108922 0.034005515
00000000: 74fd 1cbd c251 883d 6615 86be 15ee e73b
00000010: 8e2d 9e3c 5418 f0bd 8f80 3e3d 9e02 89be
00000020: e15c 4e3d 8cff a3bd ac06 983c 86c0 a43d
00000030: 78a5 3d3c 02f6 26be a1d9 293d 6646 c4bd
00000040: 25f4 b33c 10a0 423e c3a0 843d f9c3 afbd
00000050: 612e a13d fcf9 af3d 1455 c33d 2fb5 973c
00000060: 3b8d 1abe 5c93 513e 644d b7be f25d 1abb
00000070: 56aa f33d 59f1 1dbe 759b 0abe c1c1 5a3d
00000080: 11a4 50be 0acf 7d3c 127e a5bc 800c b6bd
00000090: 3e4d 82bb aa0c 183d 9ad5 ee3c 60d4 b1bd
000000a0: 1321 3abe 4ab3 98bd b2ed a9bb a284 933d
000000b0: d273 d4bd 22a6 38be cf17 bd3d c2f5 de3c
000000c0: 317f b33c bdca f4bd 49f3 bb3d af16 7bbb
000000d0: b892 143d 1e7d bbbd 4765 5e3d e83a 18bc
000000e0: 21c7 723c 2fa5 c4bd 00f3 6f3d 8219 c43d
000000f0: 3a7f 2cbd 93ca de3d 798d ce3d 631a 09bd
00000100: a819 833d 4bb6 82bc 7a0b 173e 2a54 c6bd
00000110: e409 c23c a472 57bd c178 01bd a963 bb3c
00000120: 16f3 443c a440 97bd 21fc 88bd b6fb 413c
00000130: 4e4c 79bd 5d15 dcbd 6957 d63d 0032 0fbe
00000140: a473 15be 3805 36bd 8a6a ef3c 8661 a2bd
00000150: 47fb 573d bd9d a2bd 987c 903d 7a15 9abe
00000160: 87ab f6bc b59b b33b aee4 b33c 99be 083e
00000170: 0471 063d 3eaf 97bd 54de 85bd 6884 903c
00000180: d69a d23d aad0 07be 50b3 c0bd 5bbc 083e
00000190: 7293 a0bc a79e 12be c280 633e 815b e6bd
000001a0: d2b3 a8bb 996e edbc 1b03 2e3d adfb 213b
000001b0: 9392 28be 48de bcbc 8651 843d 54e1 b03b
000001c0: ab05 78bc 1134 0abd e887 353e c06f 5c3e
000001d0: ba32 18be 37d0 2dbe 6496 433c ecb2 c33c
000001e0: b364 2e3d c81b 423c d7cc 00bb 0574 0abc
000001f0: 62bc 0f3e 43c7 14bc bf5e 8cbd 1023 74bd
00000200: 2715 c5bc 0a37 48bd 8b28 d2bd 06a5 1f3e
00000210: a847 553d 413c 8dbd 0685 d23c 7277 1c3d
00000220: a88c 243e a680 4e3e 863c 053d aa7e 5f3e
00000230: bc4a 0dbe 0978 c5bd 2577 85bd f801 0c3e
00000240: 9fe3 3c3c fcb3 01be eba0 573e 3028 fcbd
00000250: 766c 40be d055 70bb 5c13 9abc 27ff 623d
00000260: 64fe 743d 1f25 a13c ed2f 90bd fb7d 363e
00000270: 3d30 413d 53d8 6b3d 242e fa3b a84b 553e
00000280: 4800 163e 9223 5d3d ebb9 7c3d de46 4a3c
00000290: d33d 66bc 9178 133c b809 733c b798 8cbd
000002a0: a3e0 46bd cdd5 393d f5af 3bbd c76e ef3d
000002b0: 06b6 bf3b 8350 f53d bfe8 24be e700 a13d
000002c0: 8bf2 4bbe 7ec8 453d f0b5 27bd 2e8b f33d
000002d0: 52ea 20bd 55d3 d73b a7df 02be 9d08 ac3d
000002e0: 2fd5 833d 13e6 68bd 6855 923c 4556 78bd
000002f0: 686c 9cbc 18f6 65be 6f00 9dbd e6c1 853d
00000300: d643 85bd fcb9 5a3c 23a7 d03d 5aee f53d
00000310: cc49 8a3d 58b7 02bd 8c22 95bd fed1 71bd
00000320: 800f 59bd 1b8b c23c 5cb8 533e 5aea 993d
00000330: 7d23 a43b cbeb 9bbb 3864 e43d 942c 2ebd
00000340: a7e6 22bd 0e5d 31bd f737 53bb 10e2 9c3d
00000350: e796 8dbd 0b4c cc3d c8fb 43be f6e9 723d
00000360: 111f 6dbd f548 a9bd a942 003d 7d14 263e
00000370: 1140 f93d aa0a babd c83a 67bd 1e1e 45bd
00000380: 5b98 bd3d ee62 fe3b 9bbb 593d 075a fd3c
00000390: f72b 3ebd ac4c 283c f813 c33c 8c52 46bd
000003a0: a42a 03bd 8ac8 06bd fb3d 443d 2bab 5b3d
000003b0: 1ec1 c03d e133 f13c 83d9 e3bd b445 fdbb
000003c0: 7c3c 8b3c b0d9 8dbd 2500 07be 240b 42bc
000003d0: 7cb3 db3d c241 f9bd 5254 953c 5bcc 313d
000003e0: 73ae fd3d 1ef9 d9bd d824 fa3b 05f0 cdbd
000003f0: 36d2 92bc 1464 cfbd 1b12 a6bd 5e49 0b3d

network_body._body_endoder.seq_layers.2.bias f4 [128]
-0.04678061 -0.1416208 0.018134179 -0.023409039 -0.049593613 0.053196426 -0.04183966 5.5593977e-05
-0.062391024 -0.05013467 -0.09166336 -0.042568944 -0.072790116 -0.03605819 -0.06742265 -0.091358975
0.027472176 -0.1001051 -0.09024978 0.092452586 -0.12878563 -0.035150725 0.030309815 -0.11564789
-0.045066968 -0.02763376 -0.022278 -0.023274422 -0.1484218 -0.0675623 -0.04241398 -0.03976192
-0.015825212 -0.07521909 -0.049742527 -0.07371567 0.007396391 -0.099732585 -0.084772386 -0.072195314
-0.12806945 -0.08703295 -0.021145519 -0.011933956 -0.109881416 -0.05548543 -0.014491048 -0.05456046
-0.07507464 -0.06890432 -0.08902171 -0.1535592 -0.014815751 -0.0017808898 -0.035052273 -0.0043362984
-0.11475225 0.008714976 -0.07028337 0.0049062283 -0.026673652 0.019329447 -0.116076656 -0.09919496
-0.078641705 -0.005505648 0.08432353 -0.09700428 0.027644254 -0.14163531 -0.056296192 -0.056373496
0.012233118 -0.1588578 -0.042963207 -0.09534473 -0.09489769 -0.12557863 -0.067942314 -0.0451333
-0.043990027 -0.04720416 -0.09672089 -0.07393771 0.004958604 -0.113416724 -0.091529384 -0.0056025414
-0.102867074 -0.16044639 -0.08646756 -0.03671684 -0.0323591 -0.091891125 -0.025927227 -0.16126059
-0.13332151 -0.036798634 -0.023951309 -0.103145435 -0.068743095 -0.03807098 -0.06584743 -0.043045074
-0.01963335 0.014309782 -0.061048687 0.038417954 -0.08921252 -0.104458556 -0.08160162 -0.028166376
-0.1632448 -0.044660557 0.0036265645 -0.11911092 -0.13603498 0.04700679 0.00066558673 -0.06680194
-0.07545772 -0.12955509 -0.067440644 -0.12509844 0.015571217 -0.057589244 -0.12868828 -0.061833672
00000000: 069d 3fbd 0b05 11be 218e 943c 50c4 bfbc
00000010: ac22 4bbd 7fe4 593d 1060 2bbd 942d 6938
00000020: bb8d 7fbd 035a 4dbd 00ba bbbd c65c 2ebd
00000030: fc12 95bd c1b1 13bd e314 8abd 6a1a bbbd
00000040: 540d e13c e703 cdbd e0d4 b8bd c857 bd3d
00000050: 61e0 03be 35fa 0fbd 4a4c f83c cdd8 ecbd
00000060: 2498 38bd 3260 e2bc 5a80 b6bc 00aa bebc
00000070: e2fb 17be 1a5e 8abd 48ba 2dbd 65dd 22bd
00000080: e0a3 81bc 770c 9abd d2be 4bbd 3ef8 96bd
00000090: 6d5d f23b 9940 ccbd 259d adbd 23db 93bd
000000a0: a324 03be 553e b2bd 5e39 adbc a486 43bc
000000b0: 8209 e1bd b144 63bd dc6b 6dbc ca7a 5fbd
000000c0: bcc0 99bd b51d 8dbd 0451 b6bd 9f3e 1dbe
000000d0: c4bd 72bc bf6c e9ba f992 0fbd 8217 8ebb
000000e0: 3a03 ebbd 42c9 0e3c baf0 8fbd 6dc4 a03b
000000f0: b482 dabc ca58 9e3c 99b9 edbd ba26 cbbd
00000100: e70e a1bd b968 b4bb d1b1 ac3d 2eaa c6bd
00000110: 3476 e23c d908 11be d696 66bd e5e7 66bd
00000120: 6a6d 483c 9eab 22be 30fa 2fbd 1944 c3bd
00000130: b859 c2bd af97 00be 5725 8bbd b2dd 38bd
00000140: e32e 34bd 2659 41bd 9a15 c6bd a76c 97bd
00000150: c97b a23b 0747 e8bd c273 bbbd 8695 b7bb
00000160: f9ab d2bd 0f4c 24be e715 b1bd 6664 16bd
00000170: fa8a 04bd 6a31 bcbd 5665 d4bc 7f21 25be
00000180: 6f85 08be 2aba 16bd 8935 c4bc ea3d d3bd
00000190: 2ec9 8cbd 51f0 1bbd 04db 86bd 0850 30bd
000001a0: 1fd6 a0bc 9373 6a3c 300e 7abd 255c 1d3d
000001b0: 0eb5 b6bd 5eee d5bd c01e a7bd 2cbd e6bc
000001c0: a529 27be fded 36bd a8ab 6d3b 6df0 f3bd
000001d0: c14c 0bbe 318a 403d c57a 2e3a 75cf 88bd
000001e0: 9489 9abd 17aa 04be 521e 8abd ce19 00be
000001f0: 6b1e 7f3c b3e2 6bbd dcc6 03be 4e45 7dbd

action_model._continuous_distribution.log_sigma f4 [1, 12]
-0.035419166 -0.08834285 0.013479922 -0.0016574275 -0.068252444 0.013976107 -0.0716317 0.0006056946
0.03418836 -0.0093373535 -0.044709574 -0.009908457
00000000: b013 11bd 19ed b4bd e4da 5c3c 0a3e d9ba
00000010: f0c7 8bbd 0bfc 643c a4b3 92bd 7ac7 1e3a
00000020: 1809 0c3d b3fb 18bc 6321 37bd 1557 22bc

action_model._continuous_distribution.mu.weight f4 [12, 128]
-8.812976e-05 -0.00477815 0.027180942 0.03965524 -0.054888736 0.012845129 -0.0029871224 -0.06394377
-0.014774243 0.028669013 -0.13143227 0.047535945 0.046505105 -0.044199113 0.011122231 0.024175039
-0.008991272 0.026797675 -0.011850319 0.021618787 0.016270168 0.018838055 0.054433707 -0.016400509
-0.033146746 0.0250951 0.05765066 -0.003305445 -0.004958534 -0.06244136 0.03050353 -0.0043255375
-0.017888466 0.01714049 -0.017004268 -0.103560485 -0.0072503863 -0.04764483 -0.019964581 -0.030500604
-0.03228496 0.007360043 -0.0014489554 0.003647093 -0.008547567 -0.0035725466 -0.05718395 -0.041546375
-0.051506706 0.017821258 -0.027690476 0.007943598 0.06136323 0.03511386 0.03284278 0.00885385
-0.031599388 -0.019739974 0.031385783 0.0057819886 -0.045068976 0.11160114 -0.0050293147 -0.06409505
0.006522536 -0.012321674 0.024277372 0.0004083326 -0.010272637 0.0289533 -0.01826917 0.008549386
-6.082822e-05 0.026353218 -0.011156544 -0.033107057 0.055119973 -0.094776146 0.00755614 -0.07346189
0.08515932 -0.04734817 0.011700455 -0.029942255 -0.0075736917 -0.071375385 -0.012551582 -0.03577986
-0.017407471 0.024745256 0.0059313984 -0.033663586 -0.006387653 0.019275848 -0.0873963 -0.01125239
-0.033225115 0.04593675 -0.0317728 0.025455032 -0.007962294 0.0070566502 -0.05692535 0.013517203
-0.0035412298 0.01056688 0.01391165 -0.016914895 0.067427136 -0.05727919 -0.08847348 0.018489992
-0.017857058 -0.029258512 0.0067186463 -0.013315496 -0.012331425 -0.06815702 -0.022581711 0.020632911
-0.05150219 -0.058149867 -0.0003185355 -0.04098276 -0.07413001 0.040686954 0.007546249 -0.004899063
-0.0021162934 -0.0010339017 0.023798926 2.4225446e-06 -0.060209837 -0.0780993 -0.0044802786 0.05363004
0.032410253 -0.008401011 0.0061338968 -0.11040456 0.089023896 -0.058120653 0.003784309 -0.0007094331
0.011000361 0.062415898 0.0004152919 0.022269262 0.005046327 0.056466553 -0.119652 -0.0060170987
0.007804319 0.07510659 -0.044004384 0.0035482915 -0.065834284 -0.03081685 0.13224305 -0.026559606
0.029214999 0.029683378 -0.054709397 -0.049148977 0.00015533133 -0.0146295 -0.03535333 0.05996371
-0.022508629 0.014064004 -0.0018123785 -0.007116423 -0.028459884 0.002521034 -0.022614252 0.019780599
-0.036566216 0.021720031 -0.01338931 0.01717774 -0.096026145 0.024085375 -0.034725983 0.002686178
0.011389069 0.013428849 0.0010323874 -0.006942551 -0.030667078 -0.02087457 -0.012737598 0.016325776
0.04498539 -0.018784508 -0.031518426 -0.015734037 0.00149808 0.021136703 0.011677645 0.002646713
-0.00610724 0.005936918 0.013776123 0.05456443 0.114728026 -0.07730996 -0.0039699315 0.0082275355
0.023439506 -0.043972354 -0.08021206 0.031718984 -0.012179811 0.09543325 -0.010027875 -0.014330378
0.007983097 0.05457895 0.035123903 -0.06292925 -0.009734109 0.0055550886 -0.034519814 0.017897323
0.014594396 -0.011294002 -0.021766692 0.020434167 0.008873159 0.03030956 -0.058724504 0.025601787
0.006456195 -0.06082571 -0.0095522 -0.02186862 -0.0035737841 -0.028186016 -0.039363462 -0.059216935
-0.012332475 -0.059200328 0.00072278536 -0.0030520665 -0.010162682 -0.091725014 -0.14025328 0.009991561
-0.07898773 0.008321294 0.015408312 -0.03128975 -0.031551853 -0.0067512565 0.051141255 0.017284954
00000000: 4ed2 b8b8 0792 9cbb 91aa de3c 886d 223d
00000010: 03d3 60bd 6074 523c 99c3 43bb f4f4 82bd
00000020: ab0f 72bc 47db ea3c 2e96 06be 0db5 423d
00000030: 237c 3e3d 210a 35bd 053a 363c bb0a c63c
00000040: 2150 13bc cc86 db3c d727 42bc e219 b13c
00000050: 0449 853c 4452 9a3c e1f5 5e3d 5c5a 86bc
00000060: e2c4 07bd 3d94 cd3c 1923 6c3d 2aa0 58bb
00000070: 337b a2bb 83c2 7fbd 8ae2 f93c 3dbd 8dbb
00000080: d58a 92bc 366a 8c3c 894c 8bbc 8517 d4bd
00000090: a694 edbb 3a27 43bd c38c a3bc 67dc f9bc
000000a0: 3c3d 04bd 842c f13b e0ea bdba 1104 6f3b
000000b0: 180b 0cbc 6321 6abb b839 6abd 882c 2abd
000000c0: b2f8 52bd e3fd 913c 23d7 e2bc dd25 023c
000000d0: 0358 7b3d 8dd3 0f3d 2786 063d bd0f 113c
000000e0: 5c6e 01bd bab5 a1bc 618e 003d d676 bd3b
000000f0: 3f9a 38bd 238f e43d f3cc a4bb 4444 83bd
00000100: ffba d53b d9e0 49bc 57e1 c63c 7915 d639
00000110: 904e 28bc 792f ed3c 3aa9 95bc b912 0c3c
00000120: ce21 7fb8 b4e2 d73c f0c9 36bc 449b 07bd
00000130: 7bc5 613d ff19 c2bd 7f99 f73b 3073 96bd
00000140: 0268 ae3d 28f0 41bd 44b3 3f3c 7649 f5bc
00000150: bb2c f8bb 422d 92bd 27a5 4dbc e78d 12bd
00000160: 1d9a 8ebc 90b6 ca3c 2d5c c23b d4e2 09bd
00000170: 844f d1bb 62e8 9d3c d5fc b2bd f25b 38bc
00000180: 0f17 08bd 2c28 3c3d 3224 02bd 1287 d03c
00000190: 4874 02bc 793b e73b 8e2a 69bd 4277 5d3c
000001a0: fa13 68bb b520 2d3c b0ed 633c 1b91 8abc
000001b0: 3d17 8a3d 959d 6abd 9531 b5bd 5378 973c
000001c0: f748 92bc 8caf efbc 1728 dc3b 3d29 5abc
000001d0: bf09 4abc e895 8bbd 48fd b8bc 5a06 a93c
000001e0: f6f3 52bd 8e2e 6ebd 1c01 a7b9 8add 27bd
000001f0: 7ad1 97bd 5da7 263d 8646 f73b 5288 a0bb
00000200: 83b1 0abb fc83 87ba f7f5 c23c 0093 2236
00000210: 979e 76bd 87f2 9fbd 4dcf 92bb 2cab 5b3d
00000220: 9dc0 043d 65a4 09bc dbfe c83b c91b e2bd
00000230: 2952 b63d ec0f 6ebd 2b02 783b 40f9 39ba
00000240: dc3a 343c d0a7 7f3d 89bb d939 076e b63c
00000250: a95b a53b 7949 673d 1c0c f5bd 152b c5bb
00000260: 5fbb ff3b 7cd1 993d f13d 34bd 748a 683b
00000270: 20d4 86bd 9e73 fcbc b96a 073e 8893 d9bc
00000280: 4b54 ef3c 8e2a f33c f616 60bd 7050 49bd
00000290: 70e0 2239 92b0 6fbc a7ce 10bd 829c 753d
000002a0: 0464 b8bc b56c 663c 558d edba e230 e9bb
000002b0: b424 e9bc ef37 253b 8641 b9bc ec0a a23c
000002c0: 75c6 15bd 35ee b13c d65e 5bbc 55b8 8c3c
000002d0: 5ba9 c4bd b14e c53c d53c 0ebd 970a 303b
000002e0: 3899 3a3c ad04 5c3c 2c51 873a 577e e3bb
000002f0: 8639 fbbc 2501 abbc 5cb1 50bc a2bd 853c
00000300: 9a42 383d f8e1 99bc 7719 01bd abe4 80bc
00000310: 395b c43a e126 ad3c 9853 3f3c 7a74 2d3b
00000320: 3e1f c8bb 7a8a c23b 3fb5 613c f47e 5f3d
00000330: 87f6 ea3d af54 9ebd 3316 82bb c9cc 063c
00000340: 3504 c03c 5b1c 34bd 3846 a4bd c4eb 013d
00000350: d48d 47bc 8272 c33d f54b 24bc f6c9 6abc
00000360: 89cb 023c 2d8e 5f3d 15de 0f3d 0de1 80bd
00000370: d07b 1fbc 7607 b63b a664 0dbd 689d 923c
00000380: 551d 6f3c 7a0a 39bc 1050 b2bc 8e65 a73c
00000390: ba60 113c c14b f83c 1b89 70bd d7ba d13c
000003a0: 7d8e d33b 6124 79bd d580 1cbc d225 b3bc
000003b0: 2636 6abb 5ce6 e6bc 953b 21bd 758d 72bd
000003c0: 260e 4abc 0b7c 72bd 4e79 3d3a 2e05 48bb
000003d0: 6181 26bc 53da bbbd 8e9e 0fbe a5b3 233c
000003e0: 52c4 a1bd 0956 083c 2573 7c3c ae29 00bd
000003f0: 843c 01bd a539 ddbb 7e79 513d 2d99 8d3c

action_model._continuous_distribution.mu.bias f4 [12]
0.09153365 -0.033234015 -0.05992382 -0.0059289522 -0.049925566 0.020871203 0.12083691 0.015336963
-0.02707633 0.088777736 -0.09282727 0.016211828
00000000: ff75 bb3d 6420 08bd ae72 75bd a847 c2bb
00000010: c07e 4cbd 16fa aa3c 5879 f73d e347 7b3c
00000020: 2ecf ddbc 1ad1 b53d 391c bebd abce 843c

onnx::Div_51 f4 [18]
0.0009765974 0.47665662 0.0009765974 0.32202825 0.0009765974 0.0009765974 0.0009765974 0.0009765974
0.33346713 0.32415563 0.25849256 0.23944291 0.38830012 0.01966499 0.11733943 0.36992088
0.20794944 0.19579376
00000000: 2c01 803a 560c f43e 2c01 803a e3e0 a43e
00000010: 2c01 803a 2c01 803a 2c01 803a 2c01 803a
00000020: 34bc aa3e baf7 a53e 2359 843e 8630 753e
00000030: 46cf c63e 7918 a13c a84f f03d 4566 bd3e
00000040: b3f0 543e 297e 483e
