NICO-master/NICO_articulation_body/Assets/NICO.onnx (onnx, 76594 bytes, 9 tensors)

50 f4 [9]
0	0x42213d9d	40.31017
1	0x41ed226e	29.641811
2	0x41fbb9d2	31.465733
3	0x41a33a39	20.403429
4	0x42297946	42.36843
5	0x41dd5626	27.667065
6	0x3eb91ca7	0.36154673
7	0x3e0e5dcb	0.13902967
8	0x3e8709f9	0.26374796

action_model._continuous_distribution.log_sigma f4 [1, 6]
0	0xbd4456e9	-0.047934446
1	0xbd0a9117	-0.033829775
2	0xbd004209	-0.031312976
3	0xbd31dea6	-0.043425225
4	0xbcb80958	-0.022465393
5	0xbd0566ce	-0.032568745

action_model._continuous_distribution.mu.bias f4 [6]
0	0x3e10c1a1	0.14136364
1	0x3ce6bae2	0.028165285
2	0x3b8b3f0a	0.004249458
3	0x3d19a6eb	0.0375127
4	0x3cd1117f	0.025521038
5	0x3b0068e9	0.0019593781

action_model._continuous_distribution.mu.weight f4 [6, 128]
0	0x3b135e0a	0.0022486472
1	0x3aa2a4b4	0.0012408704
2	0x3cb32598	0.021868512
3	0xbd047818	-0.032341093
4	0x3d5842c2	0.05279804
5	0xbc577ce0	-0.013152331
6	0xbd85b797	-0.065291576
7	0xbbe07f55	-0.0068511167
8	0x3b394ee3	0.002827578
9	0x3bad686f	0.0052919905
10	0x3d2687c0	0.040656805
11	0x3c7d1818	0.015447639
12	0x3c867404	0.016412742
13	0x3ca6512c	0.020302378
14	0xbc9c936f	-0.01911327
15	0xbd7f4698	-0.062323183
16	0xbc28d4f2	-0.010304676
17	0xbca5c262	-0.02023429
18	0x3d66dd15	0.056363184
19	0xbd1128d5	-0.03543933
20	0x3ca58cd4	0.020208754
21	0xbbdea23d	-0.0067942427
22	0x3de238a4	0.110459596
23	0xbd353298	-0.044237703
24	0xbc9d8573	-0.019228673
25	0xbd266387	-0.04062226
26	0x3b332c60	0.0027339682
27	0xbd41f814	-0.047355726
28	0x3c906f78	0.017631277
29	0xbb93b195	-0.0045072534
30	0x3cdad892	0.026714597
31	0x3c04564a	0.008077214
32	0x3d1c0c28	0.03809753
33	0xbd94c425	-0.07263974
34	0x3d1a7994	0.037713602
35	0xbc2ff111	-0.010738627
36	0x3ce84387	0.028352512
37	0x3ca81baf	0.020521013
38	0xbc3d9c53	-0.011572915
39	0xbd0aea1a	-0.033914663
40	0xb90f633c	-0.0001367451
41	0x39d48de1	0.000405415
42	0xbcdeeacd	-0.027211571
43	0xbde87d10	-0.11351979
44	0xbcb6654e	-0.022265103
45	0xbcc28507	-0.023745073
46	0x3d0dd214	0.034624174
47	0x3b7b168c	0.0038313
48	0x3cf3cd09	0.029760854
49	0x3c92db77	0.017926915
50	0x3c68fa2d	0.014219803
51	0xbc87e067	-0.016586496
52	0xbd17334a	-0.036914147
53	0xbcf59f83	-0.029983288
54	0x3af710cc	0.001884961
55	0x3d261bad	0.040553737
56	0x3d9a62b4	0.075383574
57	0xbb82fb2b	-0.0039972267
58	0xba9b56ba	-0.0011851408
59	0xbcd71d0a	-0.026258964
60	0xbcec186a	-0.028820235
61	0x3ad8bc1a	0.0016535551
62	0x3dc32c95	0.09529988
63	0xbcbf90dd	-0.023384506
64	0x3ccb1198	0.024788663
65	0x3a924bed	0.0011161544
66	0x3c8b9a36	0.017041307
67	0x3c0da161	0.008644433
68	0x3c9dc979	0.019261109
69	0x3d678867	0.056526568
70	0x3b8104c9	0.003937338
71	0x3d01fbbe	0.03173422
72	0x3c92532b	0.017861923
73	0xbd7fe031	-0.062469665
74	0x3dbea046	0.093079135
75	0xbcd949fc	-0.026524536
76	0xbcec32bc	-0.028832786
77	0xbd82b3fd	-0.06381986
78	0x3d4da8df	0.050209876
79	0x3d240812	0.04004676
80	0xbd7ea3d7	-0.06216797
81	0xbcfebbb0	-0.031095356
82	0xbd0f6806	-0.035011314
83	0x3d2e3e77	0.04254004
84	0xbcc6b3a8	-0.024255589
85	0xbc304e32	-0.010760831
86	0x3b665607	0.003514649
87	0xbd60251f	-0.0547229
88	0x3c686d16	0.014186164
89	0xbc9b99fd	-0.018994326
90	0x3de6cfdf	0.11270117
91	0xbd014cb3	-0.031567287
92	0xbd938161	-0.072024114
93	0xbd16a2a3	-0.036776196
94	0x3c844974	0.016148306
95	0xbbdaaf02	-0.0066736946
96	0xbc9e8e14	-0.019354858
97	0xbcb46d66	-0.022024821
98	0x3ccdd9c9	0.025128262
99	0x3d8c2ffa	0.06845088
100	0x3d0c8293	0.034304213
101	0xbd354ed0	-0.044264615
102	0x3d2acc82	0.04169894
103	0xbc310622	-0.010804685
104	0x3d4614a3	0.048359524
105	0x3d6ef8c9	0.05834273
106	0x3db0e864	0.08638075
107	0x3c0d7c94	0.008635659
108	0x3ca58ee2	0.020209733
109	0x3d50099c	0.050790414
110	0x3d47d15b	0.04878364
111	0x3c15df29	0.009147444
112	0xbb82e676	-0.0039947582
113	0x3d353fb8	0.04425022
114	0x3ce86372	0.028367732
115	0xbb3632c2	-0.002780125
116	0xbc51ad34	-0.0127976425
117	0xbd07c731	-0.033148948
118	0xbc4737ca	-0.012159297
119	0xbd0ec88b	-0.03485922
120	0x3c065570	0.008199081
121	0x3da78234	0.08179131
122	0x3c014fc8	0.0078925565
123	0x3c8f6d97	0.017508311
124	0xbd2eef96	-0.042708956
125	0x3bf03bf9	0.007331368
126	0x3d1860ed	0.03720181
127	0x3d791bc3	0.06081749
128	0xbc9bada9	-0.019003706
129	0x3cf1720c	0.029473327
130	0xbd9581ac	-0.073001236
131	0xbb5df220	-0.0033866242
132	0x3ba5c61c	0.005059017
133	0x3d8b999d	0.06816409
134	0xbd765055	-0.060135204
135	0xbd1188a0	-0.035530686
136	0xbb38e18d	-0.002821061
137	0x3c6e91c9	0.014561125
138	0x3d05afab	0.032638233
139	0xbb976b1d	-0.004620923
140	0x3d31eeb5	0.04344054
141	0xbc435256	-0.011921486
142	0xbd36194a	-0.04445771
143	0xb78a2a51	-1.6470587e-05
144	0xbce1f231	-0.027581306
145	0xbc6b8025	-0.014373814
146	0xbb9b8322	-0.004745857
147	0xbbe1edbf	-0.0068947966
148	0x3b3411a3	0.0027476333
149	0x3b575512	0.0032857102
150	0x3cabe8aa	0.020984966
151	0x3cb1277d	0.021625275
152	0xbc89b59e	-0.016810235
153	0xbcd8ce33	-0.026465511
154	0x3b06bca7	0.0020559223
155	0xbce412e8	-0.027841046
156	0xbbb642b9	-0.005562153
157	0xbb778c86	-0.0037772967
158	0x3c08950c	0.008336317
159	0x3d367876	0.044548474
160	0x3d1d1f9b	0.03836022
161	0xbd480652	-0.048834153
162	0xbd4508b2	-0.048103996
163	0x3c12aa4f	0.008951738
164	0x3d8c701b	0.0685732
165	0xbd4333fe	-0.047657005
166	0x387332fa	5.798319e-05
167	0x3d865a47	0.06560188
168	0x3b979ddc	0.0046269726
169	0xbcedd098	-0.02903013
170	0x3d1d8042	0.038452394
171	0xbc1e1586	-0.009648686
172	0xbcad4cb1	-0.021154733
173	0xbd789d58	-0.06069693
174	0x3bc63160	0.0060483664
175	0x3b22190c	0.0024734167
176	0x3d04d4dd	0.032429565
177	0x3ccb0c17	0.024786038
178	0xbc9bd6a6	-0.01902325
179	0xbd01647f	-0.03158998
180	0x3cb0268e	0.02150276
181	0x3cee5150	0.029091507
182	0x3b14279b	0.0022606615
183	0xbbb93dbd	-0.0056531117
184	0x3d91817d	0.07104776
185	0x3bd12f05	0.006383779
186	0x3d162537	0.036656585
187	0x3af8e17d	0.0018988099
188	0xba205094	-0.00061155227
189	0x3a885529	0.0010401356
190	0x3b859c95	0.004077504
191	0xbc81ac2c	-0.015829168
192	0x3c5f13c3	0.013615551
193	0x3c911b0f	0.017713098
194	0x3b76c087	0.0037651376
195	0x3bd84e44	0.006601127
196	0x3d371d8e	0.04470592
197	0x3d5eb967	0.054376032
198	0xbbd11279	-0.006380376
199	0x3d1cf01b	0.03831492
200	0x3c5966f1	0.013269172
201	0xbd8490c8	-0.06472927
202	0xbb920044	-0.004455598
203	0x3d201262	0.03908003
204	0x3c988302	0.018617157
205	0xbd367b92	-0.04455144
206	0x3d3204a0	0.043461442
207	0x3d98a83b	0.074539624
208	0xbd3d7018	-0.04624948
209	0xbae5d3f8	-0.0017534485
210	0x3cc2de2b	0.023787579
211	0x3bd521cb	0.0065042726
212	0xbaff3157	-0.001946966
213	0xbc57dabb	-0.013174708
214	0xbc7aef78	-0.015315883
215	0xbc68cab4	-0.014208484
216	0xbba9616a	-0.0051690834
217	0xbcf45650	-0.029826313
218	0x3b93aee1	0.004506931
219	0x3d9639e5	0.07335261
220	0xbc0b5024	-0.008502994
221	0x3cd56df6	0.02605341
222	0xbc113559	-0.008862817
223	0xbd721730	-0.059104145
224	0x3cf195ce	0.029490378
225	0xbce4d4d9	-0.027933525
226	0xbce0a1c3	-0.027420884
227	0x3c6b0d5c	0.014346447
228	0x3cd8f2be	0.026482936
229	0x3d489eb4	0.048979476
230	0x3c1c2432	0.009530114
231	0x3d9e2961	0.07722736
232	0xbd420c46	-0.047374986
233	0xbcceb99b	-0.025234988
234	0x3ac058e1	0.0014674925
235	0xbb8065bd	-0.003918378
236	0xbc4051b8	-0.011738233
237	0x3b63283e	0.0034661437
238	0x3ca6c5e2	0.02035803
239	0x3c21db16	0.009878894
240	0xbbc7bc30	-0.0060954317
241	0x3bf7ba78	0.0075600706
242	0x3c63ebbd	0.013911185
243	0xbb9dd34f	-0.0048164497
244	0x3b2f74f2	0.0026772586
245	0xbae63669	-0.0017563823
246	0xbc56ff23	-0.013122353
247	0x3c8c3b08	0.017117992
248	0xbc251122	-0.010074886
249	0xbd3266a7	-0.04355493
250	0xbbf286ca	-0.007401322
251	0x3bc090d1	0.0058766385
252	0xbd197d40	-0.037472963
253	0xbb0ecf0e	-0.0021790895
254	0x3c96d424	0.018411703
255	0x3b970334	0.004608536

network_body._body_endoder.seq_layers.0.bias f4 [128]
0	0xbd82fbfb	-0.06395718
1	0x3d1d1b96	0.038356386
2	0x3db15615	0.08658997
3	0x3dc34940	0.09535456
4	0xbc5d6406	-0.013512617
5	0xbd37a37f	-0.044833656
6	0xbe2527f7	-0.16128527
7	0xbe099ce0	-0.1343875
8	0xbe043a21	-0.129128
9	0xbe04614b	-0.1292774
10	0xbd7e15e6	-0.062032603
11	0xbdacb08a	-0.0843211
12	0x3cb5f8c8	0.022213355
13	0xbd8ebb35	-0.06969301
14	0xbc561934	-0.013067532
15	0xbdf6ba67	-0.12047272
16	0xbe259d79	-0.16173352
17	0xbd387e2a	-0.045042194
18	0x3cca695b	0.02470844
19	0xbb77502a	-0.003773699
20	0x3daa59ae	0.08317886
21	0xbd23c279	-0.039980385
22	0xbcc22f9b	-0.02370434
23	0xbcf50157	-0.029907865
24	0x3d02b0cf	0.0319069
25	0xbd3adbc5	-0.045619745
26	0xbd6e1e66	-0.05813446
27	0x3e09cc3b	0.13456814
28	0x3c8d1999	0.01722412
29	0x3c42a5b2	0.011880325
30	0xbd2e429d	-0.042543996
31	0x3d012284	0.031527057
32	0xbd958cd9	-0.07302255
33	0x3df5f726	0.120100304
34	0x3da3e61b	0.080028735
35	0x3d9596ff	0.07304191
36	0xbd9d47b2	-0.076796904
37	0x3c4d1ae3	0.012518617
38	0x3d4b829f	0.049685117
39	0x3dd4494d	0.103655435
40	0x3a1dcd92	0.0006019707
41	0x3dee9c18	0.11650866
42	0x3d810dd9	0.06301469
43	0xb8a6db28	-7.956318e-05
44	0xbd863ae3	-0.065542005
45	0xbdf5d809	-0.12004096
46	0xbe09b8ff	-0.13449477
47	0xbd3cc564	-0.046086684
48	0x3da2c7d9	0.07948274
49	0xbdc41ebd	-0.09576175
50	0xbe1e7bc8	-0.15476906
51	0xbd07179b	-0.032981496
52	0x3cc51948	0.024059907
53	0xbaaccd45	-0.0013183734
54	0xbcec812a	-0.028870184
55	0x3d1dd6df	0.038534995
56	0xbdc23cff	-0.0948429
57	0xbdd570c6	-0.104219005
58	0x3c08c24f	0.008347108
59	0xbb99b225	-0.004690426
60	0xbd471edd	-0.048613418
61	0xbd9c562f	-0.07633626
62	0x3d6ca80b	0.057777446
63	0xbd8116a5	-0.06303147
64	0xbd8afb8e	-0.067862615
65	0x3c3d3e99	0.011550569
66	0xbc663ce5	-0.014052604
67	0xbd2dd6fe	-0.04244136
68	0x3d79b8b3	0.06096716
69	0xbdc7755b	-0.09739181
70	0x3cb68b1d	0.022283131
71	0x3c0b72d6	0.008511266
72	0xbcb1a817	-0.021686597
73	0xbda6a110	-0.08136189
74	0xbdd58e56	-0.10427539
75	0xbd5bfe4a	-0.053709306
76	0x3d01b2cf	0.031664666
77	0xbd9948d1	-0.07484592
78	0x3c11298d	0.008860004
79	0xbd3a8555	-0.04553731
80	0x3e1085b1	0.14113499
81	0xbc1d9ba0	-0.009619623
82	0xbd32f6ed	-0.043692518
83	0xbc91535b	-0.017739942
84	0xbce8dd30	-0.028425783
85	0xbda77cd3	-0.08178105
86	0xbc9186b0	-0.01776442
87	0xbd7bc496	-0.061466776
88	0x3cbef29d	0.023309046
89	0xbe005c6f	-0.1253526
90	0xbdd830d6	-0.1055619
91	0x3c8263c1	0.015916707
92	0xbda193a1	-0.07889486
93	0xbce497fa	-0.0279045
94	0xbcfbb931	-0.030727955
95	0xbdfb914d	-0.12283573
96	0x3ce7a1a8	0.028275326
97	0x3d26fbf8	0.04076764
98	0xbda57bef	-0.08080279
99	0xbb8e3e53	-0.0043409257
100	0xbe04c911	-0.12967326
101	0xbd1d1513	-0.038350176
102	0xbcff88c5	-0.031193146
103	0x3cbbbb6a	0.022916514
104	0x3c4357dd	0.011922804
105	0x3d52725a	0.051378585
106	0xbceeaf69	-0.029136376
107	0xbdf36451	-0.11884368
108	0x3dd2165e	0.102581725
109	0xbd3fca36	-0.046823703
110	0xbe06976e	-0.13143703
111	0xbc952ce7	-0.018209888
112	0xbde2ca84	-0.11073783
113	0x3d8d6e26	0.06905775
114	0xbc0eb335	-0.0087097185
115	0x3db290fa	0.08719058
116	0xbde6c54c	-0.112681
117	0xbc86a82e	-0.016437616
118	0x3e0073d8	0.12544191
119	0x3c6e4ba9	0.014544406
120	0x3d5601b6	0.052247725
121	0x3c724726	0.014787471
122	0x3d19876f	0.037482675
123	0x3d9aa30e	0.075506315
124	0xbdfbe7bf	-0.123000614
125	0x3d962170	0.073305964
126	0x3b6a789e	0.003577746
127	0x3c4aa355	0.012368043

network_body._body_endoder.seq_layers.0.weight f4 [128, 9]
0	0xbeafd0ae	-0.34338897
1	0x3d9f5a7d	0.07780931
2	0xbba0c74f	-0.004906572
3	0xbd7bb45f	-0.061451312
4	0x3e197bb5	0.14988597
5	0x3e848a42	0.25886732
6	0x3e4bbe48	0.19896805
7	0xbf2606cd	-0.6485413
8	0x3ec6a02c	0.38794076
9	0xbf1a5997	-0.60292953
10	0x3e25f180	0.16205406
11	0x3eac5a93	0.33662853
12	0x3e9b4e74	0.30333292
13	0xbece9d6f	-0.40354487
14	0x3f272d29	0.65303284
15	0xbd2b532c	-0.041827366
16	0x3cfa2442	0.030534867
17	0xbe349ffd	-0.17639156
18	0xbe8a2fd4	-0.26989615
19	0x3eedefee	0.46472114
20	0xbda11709	-0.07865722
21	0xbe127715	-0.14303239
22	0xbe69a953	-0.22818498
23	0xbe118253	-0.14209871
24	0xbe83284c	-0.25616682
25	0x3f0772bb	0.5290944
26	0xbed30a07	-0.41218588
27	0x3bdb0719	0.0066841957
28	0xbd98e634	-0.07465783
29	0x3d9233ec	0.071388096
30	0x3d75a956	0.059975944
31	0x3e87ded5	0.26537195
32	0x3d5add1d	0.053433526
33	0xbe9f00e9	-0.31055382
34	0xbf21b0c7	-0.63160366
35	0x3e58cee7	0.21172677
36	0x3cc5e758	0.024158165
37	0xbeda5724	-0.42644608
38	0xbce68135	-0.028137783
39	0x3da75f9a	0.081725314
40	0x3f2834e6	0.65705717
41	0xbd836b82	-0.0641699
42	0x3eae1389	0.3399928
43	0xbd91197e	-0.070849404
44	0x3ec73ade	0.389121
45	0xbead5f65	-0.33861843
46	0xbeb261e5	-0.34840313
47	0x3f0903d0	0.5352144
48	0x3b95bbf3	0.0045695244
49	0xbd6001e6	-0.05468931
50	0x3df9b934	0.12193528
51	0x3f2f9e1f	0.6860065
52	0xbd57c7a1	-0.052680615
53	0x3f14dd2e	0.58149993
54	0xbca40f15	-0.020026723
55	0x3ef92aae	0.48665375
56	0x3f3ceaf5	0.73796016
57	0xbee9cf8b	-0.45666155
58	0x3dcfdaca	0.101491526
59	0x3ea0b47f	0.31387708
60	0xbf28f866	-0.66004026
61	0xbe9ba01c	-0.3039559
62	0x3d49e123	0.049286973
63	0x3f685786	0.9075855
64	0x3e4bcb1c	0.19901699
65	0xbd4083e6	-0.04700079
66	0x3df9950d	0.12186632
67	0xbee51ba5	-0.44747654
68	0x3eda209b	0.42603
69	0xbdf41365	-0.11917762
70	0xbcfd7c72	-0.03094313
71	0xbcf6790f	-0.030087022
72	0xbebde347	-0.3708746
73	0x3dea0d62	0.11428334
74	0x3e0e705a	0.13910046
75	0x3e275c40	0.16343784
76	0xbeb23aeb	-0.34810576
77	0xbe23150f	-0.15926002
78	0x3eefd145	0.46839347
79	0x3e08f455	0.13374455
80	0xbd5e0ec1	-0.05421329
81	0x3d4f422c	0.050600216
82	0x3ca6f479	0.020380246
83	0x3d8c5e2e	0.06853901
84	0x3cfb4c00	0.030675888
85	0x3d8d9b69	0.06914408
86	0xbc0fff1e	-0.008788852
87	0x3ecc064a	0.39848548
88	0xbd2a9c80	-0.041653156
89	0xbf0fa74b	-0.56114644
90	0xbd07d552	-0.033162422
91	0xbd8b4f93	-0.06802287
92	0xbedc5912	-0.43036705
93	0x3e695dff	0.22789763
94	0x3f07e1d7	0.5307898
95	0xbf8a5798	-1.0807981
96	0x3d6e14da	0.058125354
97	0x3ee27646	0.4423086
98	0xbeb94876	-0.36188096
99	0xbdcdc373	-0.100470446
100	0x3ee43660	0.44572735
101	0x3ef24030	0.47314596
102	0x3eb074c2	0.3446408
103	0x3ebaaca8	0.3645985
104	0x3f37f299	0.7185455
105	0xbe41f634	-0.18941575
106	0xbe2ad11e	-0.16681334
107	0x3e6797d3	0.2261651
108	0x3e20ee84	0.15715986
109	0x3ec7cba2	0.39022547
110	0x3f370bca	0.71502364
111	0xbdacb5ab	-0.08433088
112	0x3dd4bff6	0.10388176
113	0xbe3f21e0	-0.18665266
114	0xbe1cd0ee	-0.15314075
115	0xbedc5277	-0.43031666
116	0xbee1ee7e	-0.44127268
117	0x3f138e40	0.5763893
118	0xbd746fbf	-0.059676882
119	0xbd80872b	-0.06275781
120	0xbe0567a2	-0.13027814
121	0x3e9c604d	0.30542222
122	0xbeab5d13	-0.33469447
123	0x3eaf32fb	0.34218583
124	0x3ed0c2db	0.40773663
125	0xbebc38aa	-0.3676198
126	0x3e03dcc8	0.1287719
127	0x3e91466c	0.2837404
128	0xbe8b48fe	-0.27204126
129	0xbeac4fbe	-0.33654588
130	0xbedd672b	-0.43242773
131	0xbe190c8d	-0.14946194
132	0x3ee1ee6a	0.44127208
133	0x3d64c04a	0.055847444
134	0xbf19b621	-0.6004353
135	0xbef98a3b	-0.48738274
136	0xbe45d775	-0.19320472
137	0xbeb80ccb	-0.3594726
138	0x3e858f9d	0.2608613
139	0x3f21290a	0.62953246
140	0xbe029112	-0.12750652
141	0x3eafcf67	0.34337923
142	0x3ddf098b	0.10890492
143	0x3e4d5324	0.20051247
144	0xbe98cf88	-0.29845834
145	0x3cd300db	0.025757244
146	0x3e07d024	0.13262993
147	0x3e131f55	0.14367421
148	0x3f15618a	0.5835196
149	0xbe3a4985	-0.18192108
150	0xbce3da0a	-0.02781393
151	0x3cce7ff5	0.025207499
152	0x3ef35977	0.47529194
153	0x3ed87fef	0.42285106
154	0x3e986457	0.29764053
155	0x3dfcb2a7	0.12338763
156	0xbe882825	-0.26593128
157	0xbe27942a	-0.16365114
158	0xbc3cb57d	-0.01151788
159	0x3e0207b9	0.12698258
160	0x3d77228a	0.060335673
161	0xbfad08b4	-1.3518281
162	0xbe690b22	-0.22758153
163	0xbf064131	-0.52443224
164	0x3ec5863e	0.3857898
165	0xbe3cba0f	-0.1843035
166	0xbe559a02	-0.2085953
167	0x3ef3dd62	0.4762984
168	0x3e27f398	0.16401517
169	0x3e7d71b1	0.24750401
170	0xbe1963de	-0.14979503
171	0x3dcfbd8f	0.10143577
172	0x3d478480	0.048710346
173	0x3f1e3086	0.6179279
174	0xbe6fd9e7	-0.23422967
175	0xbe4aecd4	-0.19816905
176	0xbebbb750	-0.36663294
177	0x3eb4e61b	0.35331807
178	0xbe0a4dc7	-0.13506232
179	0x3f06a2b7	0.52592033
180	0x3dbe3e53	0.09289231
181	0x3f171254	0.5901234
182	0x3ca4db2d	0.020124042
183	0x3e9110d9	0.28333166
184	0x3da3cfda	0.07998629
185	0x3e065764	0.13119274
186	0x3d2174e3	0.039418112
187	0xbea33588	-0.3187678
188	0xbf379923	-0.71718043
189	0x3f5cb9fc	0.8622129
190	0xbf1be586	-0.608971
191	0x3d83f05e	0.06442331
192	0xbe785d0d	-0.24254246
193	0x3dc5c5bf	0.09656858
194	0xbe9f5c3e	-0.31125063
195	0x3ec4d3ce	0.38442844
196	0x3ebd0b90	0.36922884
197	0x3eee93d0	0.46597147
198	0xbdb0a2a7	-0.086247735
199	0x3c4cfa59	0.012510859
200	0xbec1da8e	-0.37862056
201	0xbe1b5961	-0.15170814
202	0x3e2b782f	0.16745065
203	0xbd154b21	-0.0364486
204	0xbf019b90	-0.50627995
205	0x3f1188dd	0.5684946
206	0xbd339a13	-0.04384811
207	0x3ec0e395	0.3767363
208	0x3ec931ce	0.3929581
209	0xbdef3995	-0.11680905
210	0x3dbcdd03	0.09221842
211	0xbd58ef8b	-0.05296282
212	0x3e35a027	0.17736875
213	0x3db6721b	0.08908483
214	0x3edba1ca	0.42896873
215	0xbec6a656	-0.3879878
216	0xbe60fbc5	-0.21971042
217	0x3f0f6577	0.560142
218	0x3dd162e0	0.10223937
219	0x3b442653	0.002993007
220	0x3e95f4d9	0.29288366
221	0xbe03101a	-0.12799111
222	0xbf1026ee	-0.563094
223	0xbf0088e2	-0.50208867
224	0x3e6cca3f	0.23124026
225	0xbef1d220	-0.47230625
226	0x3e451848	0.19247544
227	0x3e61ba38	0.22043693
228	0x3e79a47f	0.24379157
229	0xbb247199	-0.0025092124
230	0xbd9d0036	-0.07666056
231	0x3eb21ec2	0.3478909
232	0x3e130fb7	0.14361463
233	0x3d641c42	0.05569101
234	0x3f15f085	0.5857013
235	0xbe2a6672	-0.16640642
236	0x3da3b857	0.079941444
237	0x3d6c4b2f	0.05768889
238	0xbef3c31c	-0.47609794
239	0xbe9688ab	-0.29401144
240	0xbde0c48c	-0.10974988
241	0xbf2d49ef	-0.6769094
242	0xbd8ac26f	-0.067753665
243	0x3e70b472	0.23506334
244	0x3e118e92	0.14214543
245	0x3e7a7001	0.24456789
246	0xbe26bbf4	-0.16282636
247	0xbdc0431a	-0.093877986
248	0x3ec59482	0.38589865
249	0x3e1f8bcb	0.1558067
250	0xbed2e6d6	-0.4119174
251	0x3e331252	0.17487457
252	0xbe453bdc	-0.19261116
253	0x3e09b659	0.13448466
254	0xbe28e3f2	-0.16493204
255	0xbedeacb0	-0.43491125

network_body._body_endoder.seq_layers.2.bias f4 [128]
0	0xbddc3c69	-0.1075371
1	0xbd5305c3	-0.051519167
2	0x3b718409	0.003685238
3	0xbd92fc6e	-0.071770534
4	0x3d955011	0.07290662
5	0xbd3ff4aa	-0.04686419
6	0xbe18316c	-0.14862603
7	0xbd8cebf7	-0.06880944
8	0xbdb7afa5	-0.089690484
9	0x3c917968	0.017758086
10	0x3d9b85ec	0.07593903
11	0x3c935e95	0.017989436
12	0x3cc1e515	0.023668805
13	0xbda15466	-0.07877426
14	0xbdc87366	-0.097876355
15	0xbe1f9eb1	-0.1558788
16	0xbd1f2f35	-0.03886338
17	0xbdef7101	-0.11691476
18	0xbc32dad7	-0.010916433
19	0xbe0bf310	-0.1366694
20	0xbd232412	-0.03982932
21	0xbd2251e4	-0.03962888
22	0x3e1e5350	0.15461469
23	0xbdd998c2	-0.10624839
24	0xbde7550c	-0.11295518
25	0xbaf7f260	-0.0018916838
26	0x3d19354d	0.037404347
27	0xbdccc25c	-0.099980086
28	0x3dcd5c12	0.10027327
29	0xbdb4315f	-0.08798479
30	0x3d76fd8a	0.060300387
31	0xbbdd964e	-0.0067623025
32	0x3d628c36	0.055309497
33	0xbde0f2c1	-0.10983802
34	0xbcbf215b	-0.023331335
35	0xbdc7ca58	-0.09755391
36	0x3dbfa253	0.09357133
37	0xbd215ec3	-0.039397012
38	0xbd36491c	-0.044503316
39	0xbd9442f3	-0.07239332
40	0xbdae40ca	-0.08508451
41	0xbd85aa3f	-0.065266125
42	0xbb149d0f	-0.0022676622
43	0xbe690e01	-0.22759248
44	0xbe024724	-0.1272245
45	0xbe114b10	-0.1418879
46	0x3d01b10f	0.031662997
47	0xbd2727a8	-0.040809304
48	0x3cc7bad9	0.024381088
49	0x3d3228fc	0.043496117
50	0xbb3f8235	-0.0029221897
51	0xbd9535ed	-0.07285676
52	0xbd9c82eb	-0.07642158
53	0xbdd863f4	-0.105659395
54	0x3c3017b7	0.010747842
55	0x3d0c6044	0.034271494
56	0x3e203ac7	0.15647422
57	0xbd846d4b	-0.064661585
58	0xbd577038	-0.052597255
59	0xbd85ca51	-0.065327294
60	0xbd87f655	-0.06638781
61	0x3cd8b78e	0.026454713
62	0x3dabd892	0.08390917
63	0xbc91c5f0	-0.01779458
64	0x3c90b134	0.017662622
65	0x3c42c1bf	0.011887013
66	0x3d4e8d93	0.050427984
67	0x3d90b0c0	0.070649624
68	0x3cfa2c00	0.030538559
69	0x3d9268d4	0.07148901
70	0xbc96e936	-0.01842175
71	0x3d6ff9af	0.058587726
72	0xbc99d6fe	-0.018779274
73	0xbd978b46	-0.07399611
74	0x3dc09d45	0.09404997
75	0xbde76a2f	-0.1129955
76	0xbde48191	-0.11157525
77	0xbe284f78	-0.16436565
78	0x3da13c13	0.078727864
79	0x3e0c7d7d	0.13719745
80	0xbd9d6f74	-0.076872736
81	0xbd27dbee	-0.040981226
82	0x3bdc50c0	0.0067234933
83	0x3db8c6ed	0.09022317
84	0xbe0dde7a	-0.138544
85	0xbdd36f35	-0.103239454
86	0xbdda7c44	-0.10668233
87	0xbdef69bd	-0.1169009
88	0xbd1fd183	-0.039018165
89	0xbe37480f	-0.17898582
90	0x3e0eed8f	0.13957809
91	0xbd5911bc	-0.05299543
92	0xbe0ba389	-0.13636602
93	0xbe01ad28	-0.1266371
94	0xbd9152fa	-0.07095905
95	0xbdffceb5	-0.12490598
96	0xbc492274	-0.012276281
97	0xbd22a960	-0.03971231
98	0xbd910100	-0.07080269
99	0x3d87db17	0.06633585
100	0x3da36f1b	0.07980176
101	0xbd409864	-0.04702033
102	0x3da53770	0.080672145
103	0xbdab902b	-0.08377107
104	0x3bff3800	0.007788658
105	0xbd82bb88	-0.06383425
106	0x3d942dbe	0.07235287
107	0xbd6b463a	-0.05744002
108	0x3bcd986e	0.0062742746
109	0xbc7e2a30	-0.015512988
110	0x3d88391e	0.06651519
111	0xbc2fc4e8	-0.010728098
112	0xbc981b2b	-0.018567642
113	0xbd62ad9e	-0.055341356
114	0x3cceb275	0.02523158
115	0xbd7f9862	-0.062401183
116	0xbdc7cb2a	-0.09755547
117	0xbe2a1950	-0.16611218
118	0xbce9ec49	-0.028555052
119	0xbdecf6ef	-0.11570536
120	0xbdb376c2	-0.08762886
121	0x3db38c76	0.08767025
122	0xbd2c18d7	-0.042015877
123	0x3d34a8fe	0.044106476
124	0xbd4fc0bc	-0.050720915
125	0xbe17c60a	-0.1482164
126	0xbc933730	-0.017970651
127	0x3cc512e0	0.024056852

network_body._body_endoder.seq_layers.2.weight f4 [128, 128]
0	0x3aaf41f5	0.0013371097
1	0xbdab0dd1	-0.08352245
2	0x3e3bc554	0.18336993
3	0x3d699f2f	0.057036575
4	0xbd5875a4	-0.052846566
5	0xbd82b1d6	-0.06381576
6	0xbdd8f88e	-0.10594283
7	0x3cf8237d	0.03029036
8	0x3d4dfbeb	0.050289076
9	0x3db8cbbe	0.09023236
10	0x3db9ece2	0.09078385
11	0x3e005816	0.12533602
12	0xbe72a917	-0.23697315
13	0xbd64cda5	-0.05586018
14	0x3daf7bd9	0.08568544
15	0xbdacce0e	-0.08437739
16	0xbdceae4d	-0.10091839
17	0xbce90fdd	-0.028449947
18	0xbe2fdaa4	-0.17173249
19	0xbcbf552a	-0.02335604
20	0x3d149749	0.03627709
21	0x3e0630f2	0.13104609
22	0x3d613803	0.054985058
23	0x3d25ef8f	0.040511664
24	0xbc5d5580	-0.013509154
25	0xbdd5cb7f	-0.104392044
26	0x3dbd15c3	0.09232666
27	0xbdf4aecc	-0.11947402
28	0xbd176410	-0.03696066
29	0xbd19e1e7	-0.037568953
30	0xbe88d000	-0.2672119
31	0x3d8c3ff4	0.068481356
32	0x3d4650b4	0.04841681
33	0xbd0dcca4	-0.03461899
34	0xbd99fc57	-0.07518833
35	0x3ca247ce	0.01980963
36	0x3cb07be5	0.021543453
37	0xbda2f16c	-0.07956204
38	0x3cf2835a	0.029603649
39	0xbe22317d	-0.15839191
40	0x3d24381b	0.04009257
41	0x3ca031e5	0.019555042
42	0xbcc47367	-0.02398081
43	0x3bc4d4f9	0.0060068336
44	0x3d80b6da	0.06284876
45	0xbb077a4a	-0.0020672255
46	0x3de2b58d	0.11069784
47	0x3cdc04ad	0.026857698
48	0xbcea4003	-0.028594976
49	0x3cb51b6c	0.022107802
50	0xbd70c4a3	-0.058781277
51	0xbd92a60e	-0.07160579
52	0x3dd03b72	0.10167588
53	0xbd36d31b	-0.04463492
54	0xbd693003	-0.056930553
55	0x3d838571	0.06421936
56	0x3dccb492	0.099953786
57	0xbd92ba1e	-0.07164405
58	0xba4b455d	-0.00077541714
59	0x3df477f1	0.119369395
60	0xbcad105a	-0.021125961
61	0xbdce9cb9	-0.10088486
62	0xbd3d1c19	-0.046169374
63	0x3dcd27f1	0.10017384
64	0xbc974d26	-0.018469404
65	0xbdc0b909	-0.09410293
66	0xbc50a861	-0.012735457
67	0xbe207c5f	-0.15672444
68	0xbe39ab5a	-0.18131772
69	0xbd9959d6	-0.07487838
70	0xbdc430a9	-0.09579594
71	0x3cf96a1f	0.03044611
72	0xbdd4536d	-0.10367475
73	0xbe15bd10	-0.14622903
74	0xbc886a6a	-0.016652305
75	0x3e043119	0.12909354
76	0x3e127f42	0.14306358
77	0xbd357cfa	-0.04430864
78	0x3cffed21	0.031241002
79	0x3d6e67e2	0.05820454
80	0xbe0708db	-0.13186972
81	0x3e380182	0.17969325
82	0xbe1d3abd	-0.15354438
83	0x3cc31406	0.023813259
84	0x3c6a97e6	0.014318442
85	0xbd136b32	-0.0359909
86	0x3e0939e8	0.13400996
87	0xbb90c876	-0.004418428
88	0xbd130a01	-0.035898212
89	0x3c922c72	0.017843459
90	0x3ea06643	0.3132802
91	0xbbb49575	-0.0055109807
92	0xbc861a7d	-0.016370052
93	0x3d8bdd8d	0.06829367
94	0x3e521b90	0.20518327
95	0x3c582e8a	0.0131946895
96	0x3d8b754f	0.06809484
97	0xbdc6df51	-0.09710563
98	0x3c8eeb04	0.017446049
99	0x3e488c1f	0.19584702
100	0xbdf3ee27	-0.11910658
101	0xbda1fa75	-0.07909099
102	0xbdde58ee	-0.10856806
103	0xbd6248e7	-0.055245306
104	0x3dfa78aa	0.12230046
105	0x3cbf195b	0.02332752
106	0xbe226dae	-0.15862152
107	0x3d1298dc	0.03579031
108	0xbd37fd8f	-0.044919547
109	0x3af0024e	0.0018311234
110	0xbdacaba7	-0.084311776
111	0xbd199e2f	-0.03750437
112	0xbd3dc4c3	-0.046330225
113	0xbe5e1616	-0.21688113
114	0x3d8285fd	0.063732125
115	0xbb7af36b	-0.003829206
116	0xbe53b129	-0.2067305
117	0xbcf1c436	-0.029512506
118	0xbded50ed	-0.11587701
119	0xbd1dfb7b	-0.03856991
120	0xbd7cf799	-0.061759565
121	0x3d8d7321	0.06906725
122	0xbdc8c782	-0.09803678
123	0x3bd0d3d0	0.0063729063
124	0xbd89576c	-0.067061275
125	0xbb19bdfd	-0.002345919
126	0x3d5750ee	0.052567415
127	0x3d68ed14	0.05686672
128	0x3e4281f7	0.1899489
129	0x3c9a1143	0.01880706
130	0x3c2bab3e	0.010477839
131	0xbb888bf6	-0.0041670753
132	0x3cb6400c	0.022247337
133	0x3d40ddbd	0.047086466
134	0x3d2fdd7b	0.04293583
135	0x3d254d53	0.040356945
136	0x3d98bd2b	0.07457956
137	0xb9dc0d7e	-0.00041971722
138	0x3c95eadb	0.018300464
139	0xbda671ea	-0.08127196
140	0xbd43a56e	-0.047765188
141	0x3ead9778	0.33904624
142	0xbcd8fcbc	-0.0264877
143	0x3e073979	0.13205518
144	0xbe54a8be	-0.20767495
145	0xbba7689f	-0.0051089074
146	0x3db5adf2	0.08871068
147	0xbe094046	-0.13403425
148	0xbdf6a3f2	-0.12042989
149	0xbc2c5312	-0.010517852
150	0x3d05a2ae	0.032625847
151	0xbce1825b	-0.027527979
152	0x3d02fd5e	0.03197991
153	0x3e061af3	0.13096218
154	0xbd8f5560	-0.06998706
155	0xbd2826d2	-0.041052647
156	0x3d8c2ea3	0.06844833
157	0x3c54b23e	0.012981949
158	0xbd1b8d24	-0.0379764
159	0x3d6c4ff0	0.05769342
160	0xbc84edbf	-0.016226647
161	0xbe1cb2e0	-0.1530261
162	0x3d5e9dff	0.054349896
163	0x3de7aa20	0.11311746
164	0x3b96c2e2	0.0046008686
165	0xbd510ee9	-0.05103961
166	0xbc6261d9	-0.013817274
167	0xbd8901a5	-0.06689767
168	0x3dd36134	0.103212744
169	0xbc04cabd	-0.008104977
170	0xbd9de31c	-0.07709333
171	0xbd9a0564	-0.075205594
172	0x3e2d99a6	0.16953143
173	0xbcbf19d0	-0.023327738
174	0x3dbd6a10	0.092487454
175	0x3c7a31cd	0.0152706625
176	0x3dc717d0	0.09721339
177	0x3d90489e	0.07045101
178	0xbdab0d19	-0.083521076
179	0xbc4ef493	-0.012631553
180	0xbd5244a2	-0.051334985
181	0xbddd1170	-0.107943416
182	0xbe16cc48	-0.14726365
183	0xbd5386c3	-0.05164219
184	0x3c82f39d	0.015985304
185	0x3d4898a6	0.048973702
186	0x3ce62dfb	0.028098097
187	0xbd92ea42	-0.071735874
188	0xbcfa6a17	-0.030568166
189	0xbdb9423c	-0.09045836
190	0xbc4d3c20	-0.012526542
191	0xbcc90bdf	-0.024541793
192	0x3c6c073c	0.014406022
193	0xbd311a84	-0.043238178
194	0xbe1cc877	-0.15310846
195	0xbd8d1326	-0.06888418
196	0x3e86ae1e	0.26304716
197	0x3e2685e9	0.1626202
198	0xbd928539	-0.071543165
199	0xbe16d6e1	-0.14730407
200	0xbdc9e322	-0.09857775
201	0x3d6154b8	0.055012435
202	0xbdc93de2	-0.09826256
203	0x3c7fa932	0.015604304
204	0x3d099c70	0.033596456
205	0x3d6dde20	0.058073163
206	0xbe5eb085	-0.21747024
207	0xbca2195e	-0.019787487
208	0xbd96e334	-0.07367554
209	0xbda820ae	-0.08209358
210	0xbd3f5293	-0.04670961
211	0x3c2d5fcb	0.010581921
212	0xbd9f34f5	-0.077737726
213	0xbc7921a9	-0.015205779
214	0xbd616c9d	-0.055035222
215	0x3de2351b	0.11045285
216	0xbdb52ccc	-0.08846435
217	0xbd8d5868	-0.06901628
218	0xbd2442a0	-0.0401026
219	0xbdafdb39	-0.08586735
220	0xbd3bfb33	-0.04589386
221	0xbdc15983	-0.09440901
222	0xbcdbba5f	-0.026822267
223	0x3bb80e21	0.0056169187
224	0xbd994164	-0.074831754
225	0xbd359c66	-0.044338606
226	0x3e2ef8fc	0.17087168
227	0xbcc5625d	-0.024094755
228	0xbd73f7a1	-0.05956233
229	0xbd807cb2	-0.06273784
230	0x3d458af8	0.048228234
231	0x3daf6913	0.08564963
232	0xbdfe8cbf	-0.12429189
233	0x3cd234b6	0.0256599
234	0x3da2305b	0.07919379
235	0xbe13a4a1	-0.1441827
236	0xbe549f2d	-0.20763846
237	0x3dcdff35	0.100584425
238	0x3c39b1ad	0.011333865
239	0x3e2f8cae	0.17143509
240	0xbdb17715	-0.08665291
241	0xbe8f769e	-0.28020185
242	0x3df5669c	0.11982462
243	0xbdc2b619	-0.095073886
244	0x3df95073	0.121735476
245	0x3dddd46c	0.10831532
246	0xbd503bc2	-0.05083824
247	0x3e2166bd	0.15761848
248	0x3c850542	0.016237859
249	0xbe18cd57	-0.14922081
250	0x3d9240ca	0.07141264
251	0x3c9f85d8	0.019473001
252	0x3b640eb0	0.0034798793
253	0x3d817099	0.063203044
254	0xbe470039	-0.19433679
255	0x3c343c7a	0.011000747

network_body.observation_encoder.processors.0.normalizer.running_mean f4 [9]
0	0x4238f073	46.234814
1	0xc02d44db	-2.7073276
2	0x413e40cf	11.890822
3	0x41a74760	20.909851
4	0x40ea2bd2	7.317849
5	0x4160f399	14.059472
6	0xbeaf30fa	-0.34217054
7	0xbc70086b	-0.0146504445
8	0xbdbea8d3	-0.093095444
