NICO-master/NICO_articulation_body/Assets/Shoulder 1.onnx (onnx, 74452 bytes, 7 tensors)

network_body.observation_encoder.processors.0.normalizer.running_mean f4 [4]
000000 74 02 11 42 da f6 4f be 19 79 23 be 14 86 d8 bd
       36.252396 -0.2030901 -0.15964164 -0.105724484

network_body._body_endoder.seq_layers.0.weight f4 [128, 4]
000000 19 b3 65 3f b8 46 19 3f 46 e1 d1 be 8d de 98 be
       0.89726406 0.59873533 -0.40992182 -0.29857293
000010 4a 82 63 3e 80 48 84 be 67 1c 01 bf 4b b8 35 3f
       0.2221767 -0.25836563 -0.50433964 0.70984334
000020 06 7a 9c bf 75 0a 4f 3e 5c 53 5a be e0 c0 40 bd
       -1.2224739 0.20218833 -0.21320862 -0.04705894
000030 05 ff f8 3e 48 27 52 3e 51 b8 8d 3d ba d0 8c bf
       0.48632064 0.20522797 0.06919921 -1.1001198
000040 4a 7c 8c 3e 26 de 16 bd 3c f0 90 be 18 56 4c be
       0.27438575 -0.03683295 -0.28308284 -0.19954717
000050 f3 db 0a be 0d 41 3f 3b 27 60 af be 18 e3 ed 3e
       -0.13560466 0.002918306 -0.34253046 0.4646232
000060 4a 32 41 3e c0 4f dd be 57 b1 c8 be 69 17 3d bf
       0.1886684 -0.43224907 -0.391978 -0.73863846
000070 6f fe e5 be 7b ab 04 3f 32 e8 d2 be d3 3e 99 be
       -0.4492068 0.5182416 -0.41192776 -0.29930744
000080 da 66 f0 be 00 08 1d 3f 0d d6 7c 3e 9e 06 dc be
       -0.4695347 0.6134033 0.24691029 -0.429738
000090 62 5f 50 be 3d b0 f2 3d 2c c2 b5 bc 86 94 11 3e
       -0.20348886 0.11850021 -0.022187315 0.14216813
0000a0 08 99 7d 3f 10 60 f1 be e3 95 2b bf e6 6d 47 be
       0.9906163 -0.47143602 -0.67025584 -0.19475517
0000b0 f0 57 fc 3d 30 c6 84 bd 8c 2e 70 bf d8 97 a6 bf
       0.1232146 -0.06483114 -0.93821025 -1.3015089
0000c0 0a fd 1a 3e 5c 2b b9 3d 65 51 c3 3e 0a 84 8f 3e
       0.15135589 0.09041473 0.38148037 0.28030425
0000d0 c6 cc 4f 3f ae 46 a3 be 93 44 06 bf 42 ee e3 be
       0.81171834 -0.31889862 -0.52448386 -0.44517714
0000e0 b7 5f a5 3d d5 13 06 3e b8 82 f2 3c 03 c9 08 be
       0.08074897 0.13093503 0.029603347 -0.1335793
0000f0 54 13 ed 3d c9 fe 53 3f f0 ab 0e 3b 06 31 0d bf
       0.11575952 0.82810646 0.0021769963 -0.5515293
000100 2f f4 c3 3e a8 49 09 bf 68 a0 f2 3e ff 5f cd bc
       0.38272235 -0.53628016 0.47388005 -0.025070189
000110 00 f6 08 bf 64 09 6c 3e 17 91 1a bf de b0 b6 bd
       -0.53500366 0.23050457 -0.6037764 -0.089204535
000120 97 ac 21 3f d7 e7 3d 3f ef 94 a6 3d bd a5 c0 3d
       0.63153976 0.74181885 0.081338756 0.09406612
000130 a5 b9 0b be f0 b1 0a be ba 28 81 be 61 15 5c bc
       -0.13645037 -0.1354444 -0.25226384 -0.0134328315
000140 25 f5 2b be 8e 1f cb 3d aa ef bd bd df 8a 96 3e
       -0.16792734 0.09918128 -0.09274228 0.29402825
000150 a3 89 91 3f 53 59 1d bf cb e5 a1 3e d0 0d 61 3f
       1.1370128 -0.6146442 0.3162063 0.879117
000160 35 bd 07 3e c7 44 fd bd 35 e5 e3 be 74 91 b0 bd
       0.1325577 -0.12366634 -0.4451081 -0.08621493
000170 07 42 2e bf 07 60 b7 3e b1 7c 92 3e c8 53 28 3f
       -0.680695 0.3581545 0.28610757 0.6575284
000180 df 26 24 3f 3b 44 32 3e 08 a4 15 3e ec ae 8b bd
       0.6412181 0.1740884 0.14613354 -0.06820473
000190 9e 29 15 3e 0e cf 01 bf 8a 10 f2 bd 12 09 96 3d
       0.14566657 -0.50706565 -0.11819561 0.07325949
0001a0 26 6d 02 bf 80 8b 07 3f e3 be ec 3e 87 a3 24 3f
       -0.509478 0.52947235 0.46239385 0.6431202
0001b0 01 0f 15 bf 5d 59 ee 3e d2 9a 6e bc 0b 02 fd 3e
       -0.5822602 0.46552554 -0.014563279 0.4941562
0001c0 08 ef fb be 3a 69 43 3e a2 3d c0 be c3 47 bf 3e
       -0.49205804 0.1908311 -0.37547022 0.37359437
0001d0 d1 58 30 3f 3b ae 31 3d a2 bb 5d be 4c 81 11 3e
       0.68885523 0.04337905 -0.21653607 0.14209479
0001e0 8b 11 84 bf ef 87 ba 3e 94 ef 99 bd 7a 7d ec be
       -1.0317854 0.36431834 -0.07516399 -0.4618948
0001f0 70 cb 5f be 82 30 3a 3d 06 0a 86 3e 5d 1e e3 be
       -0.21854949 0.045456417 0.26179522 -0.44359103
000200 c0 ca 31 be d0 47 c8 3e 16 dc 8f 3e 44 fa ea be
       -0.17362499 0.3911729 0.280976 -0.45894063
000210 4d 92 a3 bd 8b f9 00 3f 23 c7 63 3d 8e 5c ca bd
       -0.07986889 0.5038077 0.055609833 -0.09880935
000220 90 d5 0f 3e 36 2f 96 3e 04 77 3c 3f 7c e4 82 3e
       0.14046311 0.29332894 0.73619103 0.25564945
000230 32 a9 cd be 9d 96 9a be f2 53 03 3f 06 1d 63 3d
       -0.40168148 -0.30193034 0.51299965 0.0554476
000240 2b ff 10 3f 03 d1 9c be c5 8b 5c 3f 34 8f 50 bf
       0.56639355 -0.30628213 0.8615077 -0.8146851
000250 a9 de 9b bf 26 fc 1f bf 6e 6c 03 3f b0 12 01 3f
       -1.2177325 -0.62494123 0.51337326 0.5041914
000260 a4 bf e9 be 93 ca 15 bf 6e 9e bd 3e 48 a9 17 bb
       -0.45654023 -0.5851223 0.37034935 -0.002314167
000270 db 5c 58 be b1 ce 6c be d8 ff 1d 3e cd ff 90 bd
       -0.21129172 -0.23125722 0.15429628 -0.0708004
000280 69 78 50 be 70 6f 82 3c ab ac 99 be 8a 43 74 3f
       -0.20358433 0.015922278 -0.30014548 0.95415556
000290 29 fb 99 3e 3e 28 f3 be 95 3f 7f bc 05 65 af bd
       0.30074432 -0.4749164 -0.015579124 -0.0856419
0002a0 e6 67 79 bf 45 30 e0 3e 83 bb 4a 3e 86 6f d6 bd
       -0.9742416 0.43786827 0.19798093 -0.1047049
0002b0 22 8c 46 3f a3 3c 5e bc 4d c5 47 bf 25 94 55 be
       0.77557576 -0.013564262 -0.7803543 -0.20857294
0002c0 87 20 15 3f c9 e2 37 be c3 86 8e 3e 05 cb 4b 3e
       0.5825276 -0.17957605 0.2783719 0.19901665
0002d0 91 ed 26 3d 90 62 03 3f 63 f6 e2 bd 87 66 09 3f
       0.040753905 0.5132227 -0.11082151 0.5367207
0002e0 0d c7 ab 3f b9 22 e3 be 41 02 f5 be 18 07 5b be
       1.342012 -0.4436243 -0.47853282 -0.21389425
0002f0 b4 0b bc be 90 ff 22 3f 97 ed bc 3e 76 24 76 3e
       -0.3672768 0.6367121 0.36900017 0.24037346
000300 22 d4 0a bf 0d d3 dc be a7 68 c9 be eb 9e a0 3d
       -0.5422994 -0.4312977 -0.39337656 0.07842811
000310 7c 0c 10 bf b5 c5 ef 3f 4f 18 29 be cf 18 92 3e
       -0.5626905 1.873221 -0.16513179 0.28534552
000320 8c 9b 0e bf 20 44 16 bf 88 70 1e bf 7d b6 2e bf
       -0.55706096 -0.586977 -0.6189046 -0.68247205
000330 4b 4f 17 be ac ad 8a 3e e2 0b 78 3e f3 95 e3 3d
       -0.14776342 0.27085626 0.24223283 0.11112585
000340 cc 71 1e be 24 e7 45 3e fe 95 b4 be 26 e8 f8 3e
       -0.15473098 0.19326454 -0.35270685 0.48614615
000350 d3 95 02 3d cb f0 2b 3e 22 17 8f be c6 ca c5 be
       0.031881165 0.16791074 -0.27947336 -0.38631266
000360 78 8c e8 3e ee 67 de be f1 b1 1c 3d d5 79 5c be
       0.4541967 -0.43438667 0.038255636 -0.2153085
000370 02 c0 f2 bd 77 d6 a8 3e 1d 17 31 bf 7e bd d7 3b
       -0.11853029 0.32976124 -0.69175893 0.0065838685
000380 ca 22 c4 3e de 13 f5 3e 7a 8f db 3e a4 20 c7 3e
       0.38307792 0.4786672 0.428829 0.3889209
000390 ec 32 21 bf 0d 18 6a be af fb 58 bf 0b a1 35 3f
       -0.62968326 -0.22860737 -0.8475904 0.7094886
0003a0 5e 39 e1 3e ea d4 39 3f 54 b1 20 be 4c 9e 19 bf
       0.4398908 0.72590506 -0.15692645 -0.60007167
0003b0 81 01 3d be d2 52 98 bd cd cd 35 3e 80 f8 31 3e
       -0.18457605 -0.07437672 0.17754288 0.17379951
0003c0 d7 5b 85 be 2b 74 22 bf 59 5a 4c bd 51 b4 fd 3e
       -0.2604663 -0.6345851 -0.04989085 0.49551633
0003d0 6e 47 60 3f 40 77 90 3e 16 fa 33 3d ef a4 b9 be
       0.87608993 0.2821598 0.043939672 -0.36258647
0003e0 c9 de a6 3e f2 a8 e3 bd 8c 0a f1 be 51 bb cd 3e
       0.32591847 -0.11116208 -0.4707836 0.40181974
0003f0 1b 27 ef be be 04 d9 3e 28 14 1a bf 85 5a f3 be
       -0.46709523 0.4238643 -0.60187006 -0.47529998

network_body._body_endoder.seq_layers.0.bias f4 [128]
000000 28 6f 4f bd 5c e6 8a bd f9 cb c3 3d 1a 5f d7 bd
       -0.050643116 -0.06782219 0.09560389 -0.10516186
000010 86 85 fe 3d 90 62 82 3d b7 62 aa bd 69 95 c3 bc
       0.12427811 0.063664556 -0.083196096 -0.023874955
000020 e4 42 f3 bc 0f a1 09 be 4a 00 4d 3d 6b 13 99 3d
       -0.029694982 -0.13440345 0.050049104 0.07474407
000030 a9 3d 86 3c ef f9 11 3e 15 3d 15 be c8 72 ac 3d
       0.016386824 0.14255498 -0.14574082 0.0842033
000040 50 08 c1 3d 36 88 bb bd 72 ea fa bd c6 c3 84 bc
       0.094254136 -0.091568395 -0.12251748 -0.016206633
000050 26 27 e2 bd 0d e1 a8 bd 78 99 3a be 1b c1 e4 3d
       -0.11042623 -0.0824605 -0.18222606 0.111696444
000060 2e d8 a1 bd 4e d9 85 3d e3 c4 48 3d 74 3f f1 bd
       -0.07902561 0.06535588 0.04901589 -0.11779681
000070 b4 32 f3 bd 85 ea 0b be e0 28 11 3c 53 79 08 3e
       -0.11874905 -0.13663681 0.008859843 0.13327532
000080 7c eb 0d be 01 5b e8 bd b9 ba dc bd 36 03 0a 3e
       -0.13859361 -0.113454826 -0.10777802 0.13477787
000090 f2 34 23 3d a1 ab a8 3d ce 18 23 3e 2c 6c 60 bd
       0.039845414 0.082358606 0.15927431 -0.05479066
0000a0 2a 4c d9 3d 9d 69 3d be 5d 69 e0 3d 9e fe aa 3d
       0.1061023 -0.1849732 0.109575965 0.083493456
0000b0 44 5d f3 bd a3 15 11 be 7e 8c a1 3d 71 d6 06 be
       -0.118830234 -0.1416841 0.07888125 -0.1316774
0000c0 3b 9c 50 3e 5e a1 fe bd 5a a8 d9 3d f6 38 bf bd
       0.20372097 -0.12433122 0.10627814 -0.09337036
0000d0 f7 85 10 bc 3e b0 0f 3e e4 5d 11 3e 0c 66 b5 bd
       -0.008821002 0.14032075 0.14195973 -0.088573545
0000e0 05 ad be bd da 57 a2 3d 0d 1c c8 bd a8 16 00 3e
       -0.093103446 0.079269126 -0.09770975 0.12508643
0000f0 68 48 1d bd 8c 07 cb 3d 1a 34 9c bc 25 50 a9 bd
       -0.03839913 0.09913549 -0.019067813 -0.082672395
000100 7f 6b 3a bd 05 39 4c 3d 55 e6 ea 3c 2c 89 24 3e
       -0.045512673 0.049859066 0.028674284 0.16067952
000110 0b f2 55 bd 63 9e c5 bd 21 41 00 3e e1 4f 99 3d
       -0.052232783 -0.096493505 0.12524845 0.07485939
000120 23 bb 78 3c 7c 3c 99 3d 9a 69 04 3e 68 bb b2 bd
       0.015181336 0.074822396 0.12930909 -0.08727151
000130 79 dc 31 3e ea 66 e9 bd 8d 84 e5 bd 71 bc 14 bd
       0.1736926 -0.113965824 -0.11206923 -0.036312524
000140 0c 6a b3 bd d6 87 1b be 1e 9c d2 3d 2d 40 28 3d
       -0.08760461 -0.15188536 0.10283683 0.041076828
000150 d9 64 15 3e e3 35 ed 3d b8 8f c1 3d 69 eb a8 3d
       0.14589252 0.11582544 0.0945124 0.08248026
000160 1f ec 80 bc 22 69 e5 bd 83 42 51 3d ad 08 72 3d
       -0.015737591 -0.11201693 0.05108882 0.059090305
000170 51 a4 21 3e 02 7d a1 3d cf 6d 05 3e 60 66 c0 bd
       0.15785338 0.078851715 0.1303017 -0.093945265
000180 0d 61 c0 bd 98 cd 53 3d 33 ab 4e 3e 34 ea 07 3d
       -0.09393511 0.05170974 0.20182495 0.033182338
000190 87 1c 2f 3c 9c 62 bc 3d db b1 32 3d a3 d1 c0 bd
       0.010687954 0.09198496 0.043626647 -0.09414985
0001a0 74 84 a6 3d 28 5e 04 be 7c 3e 0c be 42 6f 13 3e
       0.08130732 -0.12926543 -0.13695711 0.1439791
0001b0 23 ca d8 3d dc 04 45 bd 74 d8 1e bc 2c 7c 2e 3d
       0.105854295 -0.048100337 -0.009695161 0.04259889
0001c0 63 63 84 3c 4e b8 4c 3d ac bb 51 3c 00 ea 36 39
       0.016160673 0.049980454 0.012801092 0.00017444044
0001d0 71 1e cb bd 95 39 03 3b 34 af cf 3b 7f 71 12 3e
       -0.099179156 0.0020023335 0.0063380245 0.14301108
0001e0 62 a7 2f bd ef bd da 3d a2 c6 24 bd 25 a8 65 3d
       -0.042884238 0.10680758 -0.040228494 0.05606856
0001f0 f5 a3 23 be 30 f1 2f be a3 90 47 3d 38 6c 0c bd
       -0.15980513 -0.1718185 0.04872192 -0.034282893

network_body._body_endoder.seq_layers.2.weight f4 [128, 128]
000000 ce 55 74 bd b8 a7 55 be 61 aa 82 bd 6e 53 73 3d
       -0.059652142 -0.20864761 -0.063801534 0.059405737
000010 1c b0 1d 3d b2 30 d8 bc bd 5a c6 bc e4 31 ab 3d
       0.03849803 -0.026390407 -0.02421319 0.08359125
000020 a2 03 a6 bc 2d 6f d4 bd 0a 8e 8d b9 dd 12 f6 bd
       -0.020265404 -0.103727676 -0.00026999443 -0.12015317
000030 9a 53 a1 3d 26 7e 9c bc 2b 50 88 3d 0d 1a 27 bd
       0.07877274 -0.019103121 0.06655916 -0.04079633
000040 a0 04 90 bd fa 02 a6 bd 98 32 a7 3b b2 c2 01 3d
       -0.07032132 -0.081060365 0.005102467 0.031679817
000050 0b 5e 8b bd 6e 39 3c 3d 67 28 2d bd f1 5e 51 be
       -0.06805047 0.045953207 -0.04227486 -0.20446374
000060 89 38 c5 bc 73 9c 65 be f4 72 d8 3d b9 c2 35 3d
       -0.02407481 -0.22422962 0.105688006 0.044375155
000070 4b 84 8b bd b3 63 63 3d df 3c b7 3c 4e 7d c3 bd
       -0.06812342 0.055515002 0.022367893 -0.09545384
000080 d8 29 7a 3d 91 58 1a 3e 7f 2f ac 3d fb 5f 4f bd
       0.06107506 0.15072848 0.08407497 -0.050628643
000090 2d 46 8b 3d 5b 77 1c 3b 7f 6c 2f bb 59 41 4c 3c
       0.06800494 0.0023874852 -0.002676755 0.012466752
0000a0 c2 28 cd bc 1e 89 69 bc e0 d8 c5 bc db aa 01 be
       -0.025043849 -0.014253883 -0.024151266 -0.12662832
0000b0 a5 b6 55 3d fb b2 94 bd 37 23 c5 bc 78 83 0c be
       0.052176137 -0.072607 -0.024064643 -0.13722026
0000c0 1c 55 44 3d 6b 93 01 3d e1 1e ef 3b 07 44 83 be
       0.04793273 0.03163473 0.007297382 -0.25637838
0000d0 5a dc 8b 3c 34 4f fc bd 16 10 09 3c 9d 0d 50 3d
       0.017072845 -0.12319794 0.008365652 0.050794233
0000e0 fd 79 00 3d 8a 6d 04 3e a7 70 2d 3c 9a 8a 3c bc
       0.031366337 0.12932411 0.01058594 -0.011507655
0000f0 91 a4 c4 3d 35 07 d2 bd 29 8e d5 3c 8c a9 89 3c
       0.09601701 -0.10255281 0.026068764 0.016804479
000100 cf f2 aa bd 1e e3 43 3e 03 b9 b2 bd b5 d7 f4 3d
       -0.08347093 0.19129607 -0.087266944 0.11955205
000110 92 d5 2f 3c 72 e7 2d 3d d4 24 93 bd b1 3c f8 3d
       0.0107320715 0.04245705 -0.07184759 0.12120951
000120 a1 31 a9 3c 28 62 e1 bb 39 6a c2 bd 34 07 ae b9
       0.020653548 -0.006878156 -0.094929166 -0.00033193233
000130 b4 83 b4 bc c1 8d bc 3d 35 4a 9f bd 6c ef c5 3d
       -0.022035457 0.09206725 -0.07777826 0.09664807
000140 ff 39 0a be a7 5f c4 b8 b9 9a 2d bd 77 fe 15 be
       -0.13498686 -9.363825e-05 -0.042383883 -0.14647852
000150 b9 2d 82 3d e6 e8 40 3d ff b4 59 3d 6c bc cd bd
       0.06356377 0.04709711 0.053151127 -0.10045704
000160 30 cf 47 3d e6 ae 08 bd da af 19 bd c1 2a 63 3b
       0.048781574 -0.03336992 -0.03752122 0.0034662934
000170 35 eb 75 bd 4e ca a8 bd 9c 02 09 bd c1 da 88 3d
       -0.060038764 -0.082417116 -0.033449754 0.06682349
000180 d6 48 0d 3e 2a 36 eb 3d 8b 33 dd bc 38 59 87 bd
       0.13797316 0.1148494 -0.027002117 -0.06608814
000190 fe 5c af bb 7e e5 18 3d e7 d1 ca bd 08 4b c7 3c
       -0.0053516617 0.037328236 -0.09903317 0.02432777
0001a0 0f 99 57 3d 14 65 aa bb 86 12 19 3d d9 ce 3d 3d
       0.052636202 -0.0052000377 0.03737118 0.046339843
0001b0 53 b3 a9 bd f3 0b e4 3d 53 1d 49 3e 32 72 c9 ba
       -0.082861565 0.11135092 0.19640093 -0.0015369116
0001c0 6c c4 0c 3d 1e 79 f5 3c b1 57 89 3d e3 e5 24 3c
       0.03436701 0.02996498 0.06706179 0.010064575
0001d0 99 2a 82 bd f8 ee d2 bd 91 d2 5d 3e 31 de 96 3d
       -0.06355781 -0.10299486 0.21662356 0.073665984
0001e0 6c 82 ad bc ea 51 08 3d e3 ad d5 3d 1e 50 fc bc
       -0.021180354 0.033281244 0.10433557 -0.030799922
0001f0 40 fc 79 3d e2 4a 95 3d 2c 7f c0 3d dd 08 d5 bc
       0.06103158 0.072896734 0.09399256 -0.026005203
000200 65 78 af 3d 7c e5 52 3b 2c ac b3 bc 5e ee d0 3d
       0.08567885 0.003218024 -0.021932684 0.10201715
000210 a8 e6 2f bc 2a 7e c2 3b f9 2b 21 3e 75 6c 44 bc
       -0.010736145 0.00593545 0.1573943 -0.011988749
000220 72 7b 37 bc d4 5b ca bd d4 66 6b 3c e9 b6 58 3c
       -0.011198865 -0.09880796 0.014367778 0.013227203
000230 1f 99 75 bc a6 13 5f bd c6 2d f5 bd 5a 5b 56 bd
       -0.01499012 -0.054462098 -0.11971621 -0.052333213
000240 26 20 a3 bd 58 ee ce 3d 46 f6 97 3c e7 0d 2e bd
       -0.07965116 0.10104054 0.01855005 -0.042493727
000250 5e 03 4a bd a4 d9 0f bd 98 fe 97 bd 02 69 18 3e
       -0.049319617 -0.035119668 -0.07421607 0.14883807
000260 a5 63 0a 3e 9d 2c 49 3d 53 c0 b8 bd b5 e2 84 3c
       0.13514574 0.049114812 -0.09021058 0.016221384
000270 89 1a 08 bd 69 f3 cd bd e6 8a 74 bc 18 ca 5a bd
       -0.03322843 -0.100561924 -0.014925694 -0.053415388
000280 1f 6e 6d 3c 2c e5 2e 3e ca cb 8c 3d af bd 95 bc
       0.014491587 0.1707961 0.06874807 -0.018278925
000290 3c a5 e9 bd 38 1e c2 3a e7 8a 15 bd 7b 19 20 be
       -0.11408469 0.0014810031 -0.03650942 -0.1563472
0002a0 83 04 c9 3d 15 6a 7a 3c ba 3a 8a bd e7 87 03 3d
       0.09815314 0.015284081 -0.067494825 0.03211203
0002b0 f7 0c a1 3d 10 6b 00 be 04 02 44 be 95 4d d6 3d
       0.07863801 -0.12540841 -0.19141394 0.10464016
0002c0 ea e1 29 3d 6c c3 0f be f3 1e cb bd d9 34 24 3d
       0.041475214 -0.14039391 -0.099180125 0.040089462
0002d0 bc 43 9f bd 0e f1 cf 3a ac 30 e5 3c 99 8f 21 3d
       -0.07776591 0.0015864687 0.02797731 0.039443586
0002e0 d3 ed 10 be e9 bf 9c 3c 83 30 d3 3d b1 b6 12 be
       -0.14153223 0.019134479 0.10311987 -0.14327504
0002f0 9b 72 53 bd 0a 3d c2 3c 5b 39 5e bc dd 82 62 bd
       -0.05162297 0.023710746 -0.013563479 -0.055300582
000300 7c af ee bb 30 62 91 3d 32 e3 52 3d a5 54 c5 bc
       -0.007284103 0.07098806 0.0514862 -0.024088213
000310 15 6f 97 ba 67 7c d6 3c de 43 ec bc 70 80 f1 3c
       -0.0011553491 0.026182367 -0.028840955 0.02948019
000320 f8 58 95 bd 8a b4 a7 bc 0c 03 17 bd 4e 14 24 3d
       -0.0729236 -0.02047183 -0.03686814 0.040058427
000330 dd 24 fc 3d c6 4d e1 bd 47 d0 07 be 58 0e d2 3d
       0.123117186 -0.11001162 -0.13263045 0.10256642
000340 13 12 cc 3c 3a bc 64 3b bd 9d 2f 3b 3e 4f 8a 3d
       0.024910962 0.003490223 0.00267969 0.067533955
000350 21 88 c8 3d 79 56 e1 bd 43 c2 50 bd 3e d2 18 3b
       0.097915895 -0.110028215 -0.050966512 0.0023318673
000360 87 f8 a9 3a 03 a5 f9 3d 5e a8 87 bc 70 84 e0 bb
       0.0012967744 0.121896766 -0.016559776 -0.0068517253
000370 51 8d 4b 3d 51 6e f0 bd a9 fe 8f 39 28 59 84 bc
       0.049695317 -0.11739791 0.00027464822 -0.016155794
000380 eb dc 3e 3d 1e 93 e2 3c 90 fb 38 bd 6e e1 aa 3d
       0.046597403 0.027658042 -0.045161784 0.083437786
000390 76 55 19 3d a2 fc 67 3d 39 2d ca bd 04 a1 94 3d
       0.037435018 0.056637414 -0.09871907 0.07257274
0003a0 67 e4 5d bd 8f 63 e3 3d 81 2a 8b bd 5a 8b 47 be
       -0.0541729 0.11102974 -0.06795216 -0.19486752
0003b0 5a f0 15 3d db 03 da 3d 0f 5c 03 3d 5a e2 7b 3d
       0.03660617 0.106452666 0.032070216 0.061495163
0003c0 6c 87 21 bd b4 53 a7 bd 8d ea 17 bd 92 91 b1 bb
       -0.03943579 -0.08170262 -0.03708892 -0.0054189647
0003d0 2f 6c f1 bd ab f4 b7 3d b3 69 c7 3c 4a 5d b2 3d
       -0.117882125 0.089822136 0.024342394 0.087092
0003e0 ec c0 9d 3d d4 60 f3 bc 90 d3 6c 3d ae f6 85 3c
       0.077028126 -0.029709257 0.05781895 0.016352978
0003f0 6a bb 45 bd cd 0a 8a bd fa 1a c3 3d 76 b3 4e 3d
       -0.048274435 -0.06740341 0.0952663 0.050464116

network_body._body_endoder.seq_layers.2.bias f4 [128]
000000 34 02 d7 bd 1b 18 77 3d 05 98 06 3c bf 34 2a bd
       -0.10498467 0.060325723 0.008214955 -0.04155421
000010 64 cc ff bd b1 95 e5 3c b5 4b 07 be 38 c2 1f be
       -0.12490156 0.02802548 -0.13212474 -0.15601432
000020 0c 05 4f be b5 c2 28 bd a0 61 3e bd c8 89 f2 3b
       -0.20216769 -0.041201312 -0.04647982 0.0074016787
000030 ef f4 12 be 2f c8 69 3d 0c 6f ab 3d 76 b5 e3 bb
       -0.14351247 0.057075676 0.0837079 -0.006949122
000040 ba d4 0a be e7 e8 a3 bd b7 89 a3 bb 62 7f 28 bd
       -0.13557711 -0.08003407 -0.004990782 -0.041137107
000050 f3 a5 18 be 5f 7e 30 bd 1c b0 ae 3a 01 63 00 bd
       -0.14907055 -0.043089267 0.0013327631 -0.031344417
000060 01 3f 24 bd 60 f2 db bd 7f a9 4d bd d0 20 86 3d
       -0.040099148 -0.10739589 -0.050210472 0.06549227
000070 a0 1b 04 bd d6 f6 10 bd b4 90 b5 3c 65 d0 fb bc
       -0.032252908 -0.03539165 0.022163726 -0.030739019
000080 5b c4 b9 3d 23 06 5c 3c 81 ca 14 be 0e 95 68 bd
       0.09070655 0.0134291975 -0.14530374 -0.056782775
000090 64 31 22 bd e5 7e d0 3d f4 10 08 be 18 ff 2a 3e
       -0.039597884 0.10180453 -0.13287717 0.16698873
0000a0 a2 c7 46 3d 20 07 d0 bc ab 64 82 be 67 4a 1f bc
       0.04853023 -0.025394022 -0.2546743 -0.009722329
0000b0 51 3b af 3d 9e 8c dd bd e9 53 1f 3c ce 3d bd 3d
       0.085562356 -0.10817836 0.009724596 0.09240304
0000c0 e2 b3 08 bd 48 2c 1e be 3e 3b 1a be c7 bc f2 bc
       -0.033374675 -0.1544658 -0.15061662 -0.029631032
0000d0 1f 89 20 be 93 fd 28 3d 0f 65 0a 3d 10 1a 6c 3d
       -0.15677308 0.041257452 0.033787783 0.057642043
0000e0 a3 fc 57 3c 24 d6 14 be 4a bc c0 bb a5 45 fe bb
       0.013182792 -0.14534813 -0.005881821 -0.007759767
0000f0 31 1f 0e 3e 30 93 bc 3d bb f2 d9 bd 30 6b 85 bd
       0.13879086 0.09207761 -0.10642 -0.06514585
000100 b8 55 ad bd 2e e0 80 bc 72 7e e9 3c 85 e8 9f 3b
       -0.08463615 -0.015731897 0.028502677 0.0048800134
000110 b4 9b 40 3d 5e f6 c1 3d 48 66 08 3d 25 3a 3d 3c
       0.04702349 0.09470819 0.033300668 0.011549507
000120 3b da 39 3e bb f8 15 bb 5c 31 2c bb 86 79 75 bb
       0.18149655 -0.002288385 -0.0026274538 -0.0037456467
000130 26 18 13 be 36 0d 16 be f9 ac eb bd 09 eb 8d b9
       -0.1436468 -0.14653477 -0.11507601 -0.0002706873
000140 42 7b 7b bd 99 01 94 bc 91 4b 16 3e 77 0c 0f bd
       -0.061396845 -0.018067168 0.14677264 -0.034923997
000150 53 1a b7 3c 25 e1 98 3c 85 b9 bd bd 69 7d 5e be
       0.02235142 0.018662045 -0.09263901 -0.21727528
000160 54 93 5c 3c 96 04 dc bd 1f fb fb ba 67 47 3e 3c
       0.01346286 -0.10743062 -0.001922462 0.011613703
000170 fe ed e3 bd f9 36 d4 3c 6b 40 02 3d 12 50 57 bc
       -0.11129378 0.02590512 0.031799715 -0.013141649
000180 92 bf cd 3c 5c 4b a9 bd dc 50 4d bd 6d dd 40 bc
       0.025115762 -0.08266327 -0.05012594 -0.011771542
000190 4b 43 e4 bd 80 a3 e8 bd d1 4e 52 3b 9f de 36 3e
       -0.111456476 -0.1135931 0.0032090435 0.1785836
0001a0 de a2 b7 3d 07 d4 88 3d 1a 28 6e 3d b1 60 91 3d
       0.08966611 0.06681066 0.058143713 0.070985205
0001b0 27 ae cd 3d d7 a1 4e 3c 26 a4 0b bd f4 0a c2 3b
       0.100429825 0.012611828 -0.03409209 0.005921716
0001c0 4b 76 5c be b5 23 25 3d 10 55 e0 3d 5a 43 89 bd
       -0.215295 0.040317256 0.109537244 -0.067022994
0001d0 51 25 9e bd a8 af 84 bd e5 3c dd bc 33 79 97 3b
       -0.07721961 -0.06478816 -0.027006576 0.0046226024
0001e0 eb d9 cf bc bf 01 f3 3c 66 46 10 bd d2 da 12 bd
       -0.025372466 0.029663919 -0.035223387 -0.035853215
0001f0 5f a9 10 be 25 a5 61 bc d6 22 15 3e 79 69 2f 3d
       -0.1412711 -0.013772284 0.1456407 0.042825196

action_model._continuous_distribution.mu.weight f4 [1, 128]
000000 f4 92 cd 39 6e 4d 9f 3b 79 a7 a0 bb 40 4e 55 bb
       0.00039210136 0.0048615253 -0.004902777 -0.0032547861
000010 dc 79 42 bd 0e 70 05 bb 22 58 ac 3c 91 18 9d bd
       -0.047479495 -0.002036098 0.021038119 -0.07670701
000020 79 11 ae bd d6 75 26 ba f7 88 91 bb 28 e9 87 3b
       -0.084994264 -0.00063499564 -0.0044413763 0.0041476674
000030 10 0a e2 bc 6f 26 4a bb 09 0a 12 3b 76 82 2c bb
       -0.027592689 -0.0030845662 0.0022283813 -0.0026322878
000040 48 5c ec bd 00 93 44 ba 05 ea 5f 3b ed 50 48 b9
       -0.11541039 -0.00074987113 0.0034166586 -0.00019103634
000050 84 70 ee 3c 8e d9 6c bb 8e 1c 32 3b 4a 4b 80 3b
       0.029106386 -0.0036140415 0.0027177664 0.003915225
000060 73 21 65 3b 32 9a f7 3a 5d 87 58 3b b3 b8 9b 3a
       0.0034962564 0.0018890558 0.0033039667 0.0011880606
000070 86 c5 6c bb bc 92 18 bb 4f 06 d8 3a 76 9a 0b b9
       -0.0036128475 -0.002328082 0.0016481372 -0.00013313614
000080 aa 52 a0 3c 80 1a 34 b9 ef 4a 99 bc a9 2b 9c bb
       0.019570667 -0.0001717601 -0.018712489 -0.004765947
000090 f2 02 ce b9 26 78 52 ba c1 81 93 bd d2 b9 a6 3d
       -0.00039293576 -0.0008028768 -0.07202483 0.08140911
0000a0 57 69 98 3a bb 10 7c 39 35 cb db bd d7 58 da b9
       0.0011628073 0.00024038825 -0.10732118 -0.0004164639
0000b0 76 84 4f 3d 26 c9 38 bd d2 71 e0 39 9b 85 e0 3b
       0.050663434 -0.045113705 0.00042809412 0.0068518645
0000c0 5f 5f e4 3a 14 ec 14 bd de df 8d 3a ba 13 44 bb
       0.0017423442 -0.036357954 0.0010824164 -0.0029918985
0000d0 0f 67 73 bc 5e 3d 31 3b 0d 4a e2 b9 e8 8f 28 3b
       -0.014856114 0.0027044634 -0.0004316125 0.002572054
0000e0 27 9e 40 ba 38 23 ae bd b2 88 5f 3b 00 d2 04 3b
       -0.0007347785 -0.08502811 0.0034108576 0.0020266771
0000f0 6c 7b b2 3c 6a ac 93 3c 0f 5f 3c bd f5 26 98 3a
       0.021787368 0.01802655 -0.045989092 0.001160829
000100 8b be f6 3a 72 41 f7 b9 f6 04 03 3b 6c 08 47 bb
       0.0018825097 -0.00047160272 0.001999197 -0.003037001
000110 43 98 65 ba 4f 18 e0 3b ca 49 37 3b 3e 56 13 bb
       -0.00087583455 0.0068388353 0.0027967566 -0.0022481824
000120 43 cd 8f 3d 26 85 5b 3a 77 46 c9 3a 4c 0d 2a bb
       0.070215724 0.00083740277 0.0015356083 -0.0025947867
000130 6b b4 00 3c 7f 05 79 bd 70 52 d5 3a 92 a6 80 b9
       0.007855515 -0.060796257 0.0016275179 -0.00024538167
000140 39 43 a5 bb 19 8e 6b 3b 45 42 24 3d 90 38 0c bb
       -0.005043414 0.003594285 0.040102262 -0.0021396019
000150 82 3c 3d 3b 5c f2 0a bb 74 e3 4c bd be 98 cb bd
       0.0028875177 -0.0021201586 -0.050021604 -0.09941243
000160 81 f6 d6 39 69 3e e1 bc c0 23 24 ba fe 1f 41 3b
       0.0004100092 -0.02749558 -0.00062614307 0.0029468532
000170 4b 28 c1 3b 5a e5 7f bb e9 af 1b bb ba 8c 6d 3a
       0.005894696 -0.0039046616 -0.0023755974 0.00090618024
000180 a3 44 c9 b9 52 70 8b 3a f1 67 27 3a 17 8f 01 bb
       -0.00038388846 0.0010638332 0.0006386033 -0.0019769126
000190 fc 74 6a 3b 01 57 85 bd 5a 80 57 3b 67 f7 98 3d
       0.0035775295 -0.06510735 0.00328829 0.07469063
0001a0 16 30 36 3c b4 d7 55 3b e8 cc 07 ba 63 7e e5 3a
       0.011119863 0.003262979 -0.0005180375 0.001750898
0001b0 84 e6 c8 3b 92 ad a3 ba ae d0 02 bb c0 8f 07 3b
       0.006130995 -0.0012487641 -0.0019960809 0.0020685047
0001c0 e3 8d ff bd 44 40 27 ba 2e 97 92 3c 39 05 f5 ba
       -0.124782346 -0.0006380121 0.017894354 -0.0018693573
0001d0 85 9f 39 bb 88 a9 39 ba 72 35 da 3a 14 f8 bd ba
       -0.002832384 -0.0007082452 0.0016648008 -0.0014493489
0001e0 78 a8 9f bb bc 48 06 3b 66 f7 1d ba d3 67 b8 bb
       -0.004872378 0.002049013 -0.000602594 -0.005627611
0001f0 a7 16 ac bc 1a 10 43 3a fd 45 11 3d ca 53 bc 3a
       -0.021006895 0.0007441059 0.035467137 0.0014368233

onnx::Div_51 f4 [4]
000000 6c 4b db 41 73 75 b9 3e dc ac 72 3c 1c 51 1a 3e
       27.411827 0.3622242 0.014811721 0.15070003
