NICO-master/NICO_articulation_body/Assets/Shoulder.onnx (onnx, 74452 bytes, 7 tensors)

network_body.observation_encoder.processors.0.normalizer.running_mean f4 [4]
28.512957 -0.28162128 -0.16511865 -0.10765075
00000000: 891a e441 aa30 90be dd14 29be ff77 dcbd

network_body._body_endoder.seq_layers.0.weight f4 [128, 4]
0.2124006 -0.1611361 0.31183434 0.022710783 -0.43765113 -0.10963559 -0.23185225 -0.63339627
0.034931492 -0.7750152 -0.1357137 -0.0670694 0.14806706 0.76374155 0.020162614 0.12344442
0.7224618 0.16347826 -0.53237647 0.3830104 -0.7921833 0.6955745 -0.9132079 0.6111288
-0.032697868 -0.28192252 0.1258219 0.7598211 0.77650744 0.20242663 0.18377875 0.38109776
-0.48545334 0.127911 -0.30719265 0.3467693 0.3489899 -0.19086635 0.23694806 0.11739393
-0.51733285 -0.13752423 0.5362078 0.09787669 -0.052102182 -0.2203186 -0.11171108 0.76100814
-0.10661464 1.0686706 0.6557777 0.61932313 -0.25399986 -0.64205253 -1.193894 0.7097366
0.21169591 -1.2476062 0.6336855 0.9784382 -0.048180427 0.57833827 0.3245135 -0.03832501
0.6522051 0.31556225 -0.17732677 0.32935572 0.029438304 0.16301645 0.62088794 -0.007742891
-0.5450805 0.8259448 0.15137073 0.0766618 0.30635378 0.31387335 0.13850723 -0.43826744
-0.15819348 0.6364327 0.25553754 0.23099902 1.2311864 0.3052355 0.1682826 -0.32375157
0.62938666 -0.3076448 -0.70551836 -0.1625943 -0.52832305 0.35088623 0.1169363 -0.6932602
-0.20140721 -0.28565156 -0.08004742 -0.7968625 0.13942382 0.24467516 0.6127186 -0.36874747
-0.19548588 -1.1204449 -0.6663892 0.00074959896 0.08035239 -0.85841876 -0.39398533 -0.41144052
-0.10158828 0.0016067111 0.045313884 0.95708644 0.65418625 1.1907033 1.1465393 0.09571636
-0.2580812 -0.009082487 -0.4680186 -1.0580018 0.37221453 0.06536784 -0.38988277 -0.0557252
-0.10846486 0.16580825 0.43277293 -0.86150354 0.37207285 0.3093211 0.8377073 0.51186347
0.49091864 -0.29483786 -0.5537523 -0.048929468 -0.20727316 -0.29282942 -0.21813868 0.15795709
0.052146386 0.021275515 -0.35874596 0.1948066 -0.6628984 -0.06107851 0.5374367 -0.04392212
-0.8270016 0.12278067 0.1737276 0.043274608 0.26752466 0.56293595 -0.44701806 -0.7882933
0.67119855 0.577649 -0.38778323 -0.46820214 0.37220928 -0.38461313 -0.06724126 0.59060663
0.20549595 0.048842635 0.24562903 -0.48882708 -0.18573256 0.63199383 0.3043561 0.47260335
-0.054708235 -0.26272663 -0.044920992 0.457574 -0.53601897 0.3147443 0.394325 -0.58132875
-0.6948081 0.13779417 0.32834414 0.07027348 0.5116328 -0.28463575 -0.3905572 -0.026802495
0.21398832 0.7673498 0.24587744 -0.6917773 0.064015254 0.9606982 -0.100912325 -0.35809556
-0.47610426 -0.10220739 0.6411632 -0.17924003 -0.5582305 -0.020279005 -0.59368205 -0.7554661
0.25923944 0.058843326 -0.36914638 -0.090604044 0.013690012 -0.31516936 0.28047776 -0.16587391
0.1864449 0.08256149 0.7978019 0.75758576 0.045371752 0.7296458 -0.498529 0.15765376
0.041423954 0.76822674 0.7421152 -0.13683061 -0.41710022 -0.19060451 -0.17060396 -0.46973425
-1.593319 0.15974812 0.048233904 0.16805832 0.7303745 -0.77179545 -0.22599727 -0.3668361
0.9133107 0.12329469 -0.52161103 -0.21407583 -0.1578172 -0.49846202 0.26804075 0.17810969
-0.34467545 -0.5278157 -0.16521877 0.04479706 -0.43558758 -0.20259039 0.01325156 -0.099784665
00000000: 8b7f 593e dd00 25be c0a8 9f3e f70b ba3c
00000010: cf13 e0be a088 e0bd ad6a 6dbe 4226 22bf
00000020: 5314 0f3d 6567 46bf 88f8 0abe ae5b 89bd
00000030: e49e 173e 9184 433f 112c a53c 6ed0 fc3d
00000040: 42f3 383f d866 273e d349 08bf f019 c43e
00000050: 86cc 4abf 2c11 323f fec7 69bf f072 1c3f
00000060: 33ee 05bd 2658 90be 75d7 003e a383 423f
00000070: 31c9 463f ed48 4f3e 7f30 3c3e 3f1f c33e
00000080: 578d f8be 1afb 023e 5b48 9dbe bf8b b13e
00000090: ceae b23e 7872 43be 83a2 723e 3b6c f03d
000000a0: ed6f 04bf 27d3 0cbe ea44 093f 9373 c83d
000000b0: 1969 55bd 339b 61be c7c8 e4bd 6ed1 423f
000000c0: c758 dabd 33ca 883f 0ce1 273f f68b 1e3f
000000d0: 450c 82be 8e5d 24bf 85d1 98bf 4cb1 353f
000000e0: d0c6 583e 8fb1 9fbf 3739 223f ed7a 7a3f
000000f0: d758 45bd fa0d 143f a226 a63e b0fa 1cbd
00000100: eaf6 263f 6091 a13e 2695 35be 50a1 a83e
00000110: 9928 f13c c9ed 263e 83f2 1e3f 14b8 fdbb
00000120: 658a 0bbf 1e71 533f ee00 1b3e dd00 9d3d
00000130: 67da 9c3e 02b4 a03e d7d4 0d3e 9764 e0be
00000140: 79fd 21be 41ed 223f d1d5 823e 028b 6c3e
00000150: 8497 9d3f d447 9c3e 4652 2c3e c4c2 a5be
00000160: 7c1f 213f 9f83 9dbe da9c 34bf 1f7f 26be
00000170: 2e40 07bf 5ca7 b33e 4d7c ef3d 8079 31bf
00000180: b13d 4ebe ec40 92be e7ef a3bd 2eff 4bbf
00000190: 1ec5 0e3e 208c 7a3e 20db 1c3f 78cc bcbe
000001a0: 732d 48be bd6a 8fbf 7c98 2abf bc80 443a
000001b0: cb8f a43d 55c1 5bbf 72b8 c9be 55a8 d2be
000001c0: 840d d0bd 4798 d23a 0d9b 393d 9e03 753f
000001d0: c078 273f f768 983f cdc1 923f f006 c43d
000001e0: 3823 84be b6ce 14bc 22a0 efbe 9a6c 87bf
000001f0: e792 be3e 93df 853d b79e c7be 1b40 64bd
00000200: d322 debd a3c9 293e 6a94 dd3e 7f8b 5cbf
00000210: 5580 be3e 565f 9e3e fc73 563f 7c09 033f
00000220: b059 fb3e fdf4 96be b6c2 0dbf 446a 48bd
00000230: 6a3f 54be bded 95be bf5f 5fbe 81bf 213e
00000240: 7397 553d fd49 ae3c 8dad b7be 627b 473e
00000250: b6b3 29bf 762d 7abd 7495 093f aee7 33bd
00000260: 60b6 53bf 6f74 fb3d a6e5 313e b740 313d
00000270: fef8 883e 921c 103f 8ddf e4be 97cd 49bf
00000280: abd3 2b3f cee0 133f 868b c6be 31b8 efbe
00000290: 3792 be3e 03ec c4be c9b5 89bd ff31 173f
000002a0: 886d 523e 370f 483d 2d86 7b3e 8b47 fabe
000002b0: ad30 3ebe 59ca 213f 90d4 9b3e 11f9 f13e
000002c0: be15 60bd 1b84 86be 13ff 37bd 2447 ea3e
000002d0: 8a38 09bf 2a26 a13e f7e4 c93e f6d1 14bf
000002e0: f2de 31bf ea19 0d3e b91c a83e 8beb 8f3d
000002f0: 5efa 023f c7bb 91be 1df7 c7be e890 dbbc
00000300: c11f 5b3e 0971 443f 4cc7 7b3e 5118 31bf
00000310: 6e1a 833d 51f0 753f 1fab cebd 4d58 b7be
00000320: f0c3 f3be 1c52 d1bd 4523 243f b38a 37be
00000330: 32e8 0ebf 2820 a6bc 8cfb 17bf 3a66 41bf
00000340: 08bb 843e b305 713d c100 bdbe 9d8e b9bd
00000350: 124c 603c e15d a1be c89a 8f3e dada 29be
00000360: 69eb 3e3e 0016 a93d bf3c 4c3f 24f1 413f
00000370: bbd7 393d 11ca 3a3f 313f ffbe fd6f 213e
00000380: 2aac 293d 82aa 443f 43fb 3d3f 531d 0cbe
00000390: 298e d5be d42d 43be ceb2 2ebe 0281 f0be
000003a0: e1f1 cbbf 0395 233e ea90 453d 7b17 2c3e
000003b0: d3f9 3a3f 6394 45bf d46b 67be f1d1 bbbe
000003c0: bbce 693f ed81 fc3d 4d88 05bf b236 5bbe
000003d0: d59a 21be 6a36 ffbe a33c 893e 6362 363e
000003e0: 4d79 b0be ee1e 07bf 1c2f 29be 1f7d 373d
000003f0: 5605 dfbe db73 4fbe 121d 593c e75b ccbd

network_body._body_endoder.seq_layers.0.bias f4 [128]
-0.067727536 0.011817459 0.021394799 -0.100872956 -0.05407109 -0.050112188 -0.033662405 -0.08581685
-0.02629752 0.097701214 -0.034634057 -0.047758162 0.04143903 0.050463095 0.019138206 0.054486383
-0.006994404 0.045497537 -0.059028197 0.02712534 -0.07128444 -0.0109026795 -0.063101344 0.034930594
0.038859293 0.059584465 -0.035390854 -0.0140149165 -0.06701112 -0.07636146 0.03231374 -0.023511289
-0.06619416 -0.023870407 -0.060085177 -0.053196903 0.04295518 -0.055190664 0.050003693 -0.024833605
-0.07447892 0.05829638 0.05910648 -0.07003252 0.06270597 -0.0056797615 -0.010529822 0.043967538
-0.068084635 0.013875913 0.04883042 0.016082486 0.05098741 0.06073807 0.09843016 0.0051970133
0.01845656 -0.046728574 -0.020728568 0.017271068 0.052871633 -0.0065923594 -0.08381221 0.04198177
0.060285743 0.015281055 0.08661646 0.05429247 -0.07634064 -0.001185318 -0.010304549 -0.07970516
-0.016187515 0.025964431 0.074778706 -0.05710588 -0.06806444 -0.0442449 0.05944144 0.037787415
0.005700178 0.043929994 -0.0730496 -0.038962103 0.052421477 -0.08191537 -0.044252124 -0.08686653
0.039183162 0.06583455 0.020321563 0.061628114 0.046553746 0.041904032 -0.056508772 -0.058293477
0.036691498 -0.060951095 -0.034821823 -0.0016920319 0.08048633 -0.09374297 -0.0826673 0.056867998
-0.063604295 -0.008218353 -0.04446837 0.07437805 0.06828201 0.0005090746 -0.015425733 0.06505422
-0.016402254 -0.035238706 -0.06977151 -0.01687746 -0.060993206 0.03154583 -0.05941657 0.07698704
0.039013725 0.041253954 -0.073125005 0.04631574 -0.07005473 0.039616693 -0.057533287 0.035717797
00000000: bcb4 8abd 049e 413c 2544 af3c 7b96 cebd
00000010: a679 5dbd 7042 4dbd 97e1 09bd bfc0 afbd
00000020: e66d d7bc 9317 c83d 71dc 0dbd 109e 43bd
00000030: f9bb 293d 64b2 4e3d bac7 9c3c 1d2d 5f3d
00000040: 5031 e5bb a05b 3a3d 8dc7 71bd f635 de3c
00000050: 94fd 91bd 27a1 32bc 473b 81bd 6213 0f3d
00000060: ec2a 1f3d d70e 743d 00f6 10bd d29e 65bc
00000070: 203d 89bd 6663 9cbd 6a5b 043d bf9a c0bc
00000080: ce90 87bd df8b c3bc e01b 76bd ffe4 59bd
00000090: c5f1 2f3d 9b0f 62bd acd0 4c3d d86f cbbc
000000a0: 6788 98bd 2fc8 6e3d a319 723d 366d 8fbd
000000b0: fd6b 803d 4b1d babb 4685 2cbc 4e17 343d
000000c0: f56f 8bbd cc57 633c 6802 483d 6bbf 833c
000000d0: 2dd8 503d 7cc8 783d c095 c93d b54b aa3b
000000e0: 3632 973c 7666 3fbd f5ce a9bc 0e7c 8d3c
000000f0: ed8f 583d b804 d8bb bca5 abbd 14f5 2b3d
00000100: 2fee 763d 645d 7a3c f863 b13d c861 5e3d
00000110: 7b58 9cbd ac5c 9bba 69d4 28bc 753c a3bd
00000120: ae9b 84bc 5cb3 d43c 9425 993d dbe7 69bd
00000130: 5e65 8bbd 243a 35bd de78 733d fac6 1a3d
00000140: 8fc8 ba3b f0ef 333d 079b 95bd ba96 1fbd
00000150: e7b7 563d 3fc3 a7bd b741 35bd 14e7 b1bd
00000160: 867e 203d 44d4 863d 6879 a63c c36d 7c3d
00000170: 24af 3e3d 90a3 2b3d be75 67bd 24c5 6ebd
00000180: d349 163d dba7 79bd 54a1 0ebd 2bc7 ddba
00000190: 04d6 a43d 50fc bfbd 794d a9bd 6bee 683d
000001a0: f842 82bd 45a6 06bc 7724 36bd 8553 983d
000001b0: 70d7 8b3d 6b73 053a 37bc 7cbc 263b 853d
000001c0: 055e 86bc 7656 10bd 5ee4 8ebd 9942 8abc
000001d0: 03d4 79bd 3336 013d ca5e 73bd 62ab 9d3d
000001e0: dbcc 1f3d e8f9 283d 90c2 95bd 93b5 3d3d
000001f0: db78 8fbd 1d45 223d 06a8 6bbd d34c 123d

network_body._body_endoder.seq_layers.2.weight f4 [128, 128]
0.081326745 -0.1395087 -0.07474225 0.0063302116 0.09594626 0.25949633 0.049465142 -0.002767926
0.1329959 -0.031661738 0.0011514314 0.0252048 0.026170291 -0.092984535 -0.040086467 -0.035944577
0.20429522 -0.18037935 -0.051540185 -0.09659307 -0.07154044 -0.059073698 -0.0023294417 -0.049076907
-0.04548319 0.13217668 -0.0749462 -0.025241531 -0.046675783 0.15573165 -0.0978923 0.0011669539
0.026841043 -0.025289686 -0.025399689 0.08154419 0.012710918 0.03315664 -0.12728919 0.025920622
0.11520102 0.06548561 -0.048458852 -0.13429025 0.0019554717 0.019360464 0.20465839 -0.105716586
0.17667605 0.03080716 -0.030466082 -0.2551981 0.059421778 -0.103086986 -0.050461754 0.10179555
-0.09178699 -0.11981832 0.11212198 0.11142334 -0.022413906 0.06952331 -0.0838917 -0.0060682637
0.12303469 0.031619526 -0.09304647 0.032589674 0.029378753 0.05864664 0.053181287 0.110158734
0.18771747 -0.0458616 -0.0633627 -0.05576359 0.06320045 0.043238826 0.03834821 0.0009941369
0.031110998 0.09257412 -0.04064891 0.05224211 -0.10786481 -0.03399762 0.01899448 0.040368583
-0.008429559 -0.09321788 -0.11031992 -0.108002044 0.048450157 -0.021172514 -0.006385786 -0.015840614
-0.014797193 0.14193387 0.097842485 -0.0225357 0.0490625 0.08134007 0.0018072956 -0.07825562
0.12709062 0.022265935 0.13377239 -0.08382753 0.055858467 -0.034609348 0.062184986 -0.12751834
0.0668848 -0.012973502 0.09492829 0.06967266 -0.08257064 -0.010463244 -0.014529869 0.017496452
-0.0026140139 0.12805769 -0.112006195 -0.13583711 0.06520884 -0.12741938 -0.0031170514 0.05565534
0.04010926 0.0206037 0.12072335 -0.03933299 0.0008401832 0.10783023 0.0017320947 -0.17931761
-0.054401122 -0.006194634 0.0904878 0.03650523 -0.054386366 0.027322939 -0.118051715 -0.036914386
-0.010915664 0.15876466 0.12228847 0.002268115 -0.09487211 -0.045774247 -0.010420996 -0.04923157
0.087766096 0.07997161 -0.1236002 -0.006937493 0.05339355 -0.05067871 0.18481983 0.0064028734
0.19496514 -0.023369068 -0.0078101414 0.05599901 0.0027262063 -0.029242292 -0.16331637 -0.033063073
0.024218135 0.0115205385 -0.05271698 -0.03435661 -0.08432537 -0.089960165 0.077540465 -0.083765596
0.06350263 -0.02568833 -0.15797807 -0.02140885 0.059912138 -0.04309482 -0.14857721 0.041330427
-0.053152025 -0.021154772 -0.023821069 -0.103579655 0.08453889 0.08885673 0.038861003 0.036542244
-0.10825064 0.04599057 -0.013063423 -0.0453489 0.007386786 0.044515524 0.2989889 -0.106392026
-0.10619453 0.08604422 -0.03513613 -0.027629485 0.027536256 0.030917166 -0.068534166 -0.098979115
0.05799294 -0.056656405 0.09580012 0.049112845 -0.17531984 0.1603469 -0.07996253 0.060094733
-0.101489104 -0.103702135 0.07233745 0.027465982 -0.037675176 -0.08087176 0.0955488 -0.015102587
0.03820722 0.010164767 0.05799455 0.011543756 -0.06353323 0.04326466 0.012800427 -0.051586874
-0.08657035 -0.21498938 -0.11722476 -0.11847774 -0.060159236 0.030803017 0.094162 -0.08419088
-0.15690762 -0.08623569 0.04815828 -0.00023719984 -0.10234123 -0.07012131 -0.052202057 0.03897844
0.039920732 -0.11916356 0.120297946 0.05384304 0.08340568 0.0051107896 0.04497223 0.032625105
00000000: a38e a63d 5edb 0ebe 7712 99bd aa6d cf3b
00000010: 797f c43d b4dc 843e f69b 4a3d 1866 35bb
00000020: 1430 083e bdaf 01bd a0eb 963a 4c7a ce3c
00000030: 1463 d63c ad6e bebd b531 24bd 9f3a 13bd
00000040: c432 513e 5db5 38be cd1b 53bd 96d2 c5bd
00000050: cb83 92bd 43f7 71bd 8ca9 18bb de04 49bd
00000060: 954c 3abd 5359 073e 657d 99bd 54c7 cebc
00000070: 1b2f 3fbd 1e78 1f3e c27b c8bd 7af4 983a
00000080: bfe1 db3c 512c cfbc 0213 d0bc a400 a73d
00000090: 7441 503c 42cf 073d 1958 02be 7c57 d43c
000000a0: 83ee eb3d 521d 863d ca7c 46bd 6283 09be
000000b0: 5f27 003b d699 9e3c f891 513e f081 d8bd
000000c0: 91ea 343e 4c5f fc3c 0194 f9bc 53a9 82be
000000d0: 4064 733d 451f d3bd fcb0 4ebd 2f7a d03d
000000e0: d1fa bbbd 4f63 f5bd 35a0 e53d ec31 e43d
000000f0: 5e9d b7bc 3d62 8e3d 69cf abbd 49d8 c6bb
00000100: 9df9 fb3d 7a83 013d 268f bebd c07c 053d
00000110: b6ab f03c 7637 703d 9fd4 593d e79a e13d
00000120: 0239 403e 60d9 3bbd 4ec4 81bd 5d68 64bd
00000130: 3d6f 813d 321b 313d 0313 1d3d b34d 823a
00000140: 7edc fe3c 8097 bd3d 797f 26bd d3fb 553d
00000150: 3ae8 dcbd 1741 0bbd 509a 9b3c 8759 253d
00000160: 221c 0abc 04e9 bebd 69ef e1bd 2d30 ddbd
00000170: ac73 463d fb71 adbc db3f d1bb 2dc4 81bc
00000180: ed6f 72bc 1d57 113e a461 c83d ca9c b8bc
00000190: c3f5 483d 9f95 a63d c7e2 ec3a 7c44 a0bd
000001a0: 0b24 023e 0d67 b63c a1fb 083e c5ad abbd
000001b0: d9cb 643d 88c2 0dbd afb5 7e3d 2b94 02be
000001c0: e6fa 883d d08e 54bc c369 c23d 8ab0 8e3d
000001d0: cc1a a9bd 076e 2bbc b00e 6ebc b854 8f3c
000001e0: e04f 2bbb 8e21 033e 8163 e5bd e218 0bbe
000001f0: 368c 853d 3a7a 02be 7247 4cbb dbf6 633d
00000200: 9b49 243d 17c9 a83c ce3d f73d a11b 21bd
00000210: bd3f 5c3a 18d6 dc3d 7407 e33a 099f 37be
00000220: b6d3 5ebd 5bfc cabb ab51 b93d 8286 153d
00000230: 3dc4 5ebd 5bd4 df3c 19c5 f1bd 8a33 17bd
00000240: 9dd7 32bc 3493 223e 6172 fa3d a8a4 143b
00000250: 4f4c c2bd c77d 3bbd d3bc 2abc 0ba7 49bd
00000260: b6be b33d 28c8 a33d 1a22 fdbd e953 e3bb
00000270: 32b3 5a3d 7b94 4fbd 6941 3d3e 32cf d13b
00000280: f1a4 473e 7d70 bfbc 37ec ffbb 385f 653d
00000290: 27aa 323b 888d efbc 683c 27be 256d 07bd
000002a0: 1c65 c63c a4c0 3c3c c3ed 57bd 84b9 0cbd
000002b0: c8b2 acbd 093d b8bd 89cd 9e3d 4c8d abbd
000002c0: ab0d 823d 5570 d2bc 01c5 21be 9d61 afbc
000002d0: 6e66 753d 3284 30bd a024 18be 184a 293d
000002e0: f0b5 59bd c64c adbc 6724 c3bc 9221 d4bd
000002f0: ba22 ad3d 84fa b53d b72c 1f3d 52ad 153d
00000300: 83b2 ddbd 9c60 3c3d f807 56bc c5bf 39bd
00000310: da0c f23b e955 363d 1315 993e 10e4 d9bd
00000320: 857c d9bd f437 b03d e7ea 0fbd 3b57 e2bc
00000330: b793 e13c ff45 fd3c a45b 8cbd 90b5 cabd
00000340: 018a 6d3d 8c10 68bd da32 c43d 8d2a 493d
00000350: 0b87 33be fa31 243e 65c3 a3bd e525 763d
00000360: 85d9 cfbd c961 d4bd a825 943d 5700 e13c
00000370: 4951 1abd 18a0 a5bd 17af c33d d770 77bc
00000380: 2d7f 1c3d 1f8a 263c b18b 6d3d 0622 3d3c
00000390: b61d 82bd 4936 313d e2b8 513c c24c 53bd
000003a0: cc4b b1bd 2d26 5cbe 8913 f0bd 75a4 f2bd
000003b0: 8869 76bd 9c56 fc3c 02d8 c03d 456c acbd
000003c0: 64ac 20be 569c b0bd 9e41 453d d9b8 78b9
000003d0: 4798 d1bd c39b 8fbd d3d1 55bd dba7 1f3d
000003e0: ec83 233d 060c f4bd c55e f63d 858a 5c3d
000003f0: 99d0 aa3d 6978 a73b cd34 383d e7a1 053d

network_body._body_endoder.seq_layers.2.bias f4 [128]
-0.0631494 -0.07551448 0.03462035 -0.012896815 -0.08501926 -0.09806181 0.045237105 -0.08408194
-0.07418386 0.06040442 0.020186244 0.0561134 -0.0596913 -0.09653493 -0.07024159 -0.0719549
0.06714742 -0.03463299 0.082749784 -0.01741956 0.054879718 -0.030724565 0.046652436 0.05856511
0.0046171388 -0.0068470417 -0.091701746 0.04974333 0.06757439 -0.063534394 0.045664903 -0.07547606
-0.07179489 0.05347576 -0.069473416 -0.10467582 0.05978535 -0.07874026 0.02354356 0.05234752
0.057755478 -0.07571749 0.07600401 -0.11490251 -0.07413038 -0.07759143 0.052083347 -0.061222136
-0.07122792 0.03975273 -0.08025392 0.04855135 0.039275322 -0.075529896 0.030186253 -0.07052812
0.039418653 -0.07542242 0.06013331 -0.05906825 0.020491304 0.05337881 0.057903256 -0.006614059
-0.071396254 0.049331654 -0.0690483 0.052530505 0.047937006 0.05950965 -0.05599844 0.041199777
0.03552963 -0.08607284 0.072149575 0.0027121424 0.047095653 0.0690598 0.041328102 0.06796919
0.029943625 0.06377949 0.03326165 0.054673757 -0.079931766 0.055710193 -0.07047529 -0.0689927
0.037773814 -0.07109647 0.009400094 0.04787758 -0.07390319 -0.09484125 0.040248547 0.037122663
0.05260052 0.030437065 -0.06549334 -0.058352962 -0.087395035 -0.06539719 -0.08855316 -0.017941346
0.04086838 0.050512318 0.018113993 0.045233656 -0.114944495 0.044448234 0.08138783 0.009306632
0.02726091 -0.070842065 0.051993407 0.009267767 0.023379525 -0.07224571 -0.08571216 0.01692244
-0.08804373 0.04727248 0.056022532 -0.064367115 0.04900187 0.017162818 0.049706504 -0.01010037
00000000: 7954 81bd 56a7 9abd 11ce 0d3d 2a4d 53bc
00000010: 941e aebd a1d4 c8bd 8b4a 393d 2733 acbd
00000020: b5ed 97bd a06a 773d 9f5d a53c 2ad7 653d
00000030: dd7e 74bd 1bb4 c5bd d3da 8fbd 175d 93bd
00000040: 9684 893d 52db 0dbd b878 a93d 77b3 8ebc
00000050: 8ec9 603d 15b2 fbbc a016 3f3d f8e1 6f3d
00000060: 5e4b 973b 265d e0bb 20ce bbbd a9bf 4b3d
00000070: 7164 8a3d 521e 82bd 1f0b 3b3d 3193 9abd
00000080: 3309 93bd 6609 5b3d 1448 8ebd 4760 d6bd
00000090: 7ce1 743d 9342 a1bd 6dde c03c 5a6a 563d
000000a0: 0291 6c3d c511 9bbd fea7 9b3d 0252 ebbd
000000b0: abd1 97bd 41e8 9ebd 5955 553d 10c4 7abd
000000c0: f2df 91bd c2d3 223d 2b5c a4bd c8dd 463d
000000d0: 29df 203d 6baf 9abd 2949 f73c 0c71 90bd
000000e0: 7475 213d 1277 9abd 584e 763d 8df1 71bd
000000f0: 61dd a73c bda3 5a3d f72b 6d3d c0ba d8bb
00000100: 3338 92bd fd0f 4a3d 3269 8dbd 3a2a 573d
00000110: 9859 443d 64c0 733d 9f5e 65bd 19c1 283d
00000120: 8487 113d f546 b0bd 28c3 933d 33be 313b
00000130: 5fe7 403d 396f 8d3d a847 293d 6e33 8b3d
00000140: 554c f53c d29e 823d 5e3d 083d 97f1 5f3d
00000150: 44b3 a3bd 5f30 643d 5955 90bd 0b4c 8dbd
00000160: b7b8 1a3d 079b 91bd da02 1a3c 481b 443d
00000170: 8e5a 97bd 213c c2bd a9db 243d ef0d 183d
00000180: a573 573d 2757 f93c 5f21 86bd 8403 6fbd
00000190: 2bfc b2bd f6ee 85bd 5c5b b5bd bbf9 92bc
000001a0: 9a65 273d 01e6 4e3d cc63 943c ed46 393d
000001b0: 0568 ebbd 5a0f 363d aaae a63d d87a 183c
000001c0: 4652 df3c a515 91bd 0af7 543d d5d7 173c
000001d0: 6b86 bf3c 8ff5 93bd db89 afbd eea0 8a3c
000001e0: 4550 b4bd caa0 413d e277 653d e8d2 83bd
000001f0: 2fb6 483d 0a99 8c3c 0c99 4b3d 067c 25bc

action_model._continuous_distribution.mu.weight f4 [1, 128]
-0.037475146 -0.0016941208 -0.000110315756 -0.000991834 -0.040710155 -0.042339273 0.009273127 -0.0143946875
-0.0052287313 0.047535405 0.0005969613 0.0059674694 -0.02375922 -0.025575042 -0.0066783177 -0.010461548
0.0045034788 0.0015501014 0.0021321452 0.00070792343 0.009103329 -0.0033940168 -0.001488911 0.0028309152
0.00071220374 0.00058563123 -0.0026685812 0.011651456 0.018342288 -0.016626848 0.005535323 -0.000995585
-0.007868516 -0.00036084987 -0.021038087 -0.04281117 0.0050053443 -0.02617148 -2.000792e-05 0.029376749
0.009510699 -0.005139478 0.0016163039 -0.031717133 -0.010340954 -0.010980364 -0.002642174 0.0011542117
-0.022557246 0.0013007616 -0.020560056 -0.0009946568 0.0077147447 -0.02305591 8.875547e-05 -0.014084058
-0.0041465694 -0.009794447 0.0032650293 -0.0008272624 -0.0024985957 0.030804256 0.0075930823 -0.004958451
-0.015422535 0.0007201262 -0.0035459902 0.0022225361 0.022173021 0.02258531 -0.0005468448 0.019200992
0.0018016178 -0.007091747 0.025041614 0.0005132784 0.00472959 0.0051785107 0.026587736 0.0060096057
-0.0010714091 0.0024127131 0.008029774 0.0051487084 -0.013968361 0.010491034 -0.021438457 -0.010885988
0.003131129 0.0010078484 0.0007104307 0.008636192 -0.010484495 -0.05108677 0.011312754 -8.277868e-06
0.014093609 -8.2005274e-05 -0.018079428 -0.025823357 -0.02968801 -0.012033679 -0.0045595597 -0.00011264954
0.0046018087 0.006734059 0.0016694905 0.014582003 -0.025957389 0.0023130798 0.008160434 2.2386188e-05
0.0006627892 -0.01832379 0.01256125 -0.00055282883 0.0010988931 -0.045265403 -0.0059811934 0.0022867199
-0.02456169 0.008869846 0.0078015337 -0.018179566 0.013894061 -5.246856e-05 0.008849087 -0.00047081185
00000000: 8a7f 19bd 430d deba 5259 e7b8 6d00 82ba
00000010: b1bf 26bd f26b 2dbd 50ee 173c b2d7 6bbc
00000020: c755 abbb 7cb4 423d 657d 1c3a c38a c33b
00000030: b2a2 c2bc c082 d1bc cad5 dabb ea66 2bbc
00000040: eb91 933b c62c cb3a 76bb 0b3b f093 393a
00000050: 2126 153c 276e 5ebb 9027 c3ba e086 393b
00000060: 2fb3 3a3a 0c85 193a 5de3 2ebb c0e5 3e3c
00000070: 9142 963c 0735 88bc a861 b53b 4a7e 82ba
00000080: f3ea 00bc 7330 bdb9 1158 acbc c45a 2fbd
00000090: df03 a43b 9265 d6bc aed6 a7b7 82a7 f03c
000000a0: c3d2 1b3c 1169 a8bb 29da d33a d3e9 01bd
000000b0: 1b6d 29bc fce6 33bc 5328 2dbb eb48 973a
000000c0: f9c9 b8bc 517e aa3a 906d a8bc 255f 82ba
000000d0: f8cb fc3b bfdf bcbc 3b22 ba38 d2c0 66bc
000000e0: f2df 87bb e378 20bc 1afa 553b a4dc 58ba
000000f0: 7bbf 23bb 3559 fc3c 64cf f83b 807a a2bb
00000100: cdae 7cbc dac6 3c3a d863 68bb f8a7 113b
00000110: 32a4 b53c d404 b93c 225a 0fba 664b 9d3c
00000120: 4324 ec3a e361 e8bb 1224 cd3c 888d 063a
00000130: adfa 9a3b 7fb0 a93b 86ce d93c 3aec c43b
00000140: 866e 8cba 9c1e 1e3b 508f 033c 7fb6 a83b
00000150: 8ddb 64bc 96e2 2b3c b49f afbc 255b 32bc
00000160: a133 4d3b c819 843a 323c 3a3a d17e 0d3c
00000170: 29c7 2bbc 5c40 51bd 2159 393c 2ce1 0ab7
00000180: e1e8 663c 3ffa abb8 4f1b 94bc 818b d3bc
00000190: 4534 f3bc e828 45bc 5c68 95bb 433e ecb8
000001a0: c5ca 963b 62a9 dc3b ced2 da3a 5ae9 6e3c
000001b0: 97a4 d4bc 0a97 173b 57b3 053c f9c9 bb37
000001c0: 08bf 2d3a c61b 96bc b3cd 4d3c b7eb 10ba
000001d0: bc08 903a 3768 39bd e3fd c3bb cbdc 153b
000001e0: 9935 c9bc d552 113c 02a4 ff3b 50ed 94bc
000001f0: eaa3 633c b011 5cb8 c3fb 103c 4cd7 f6b9

onnx::Div_51 f4 [4]
36.60886 0.349606 0.014131662 0.22094713
00000000: 796f 1242 8fff b23e 7d88 673c f73f 623e
