NICO-master/NICO_articulation_body/Assets/Models/NICO_gaze_training_05042025_02.onnx (onnx, 87520 bytes, 8 tensors)

network_body.observation_encoder.processors.0.normalizer.running_mean f4 [18]
0	0x00000000	0.0
1	0xbdea9b93	-0.11455455
2	0x00000000	0.0
3	0xbbb0ba2c	-0.005393287
4	0x00000000	0.0
5	0x00000000	0.0
6	0x00000000	0.0
7	0x00000000	0.0
8	0x39126628	0.00013961701
9	0x38c332e3	9.307803e-05
10	0x384332e1	4.6539008e-05
11	0x00000000	0.0
12	0xbf1570b9	-0.58375126
13	0x3e5f5e52	0.21813324
14	0x3dd29004	0.10281375
15	0xbf43fd24	-0.76558137
16	0xbeb5973f	-0.35466954
17	0x3ef601fc	0.4804839

network_body._body_endoder.seq_layers.0.weight f4 [128, 18]
0	0x3dc4cda1	0.09609533
1	0xbe6e48c4	-0.23269945
2	0x3d1f602c	0.038910076
3	0xbe43afdc	-0.19110054
4	0x3e50c853	0.20388918
5	0xbecad5b0	-0.39616156
6	0xbdd6ea23	-0.10493877
7	0x3da3f882	0.080063835
8	0x3ccffc3b	0.025388828
9	0x3e33d145	0.17560299
10	0xbdfdcad6	-0.123922035
11	0x3c70c40f	0.0146951815
12	0x3cc06274	0.023484446
13	0x3e93bbd0	0.28854227
14	0xbdc45148	-0.09585816
15	0x3e11204a	0.14172474
16	0x3d5df9d5	0.054193337
17	0xbe571375	-0.21003516
18	0x3d8dde32	0.06927146
19	0xbef63327	-0.480859
20	0xbe89fcff	-0.26950833
21	0xbd0baa0f	-0.034097727
22	0x3db3fffe	0.08789061
23	0xbeb7f40a	-0.35928375
24	0xbda9aa6a	-0.08284457
25	0xbec9444d	-0.39309922
26	0x3caccc26	0.02109344
27	0x3db3685e	0.08760141
28	0xbd4e982b	-0.050438087
29	0xbe5d5bf1	-0.21617104
30	0xbe9e86b1	-0.30962136
31	0x3ea3b6c5	0.3197538
32	0xbecef9d2	-0.40424973
33	0xbe9b5ff9	-0.3034666
34	0xbf38c1e7	-0.7217087
35	0xbed4366e	-0.41447777
36	0xbe91be23	-0.28465375
37	0xbe0f357b	-0.13985245
38	0xbf0036d8	-0.50083685
39	0x3e8f95d8	0.2804401
40	0x3e8b63c6	0.2722456
41	0x3e02b2f3	0.12763576
42	0x3da86c6f	0.08223807
43	0x3eb429d8	0.35188174
44	0xbe911040	-0.2833271
45	0xbe6fec34	-0.23429948
46	0xbd973e10	-0.07384884
47	0xbcc5b239	-0.024132835
48	0x3e9f3db6	0.3110177
49	0x3ec7c036	0.39013833
50	0x3e3364dc	0.17518944
51	0xbe5573b5	-0.2084492
52	0x3db77300	0.089574814
53	0x3c9c5843	0.019085055
54	0x3eae06d0	0.33989573
55	0x3dc19de1	0.09453941
56	0xbeab0903	-0.33405313
57	0xbf443f98	-0.76659536
58	0x3e0d4566	0.13796005
59	0x3e1f9319	0.15583457
60	0x3d87f6c1	0.066388614
61	0xbec49019	-0.38391188
62	0xbe0d001b	-0.13769571
63	0x3e8f2edd	0.2796544
64	0xbe17ac96	-0.1481193
65	0x3bce23dc	0.006290896
66	0xbe591c66	-0.2120224
67	0x3e223f49	0.15844454
68	0x3c831ea4	0.016005822
69	0x3ea5bec6	0.3237211
70	0x3ca47f28	0.020080164
71	0xbd422448	-0.04739788
72	0x3cc2a5f7	0.023760779
73	0x3e3fe9ef	0.18741582
74	0x3db76d75	0.08956424
75	0xbd277bce	-0.040889554
76	0xbe5b776e	-0.21432278
77	0xbd2d2ea2	-0.0422808
78	0xbe48b7ce	-0.19601366
79	0x3d019ee9	0.03164569
80	0x3edd25b6	0.43192834
81	0xbda6324b	-0.08115061
82	0x3ed93de3	0.42430028
83	0xbea1808a	-0.3154338
84	0x3dce49de	0.10072683
85	0x3e567f94	0.20947105
86	0xbe8abb60	-0.2709608
87	0xbe3deee6	-0.18548164
88	0x3ea059dd	0.3131856
89	0x3c787ea8	0.015166916
90	0xbed8780d	-0.4227909
91	0xbdcf3939	-0.10118336
92	0xbe0d9f88	-0.13830388
93	0xbe4e4116	-0.20142016
94	0xbdcab459	-0.0989768
95	0x3e720d49	0.2363788
96	0x3db3b09b	0.08773919
97	0xbed9d538	-0.42545485
98	0xbd5986d5	-0.0531071
99	0xbe5ff4ba	-0.218707
100	0x3e3201d0	0.17383504
101	0x3e806899	0.25079802
102	0x3d92c603	0.07166674
103	0x3e1c7ed6	0.15282759
104	0x3dffe0c8	0.124940455
105	0x3db727bb	0.08943125
106	0xbd11c5e1	-0.035589103
107	0xbdc1c4ca	-0.09461363
108	0x3e25339c	0.16132969
109	0xbe72389c	-0.23654407
110	0xbdd69517	-0.104776554
111	0x3bce16ad	0.0062893243
112	0xbd64c4b5	-0.055851657
113	0x3e6b5b00	0.22983932
114	0xbc87fcb8	-0.016599998
115	0xbd4cf437	-0.05003759
116	0x3b597b11	0.0033184926
117	0x3d88bb57	0.06676357
118	0xbdff5c82	-0.12468816
119	0xbdb1a0d3	-0.08673253
120	0x3ea834c1	0.32852748
121	0x3db0e250	0.08636916
122	0xbef2864a	-0.4736808
123	0xbe44db18	-0.19224203
124	0xbd45c246	-0.048280977
125	0x3e61c10e	0.22046301
126	0xbddeb756	-0.10874812
127	0xbe1f2b08	-0.15543759
128	0xbbd52190	-0.006504245
129	0x3e67b197	0.22626339
130	0xbe05f12a	-0.13080278
131	0x3da8845f	0.08228373
132	0xbee0056b	-0.43754134
133	0x3e209847	0.15683089
134	0x3ef304ad	0.47464505
135	0x3ddef189	0.10885913
136	0x3e6db2de	0.23212764
137	0xbd38ed3e	-0.045148127
138	0xbe376375	-0.17909034
139	0xbe1575b6	-0.14595684
140	0x3dc7a62e	0.09748493
141	0x3ee4a9ec	0.4466089
142	0x3d60b280	0.05485773
143	0xbd8a416f	-0.06750762
144	0xbf0595df	-0.5218181
145	0x3d371f9c	0.04470788
146	0xbe7692b3	-0.24079399
147	0x3c8672de	0.016412195
148	0x3e2e0c46	0.1699687
149	0xbee9013c	-0.45508754
150	0xbe56bcca	-0.20970455
151	0xbcd83df3	-0.026396727
152	0xbf0aef07	-0.54270977
153	0x3e40eb8f	0.18839858
154	0xbb12a912	-0.0022378606
155	0xbc51bab1	-0.012800858
156	0xbe16d98e	-0.14731428
157	0xbe6308ee	-0.22171375
158	0xbe16b6bb	-0.14718144
159	0x3f12e379	0.57378346
160	0xbd66063e	-0.056158297
161	0x3e4ccd5d	0.20000215
162	0x3d4d5bfe	0.05013656
163	0x3ddc7754	0.107649475
164	0xbcd1d755	-0.025615374
165	0xbe4a6ea0	-0.19768763
166	0x3e40ca97	0.18827282
167	0xbc753ba3	-0.014967832
168	0xbb50ef90	-0.0031881072
169	0x3e0b33ea	0.13594022
170	0xbd8628b8	-0.06550735
171	0xbd9193a5	-0.07108239
172	0x3dd439b7	0.10362571
173	0xbe79e3db	-0.24403326
174	0xbe38c280	-0.18042946
175	0xbe509812	-0.2037051
176	0x3ee2af87	0.44274542
177	0x3e980605	0.29692093
178	0x3d9e486b	0.077286564
179	0xbdd75647	-0.10514503
180	0xbe56e03d	-0.20983978
181	0x3df53911	0.11973775
182	0x3e1aca06	0.15116128
183	0xbd22bf14	-0.039733008
184	0xbe26028b	-0.16211908
185	0xbe1cb1e8	-0.15302241
186	0xbd7509a1	-0.059823636
187	0x3f09476a	0.53624594
188	0xbe7cd257	-0.24689613
189	0xbe9744ed	-0.29544774
190	0x3e20f949	0.15720095
191	0x3e39e8bd	0.18155189
192	0xbe16c900	-0.14725113
193	0x3e14f3c9	0.14546122
194	0x3e8846c8	0.26616502
195	0xbd9165ab	-0.0709947
196	0xbe384e4a	-0.17998615
197	0x3ebc25d3	0.36747608
198	0xbdac1346	-0.084021136
199	0xbd545e29	-0.05184761
200	0xbd0cee7d	-0.034407128
201	0xbe98b90b	-0.29828677
202	0xbdba4415	-0.09095017
203	0xbe28333c	-0.16425794
204	0x3e203990	0.15646958
205	0xbbe8fd54	-0.007110277
206	0x3c3cc78a	0.011522183
207	0xbe16820a	-0.14698043
208	0x3e98f4f0	0.29874372
209	0x3e34d7ee	0.17660496
210	0xbdb92dc4	-0.09041932
211	0x3e7defc2	0.24798492
212	0x3e9159f7	0.2838895
213	0x3e88448b	0.26614794
214	0xbd84fb46	-0.06493239
215	0x3daaffdc	0.083495826
216	0xbe79b073	-0.24383716
217	0xbe7f4096	-0.24926981
218	0x3eec7256	0.4618098
219	0xbe227cd9	-0.15867938
220	0xbea21376	-0.31655473
221	0x3de85904	0.113451034
222	0xbe18926d	-0.14899607
223	0xbeff65e3	-0.4988242
224	0xbe8e2c7c	-0.27768314
225	0x3f0292b5	0.5100511
226	0xbe644538	-0.2229203
227	0xbcdbeb17	-0.026845498
228	0xbecba40d	-0.39773598
229	0xbe25df58	-0.1619848
230	0x3ce7fb17	0.028317971
231	0xbe90839e	-0.28225416
232	0xbe465f8f	-0.1937239
233	0x3e9c6dc2	0.3055249
234	0x3bb2c6ed	0.0054558427
235	0xbc93b0f3	-0.018028712
236	0xbd85d09e	-0.06533931
237	0xbe9c4ac7	-0.305258
238	0x3e181896	0.14853129
239	0x3cdb3c67	0.0267622
240	0xbd27935e	-0.040912025
241	0x3b090b0f	0.0020911132
242	0xbd043d56	-0.032285057
243	0xbcbcae0d	-0.023032213
244	0x3d8d1604	0.06888965
245	0xbde3a370	-0.111151576
246	0x3e4884a0	0.19581842
247	0x3e4ffca4	0.20311219
248	0xbeb3384a	-0.35003883
249	0xbc8921d1	-0.016739758
250	0x3eb1caf5	0.34725156
251	0xbe956f29	-0.2918637
252	0xbca8e3cc	-0.020616435
253	0xbb9f776f	-0.0048665325
254	0xbceda2a9	-0.029008226
255	0x3e3850e3	0.17999606

network_body._body_endoder.seq_layers.0.bias f4 [128]
0	0x00000000	0.0
1	0x00000000	0.0
2	0x00000000	0.0
3	0x00000000	0.0
4	0x00000000	0.0
5	0x00000000	0.0
6	0x00000000	0.0
7	0x00000000	0.0
8	0x00000000	0.0
9	0x00000000	0.0
10	0x00000000	0.0
11	0x00000000	0.0
12	0x00000000	0.0
13	0x00000000	0.0
14	0x00000000	0.0
15	0x00000000	0.0
16	0x00000000	0.0
17	0x00000000	0.0
18	0x00000000	0.0
19	0x00000000	0.0
20	0x00000000	0.0
21	0x00000000	0.0
22	0x00000000	0.0
23	0x00000000	0.0
24	0x00000000	0.0
25	0x00000000	0.0
26	0x00000000	0.0
27	0x00000000	0.0
28	0x00000000	0.0
29	0x00000000	0.0
30	0x00000000	0.0
31	0x00000000	0.0
32	0x00000000	0.0
33	0x00000000	0.0
34	0x00000000	0.0
35	0x00000000	0.0
36	0x00000000	0.0
37	0x00000000	0.0
38	0x00000000	0.0
39	0x00000000	0.0
40	0x00000000	0.0
41	0x00000000	0.0
42	0x00000000	0.0
43	0x00000000	0.0
44	0x00000000	0.0
45	0x00000000	0.0
46	0x00000000	0.0
47	0x00000000	0.0
48	0x00000000	0.0
49	0x00000000	0.0
50	0x00000000	0.0
51	0x00000000	0.0
52	0x00000000	0.0
53	0x00000000	0.0
54	0x00000000	0.0
55	0x00000000	0.0
56	0x00000000	0.0
57	0x00000000	0.0
58	0x00000000	0.0
59	0x00000000	0.0
60	0x00000000	0.0
61	0x00000000	0.0
62	0x00000000	0.0
63	0x00000000	0.0
64	0x00000000	0.0
65	0x00000000	0.0
66	0x00000000	0.0
67	0x00000000	0.0
68	0x00000000	0.0
69	0x00000000	0.0
70	0x00000000	0.0
71	0x00000000	0.0
72	0x00000000	0.0
73	0x00000000	0.0
74	0x00000000	0.0
75	0x00000000	0.0
76	0x00000000	0.0
77	0x00000000	0.0
78	0x00000000	0.0
79	0x00000000	0.0
80	0x00000000	0.0
81	0x00000000	0.0
82	0x00000000	0.0
83	0x00000000	0.0
84	0x00000000	0.0
85	0x00000000	0.0
86	0x00000000	0.0
87	0x00000000	0.0
88	0x00000000	0.0
89	0x00000000	0.0
90	0x00000000	0.0
91	0x00000000	0.0
92	0x00000000	0.0
93	0x00000000	0.0
94	0x00000000	0.0
95	0x00000000	0.0
96	0x00000000	0.0
97	0x00000000	0.0
98	0x00000000	0.0
99	0x00000000	0.0
100	0x00000000	0.0
101	0x00000000	0.0
102	0x00000000	0.0
103	0x00000000	0.0
104	0x00000000	0.0
105	0x00000000	0.0
106	0x00000000	0.0
107	0x00000000	0.0
108	0x00000000	0.0
109	0x00000000	0.0
110	0x00000000	0.0
111	0x00000000	0.0
112	0x00000000	0.0
113	0x00000000	0.0
114	0x00000000	0.0
115	0x00000000	0.0
116	0x00000000	0.0
117	0x00000000	0.0
118	0x00000000	0.0
119	0x00000000	0.0
120	0x00000000	0.0
121	0x00000000	0.0
122	0x00000000	0.0
123	0x00000000	0.0
124	0x00000000	0.0
125	0x00000000	0.0
126	0x00000000	0.0
127	0x00000000	0.0

network_body._body_endoder.seq_layers.2.weight f4 [128, 128]
0	0xbc3c96cb	-0.011510561
1	0xbe0b54ab	-0.13606517
2	0xbd49da45	-0.049280424
3	0x3df487ed	0.11939988
4	0xbdb54876	-0.088517115
5	0xbe0fdf7e	-0.14050099
6	0xbd86345d	-0.06552956
7	0x3cbe4223	0.023224896
8	0x3d90e86e	0.070755824
9	0xbdad9acc	-0.08476791
10	0x3d1963e4	0.03744878
11	0x3dd08b08	0.10182768
12	0x3dc456b5	0.095868506
13	0x3d042d59	0.03226981
14	0x3b9ea5de	0.0048415503
15	0x3d235104	0.039872184
16	0xbdad3dab	-0.08459028
17	0x3c54b0f5	0.012981643
18	0x3c05918c	0.008152377
19	0xbc6c6d5d	-0.014430371
20	0x3d583f1e	0.05279457
21	0xbd1d7b88	-0.038447887
22	0x3dff4a0a	0.12465294
23	0x3d3b7363	0.04576434
24	0x3c1320d7	0.008979998
25	0xbd8aeedb	-0.06783839
26	0xbd4b61e5	-0.049653906
27	0xbe03356b	-0.12813346
28	0xbe1846a6	-0.148707
29	0x3c9d696e	0.019215312
30	0x3e33c558	0.1755575
31	0xbe30ad6b	-0.17253654
32	0x3dda22cd	0.10651169
33	0x3d65a2d9	0.056063507
34	0xbe2e6a34	-0.17032701
35	0xbc9edeb1	-0.019393297
36	0xbcdd0e19	-0.026984261
37	0x3e27e978	0.16397655
38	0xbd4692e1	-0.04847992
39	0x3df56c42	0.11983539
40	0xbcd53857	-0.026027841
41	0xbe3612d2	-0.17780617
42	0xbdda3ca2	-0.10656096
43	0x3e08cab5	0.13358577
44	0x3c7cb7aa	0.015424648
45	0x3cae68d2	0.021290217
46	0xbdbac361	-0.09119297
47	0x3d950eec	0.07278237
48	0x3e11b802	0.1423035
49	0xbd029d2e	-0.03188818
50	0x3d90b42d	0.07065616
51	0xbd3d0d97	-0.04615554
52	0xbd8c4543	-0.06849148
53	0x3d9eb989	0.07750232
54	0xbca7b438	-0.020471677
55	0x3dbcdf7e	0.09222315
56	0x3d928eb4	0.07156125
57	0xbd187ce6	-0.037228487
58	0x3df564ae	0.11982094
59	0xbe0760f0	-0.13220572
60	0x3d458bef	0.048229154
61	0xbd9601cf	-0.07324564
62	0x3d347597	0.044057455
63	0x3d8c51b3	0.068515204
64	0xbd142517	-0.036168184
65	0xbd3d83d0	-0.046268284
66	0xbddcf484	-0.10788825
67	0x3dd83724	0.10557392
68	0xbdd753c6	-0.105140254
69	0x3dd7f7d1	0.10545314
70	0xbd2ae168	-0.04171887
71	0xbd599105	-0.053116817
72	0x3db69f52	0.08917107
73	0xbe0da615	-0.13832887
74	0x3b9a8c33	0.00471642
75	0xbdecb7a0	-0.11558461
76	0x3dab8fea	0.08377059
77	0xbae1ee68	-0.0017237188
78	0xbd976115	-0.07391564
79	0xbcb8897e	-0.022526499
80	0xbdb1e5c4	-0.086864024
81	0x3d9bf707	0.07615476
82	0x3dc8ab2f	0.09798276
83	0xbba70a3b	-0.005097655
84	0xbd8c82bf	-0.06860875
85	0xbd9d34c6	-0.07676081
86	0x3d033f63	0.032042872
87	0xbe02ae4f	-0.12761806
88	0xbdd88599	-0.10572357
89	0xbd9a6a75	-0.07539836
90	0x3a7a9f84	0.0009560513
91	0x3d447874	0.047966436
92	0xbd99da88	-0.07512385
93	0xbd7d0a7a	-0.06177757
94	0x3d614871	0.055000726
95	0xbdc575a7	-0.09641581
96	0x3e0baaff	0.13639449
97	0xbe1a697a	-0.15079299
98	0x3d3320f6	0.043732606
99	0x3d9bbe61	0.07604671
100	0x3de1a833	0.110184096
101	0x3e1af648	0.15133011
102	0x3bfd46c2	0.0077293823
103	0x3d7e8067	0.062134173
104	0x3d857d09	0.06517989
105	0x3d737694	0.059439257
106	0x3e219fbc	0.1578359
107	0x3d142a7a	0.03617332
108	0xbce670ab	-0.028129896
109	0x3d749f42	0.059722193
110	0xbe0e2d77	-0.13884531
111	0xbd6541b4	-0.055970863
112	0x3b158d62	0.0022819866
113	0x3d520e2f	0.051283058
114	0xbd938c61	-0.072045095
115	0x3ce3e0f9	0.027817236
116	0x3c8d4f55	0.017249743
117	0xbda75e92	-0.08172335
118	0x3dafe3a0	0.08588338
119	0x3e866fb0	0.26257086
120	0x3e04e9b9	0.12979783
121	0xbe49325d	-0.19648118
122	0x3b8ad32d	0.0042366
123	0x3de3c7aa	0.11122067
124	0xbcc955aa	-0.02457698
125	0xbd800649	-0.06251199
126	0x3d7d7edb	0.061888557
127	0xbd8efe6f	-0.06982123
128	0xbd1ba4b4	-0.03799887
129	0xbdab9a7a	-0.083790734
130	0xbe1314f4	-0.14363462
131	0x3dba8346	0.0910707
132	0x3dbf7ffa	0.093505815
133	0x3b730cef	0.0037086566
134	0xbc1ca3f9	-0.0095605785
135	0xbda94192	-0.0826446
136	0xbdcad320	-0.0990355
137	0xbd36fb43	-0.044673216
138	0xbc71935c	-0.014744606
139	0xbdb74254	-0.08948198
140	0x3d179019	0.037002657
141	0x3da2d442	0.07950641
142	0x3e1f023b	0.15528195
143	0x3cd99771	0.02656147
144	0x3e025f54	0.12731677
145	0xbc666605	-0.014062409
146	0x3d1f3527	0.03886905
147	0x3c334aff	0.010943173
148	0xbce987ac	-0.028507076
149	0x3e2019f2	0.15634897
150	0xbd919c03	-0.07109835
151	0x3bf26600	0.0073974133
152	0xbcd1b78a	-0.025600214
153	0x3ba1824e	0.0049288636
154	0x3df4c2ad	0.11951194
155	0x3d46b662	0.048513778
156	0x3e1b4079	0.15161313
157	0x3c515dd8	0.012778722
158	0xbe46a4b2	-0.19398764
159	0xbd07cfa4	-0.033157006
160	0x3def7b35	0.11693422
161	0x3cc07c88	0.023496881
162	0x3c9c141a	0.019052554
163	0xbd8fefad	-0.070281364
164	0x3d473119	0.048630808
165	0x3e1d3b86	0.15354738
166	0xbc90b867	-0.017666055
167	0xbcda8a2d	-0.026677215
168	0x3c8f8dea	0.017523725
169	0x3d70dd2e	0.058804683
170	0x3dab7bfb	0.08373257
171	0x3dd7c794	0.105361134
172	0xbc224843	-0.009904924
173	0x3db51ed7	0.08843773
174	0xbbad6ef9	-0.00529277
175	0x3e409ebd	0.18810554
176	0x3d80c5c5	0.062877215
177	0xbd5fbccb	-0.054623406
178	0xbd013809	-0.03154758
179	0xbcac8e5d	-0.021063978
180	0x3cba45a8	0.022738293
181	0xbbdd7e75	-0.0067594596
182	0x3e153200	0.14569855
183	0xbdc30e2b	-0.09524187
184	0x3c5f01e6	0.0136112925
185	0x3e1bdbae	0.1522052
186	0x3d8a7658	0.067608535
187	0xbdd7d092	-0.105378285
188	0xbe4d2c0c	-0.20036334
189	0x3d0ddf27	0.034636643
190	0xbcb240b6	-0.021759372
191	0xbddece9e	-0.10879253
192	0x3c1c758c	0.00954951
193	0x3dd62705	0.10456661
194	0xbe3eedaf	-0.18645357
195	0x3d837f04	0.06420711
196	0x3e8a250f	0.26981398
197	0x3ad2893a	0.0016062625
198	0x3d1a46d0	0.03766519
199	0xbe0311f6	-0.1279982
200	0xbe018ea0	-0.12652063
201	0xbd860da2	-0.06545569
202	0x3dad9c97	0.08477133
203	0xbd3a21c4	-0.045442358
204	0xbd9e11bb	-0.077182256
205	0x3c816ae8	0.015798047
206	0x3cdcb280	0.026940584
207	0x3cd9cd8a	0.026587266
208	0x3da38258	0.079838455
209	0xbc56bab6	-0.013106039
210	0x3e5f1c77	0.21788202
211	0xbd3b4ce3	-0.04572762
212	0xbbd17f0c	-0.006393319
213	0xbd0e647a	-0.03476379
214	0xbd8925c2	-0.06696655
215	0xbd06e587	-0.032933738
216	0xbd3e1386	-0.046405338
217	0x3c5f710b	0.013637791
218	0x3dd43747	0.10362106
219	0x3d7e1721	0.062033776
220	0xbd29e983	-0.04148246
221	0x3d1282e9	0.035769377
222	0x3d1c63f1	0.03818125
223	0x3dfbbe4a	0.12292154
224	0x3d8babb6	0.06819861
225	0x3e63c4f7	0.22243105
226	0xbdb7f13c	-0.08981559
227	0x3df76b13	0.1208097
228	0x3dde6af4	0.108602434
229	0xbc2b49e5	-0.01045463
230	0x3cffcd5d	0.031225855
231	0x3cb20778	0.021732077
232	0x3e0652ab	0.13117473
233	0xbdc04033	-0.09387245
234	0xbe044b06	-0.12919244
235	0x3c96ec94	0.018423356
236	0x3c21028f	0.00982727
237	0xbe088fac	-0.13336056
238	0xbdef4775	-0.11683551
239	0xbdab349d	-0.083596446
240	0x3d09a0db	0.03360067
241	0xbdf5dc2e	-0.120048866
242	0xbbaaf354	-0.0052169953
243	0x3cb43b1f	0.022000847
244	0xbe136d95	-0.14397271
245	0xbd3074ac	-0.043080017
246	0xbcb13924	-0.021633692
247	0x3db285de	0.087169394
248	0xbddd8529	-0.10816414
249	0xbdb814d5	-0.089883484
250	0xbe0615ee	-0.13094303
251	0xbe1ddb99	-0.15415801
252	0xbd94d4f7	-0.07267182
253	0xbc836da3	-0.01604349
254	0x3df74bf7	0.12075036
255	0xbb6b1fbc	-0.003587707

action_model._continuous_distribution.log_sigma f4 [1, 13]
0	0x00000000	0.0
1	0x00000000	0.0
2	0x00000000	0.0
3	0x00000000	0.0
4	0x00000000	0.0
5	0x00000000	0.0
6	0x00000000	0.0
7	0x00000000	0.0
8	0x00000000	0.0
9	0x00000000	0.0
10	0x00000000	0.0
11	0x00000000	0.0
12	0x00000000	0.0

action_model._continuous_distribution.mu.weight f4 [13, 128]
0	0x3ce60325	0.028077671
1	0x3c28e44e	0.010308338
2	0xbc2786a5	-0.010224973
3	0xbbb71955	-0.0055877366
4	0x3c891118	0.016731784
5	0x3c90f38d	0.017694259
6	0x39fcac30	0.00048193475
7	0xbbea44a2	-0.007149295
8	0xbd39a7d1	-0.045326058
9	0x3c46376b	0.012098174
10	0xbb80d894	-0.003932068
11	0xbc6957aa	-0.014242092
12	0xbc469e44	-0.012122694
13	0x3c0a558f	0.00844325
14	0xbc46b913	-0.012129086
15	0x3d00a0d6	0.031403385
16	0xbc9291e6	-0.017891835
17	0x3d2a447c	0.041569218
18	0xbc7cd400	-0.015431404
19	0xbc5d52cd	-0.013508511
20	0xba59a34a	-0.0008302225
21	0x3c6d896d	0.014498097
22	0xbb862fee	-0.004095069
23	0x3afe8d98	0.001942086
24	0xbba9c1b6	-0.005180563
25	0x3d028feb	0.031875532
26	0xba1cfd4f	-0.00059886737
27	0x3b3225d1	0.0027183185
28	0x3a831156	0.0009999673
29	0x3ccb9150	0.024849564
30	0xba3314c6	-0.00068314036
31	0xbcca9b1c	-0.024732165
32	0x3c2740cb	0.010208319
33	0x3b1583af	0.0022814085
34	0x3d2660cf	0.040619668
35	0xbc104d0b	-0.008807431
36	0x3c86f100	0.01647234
37	0x3bee9e05	0.007282021
38	0x3c2ed7a4	0.01067153
39	0x3a2b9ec9	0.0006546793
40	0xbb2ea6b3	-0.0026649653
41	0x3c53cc2f	0.012927099
42	0xbb9c51cc	-0.004770493
43	0xbd05eba3	-0.032695424
44	0xbc12b67f	-0.008954643
45	0x3c6148d0	0.01375027
46	0xbae1d3ef	-0.0017229299
47	0xb9a6d28e	-0.00031818863
48	0x3d06354f	0.032765683
49	0xbc9f24d4	-0.01942674
50	0x3c0866cf	0.008325293
51	0x3c66ce62	0.014087291
52	0x3c84bd66	0.016203593
53	0x3d2e734e	0.042590432
54	0x3b13ad87	0.002253385
55	0x3c1cccb3	0.0095702885
56	0xbca5ec63	-0.02025432
57	0x3b5a01f0	0.0033265315
58	0xbc35e86f	-0.01110278
59	0xbb4edeed	-0.003156598
60	0xbc8cd7d3	-0.017192757
61	0xbc089951	-0.008337335
62	0xbb6dd2a3	-0.003628888
63	0xbc8bcc84	-0.017065294
64	0xbca87ab3	-0.02056632
65	0x3ce2fae8	0.027707532
66	0x3c8dce07	0.017310156
67	0x3d0e904a	0.034805574
68	0xbb68b985	-0.003551097
69	0xbccb5781	-0.024821999
70	0xbb5d6a3a	-0.003378524
71	0x3b8c951b	0.0042902357
72	0x3a64db82	0.0008730219
73	0xbb3d94bd	-0.0028927766
74	0xbc9375dc	-0.018000536
75	0x3ce82405	0.028337488
76	0xbc6f170a	-0.014592895
77	0xba526333	-0.0008025646
78	0x3c4de268	0.0125661865
79	0x3c7f896b	0.015596728
80	0x3d1854fa	0.037190415
81	0xbbc50ba9	-0.006013353
82	0xbba11fb4	-0.0049171094
83	0xbbbb8662	-0.005722807
84	0x3bb5cb9f	0.005547955
85	0xbb8a3f9b	-0.004219008
86	0x3b3485d4	0.0027545588
87	0xbbec78e7	-0.007216561
88	0xbcb8367c	-0.022486918
89	0x3bdf90f0	0.006822698
90	0x3bf2c1b2	0.007408344
91	0x3b9a9de9	0.0047185314
92	0xbd2b3401	-0.04179764
93	0x3c565c92	0.013083594
94	0xb962235d	-0.00021566213
95	0xba81730a	-0.0009876203
96	0xbccd47d3	-0.025058663
97	0x3baa767d	0.005202113
98	0xbbb9eb34	-0.0056737904
99	0x3cb44deb	0.02200981
100	0xbc18288b	-0.00928701
101	0xbc090e9d	-0.0083653005
102	0xbb2b4837	-0.0026135573
103	0x3bc91ec0	0.006137699
104	0x3cae072e	0.021243658
105	0xbc467f6b	-0.01211534
106	0x3cbb152e	0.022837248
107	0x3aff413b	0.0019474396
108	0xbbc7aa6b	-0.0060933135
109	0x3cee16dd	0.029063636
110	0x39d64db2	0.00040875148
111	0xbbc62d64	-0.0060478915
112	0x3b6fa307	0.0036565678
113	0xbcfe3f78	-0.031036124
114	0x3c523aaf	0.012831374
115	0x3b8ec5ad	0.004357061
116	0xbb0bb6ef	-0.0021318754
117	0xbb5c4b47	-0.0033614205
118	0x3ae8c1fb	0.0017758006
119	0x3c106db3	0.008815217
120	0x3bf9bff3	0.007621759
121	0xbbc58fd4	-0.0060291085
122	0x3c4df692	0.012570994
123	0x3c4c3b6b	0.012465338
124	0x3c490dfc	0.012271401
125	0x3a0a6c80	0.000528045
126	0x3a7dc97b	0.0009681207
127	0xbb5d089b	-0.0033727053
128	0x3bd201f7	0.0064089256
129	0x3c006dba	0.007838661
130	0x3d520925	0.051278252
131	0x3bc5d5d7	0.0060374546
132	0x37de280f	2.6483116e-05
133	0xbab3d7a6	-0.0013720884
134	0xbc87d44b	-0.016580721
135	0x3c5e9e63	0.013587567
136	0xbcb8e61f	-0.022570668
137	0x3c318931	0.010835932
138	0xbced89fd	-0.028996462
139	0xbcea99b3	-0.028637743
140	0x3bae364c	0.0053165313
141	0x3d35a9da	0.044351436
142	0x3cdbfe7f	0.026854752
143	0xb91295da	-0.00013979469
144	0xbc188203	-0.009308341
145	0x3bb23db6	0.0054394854
146	0xbbb24b68	-0.005441118
147	0x3c84b3e5	0.016199062
148	0xbb9d9403	-0.004808904
149	0x3bd1fff5	0.0064086863
150	0xbc637ddf	-0.0138849905
151	0x3cbda996	0.023152154
152	0xbc445057	-0.011982045
153	0xbc49da4f	-0.012320115
154	0xbba5c15f	-0.005058452
155	0x3c7505fb	0.014955039
156	0x3c0a600f	0.008445754
157	0x3bbee407	0.005825523
158	0x3ca5b5a1	0.020228209
159	0x3c6fd148	0.014637299
160	0x3c32c30f	0.010910763
161	0xbb362e1e	-0.0027798484
162	0x3b31273f	0.002703145
163	0xba807e3c	-0.0009803246
164	0xbc2c473a	-0.010515029
165	0x3bfa62ed	0.0076411874
166	0xbc797905	-0.015226607
167	0x3cefa9f0	0.029255837
168	0xbd238f85	-0.039931793
169	0x3cbff19b	0.023430636
170	0xbd17e44b	-0.03708295
171	0x3c0f2f87	0.008739359
172	0x3bd77367	0.0065750363
173	0xba931083	-0.0011220131
174	0x3bfc5a15	0.0077011683
175	0xbc0e095d	-0.008669225
176	0xbc0d3694	-0.0086189695
177	0x3c794692	0.015214579
178	0x3c91fddf	0.01782125
179	0x3bb36d15	0.00547565
180	0xbcd1d21a	-0.02561288
181	0xbc17d7ea	-0.0092677865
182	0xbc8b2a4e	-0.016987946
183	0xba81a644	-0.000989147
184	0xbc7a6a65	-0.0152841555
185	0xbba36c5b	-0.004987282
186	0xb9f24772	-0.00046211068
187	0x3b393cec	0.0028265072
188	0xbbb8a319	-0.005634677
189	0x3c58b47d	0.0132266255
190	0x3bd8595d	0.00660245
191	0xb9725713	-0.00023111356
192	0xbc69fd10	-0.014281526
193	0xbc4f1e85	-0.012641554
194	0x3b1e1bb3	0.0024125397
195	0x3c1026f8	0.008798353
196	0x3c6fc69f	0.014634757
197	0x3c0ff779	0.008787029
198	0xbc2dc839	-0.010606819
199	0xbc8adda8	-0.016951397
200	0xbbb67a23	-0.005568759
201	0x3b82c8c0	0.0039912164
202	0xbcae4333	-0.021272277
203	0x3c2a610d	0.010399115
204	0x3c13fe2a	0.009032765
205	0x3a29e034	0.0006480247
206	0xbc271277	-0.010197273
207	0x3ca188c7	0.01971854
208	0x3cc562f6	0.02409504
209	0xbcb29a83	-0.021802193
210	0xbcbdd03b	-0.023170581
211	0xbc2efa94	-0.01067986
212	0xbbb7af50	-0.0056056157
213	0x3c2f50f7	0.010700456
214	0xbcedab6f	-0.02901241
215	0x3cb03174	0.021507956
216	0xb9c497d1	-0.00037497145
217	0x3c854a88	0.01627089
218	0x3c23a25d	0.009987441
219	0x3a15a696	0.0005708722
220	0x3c59fe22	0.013305219
221	0xbc95cfe2	-0.018287603
222	0xbd53b357	-0.051684704
223	0x3b94feef	0.004546992
224	0xbc867eb2	-0.016417835
225	0xbc7e2880	-0.015512586
226	0xbd1fb0ab	-0.038986843
227	0x3b3369fa	0.00273764
228	0xbca54f2c	-0.020179354
229	0x3c975534	0.018473245
230	0xbce6a19f	-0.028153239
231	0x3c90f9cb	0.017697236
232	0xbcf1b373	-0.029504513
233	0x3ca1d725	0.01975591
234	0x3b21b6c3	0.0024675585
235	0x3c1d293f	0.009592353
236	0x3c5a187f	0.013311504
237	0xbca94c36	-0.020666223
238	0x3b616460	0.0034392104
239	0xbbe2428f	-0.006904907
240	0xbbe12f82	-0.0068721185
241	0xbcece66b	-0.028918466
242	0x3c0d4784	0.008623008
243	0x3a8fedcb	0.0010980902
244	0x3cab18bf	0.020885823
245	0xbbd543e5	-0.006508338
246	0xbc9b0ccf	-0.018927006
247	0x3bb905ac	0.005646428
248	0x3d1f2085	0.038849372
249	0x3babff0c	0.00524891
250	0xbcdaddba	-0.026717056
251	0xbb9e8292	-0.0048373425
252	0xbb861fa4	-0.0040931273
253	0xbc915feb	-0.017745933
254	0x3ce1a2da	0.027543474
255	0xbb1fb19b	-0.0024367336

action_model._continuous_distribution.mu.bias f4 [13]
0	0x00000000	0.0
1	0x00000000	0.0
2	0x00000000	0.0
3	0x00000000	0.0
4	0x00000000	0.0
5	0x00000000	0.0
6	0x00000000	0.0
7	0x00000000	0.0
8	0x00000000	0.0
9	0x00000000	0.0
10	0x00000000	0.0
11	0x00000000	0.0
12	0x00000000	0.0

onnx::Div_51 f4 [18]
0	0x3c05c535	0.008164694
1	0x3f2cae44	0.6745341
2	0x3c05c535	0.008164694
3	0x3f21bbd5	0.63177234
4	0x3c05c535	0.008164694
5	0x3c05c535	0.008164694
6	0x3c05c535	0.008164694
7	0x3c05c535	0.008164694
8	0x3c2ffcd1	0.0107414285
9	0x3c23231e	0.009957103
10	0x3c152e1c	0.009105232
11	0x3c05c535	0.008164694
12	0x3e8a46a5	0.27007023
13	0x3de25cc4	0.1105285
14	0x3de3bbf7	0.11119836
15	0x3e355694	0.17708808
16	0x3dc77475	0.09739009
17	0x3e039b78	0.12852275
