NICO-master/NICO_articulation_body/Assets/Models/NICO_gaze.onnx (onnx, 87453 bytes, 9 tensors)

network_body.observation_encoder.processors.0.normalizer.running_mean f4 [18]
0	0x00000000	0.0
1	0xbf20339a	-0.6257874
2	0x00000000	0.0
3	0x3f136e9c	0.5759065
4	0x00000000	0.0
5	0x00000000	0.0
6	0x00000000	0.0
7	0x00000000	0.0
8	0x3e042cb1	0.12907673
9	0x3d3e966f	0.046530183
10	0x3d152ef4	0.03642173
11	0xbd8ff464	-0.07029036
12	0xbed11226	-0.4083416
13	0x3e8262b8	0.2546594
14	0x3c8bb0be	0.01705205
15	0xbf1bf223	-0.60916346
16	0xbeef2720	-0.46709538
17	0x3edfbaee	0.43697304

network_body._body_endoder.seq_layers.0.weight f4 [128, 18]
0	0xbebbb8b0	-0.36664343
1	0x3d081f34	0.033232883
2	0x3d5cf14f	0.053941067
3	0xbe21af2f	-0.15789483
4	0xbe085a66	-0.13315734
5	0x3e8076a2	0.2509051
6	0xbe51a391	-0.20472552
7	0xbe2266e2	-0.15859559
8	0xbe594cad	-0.21220656
9	0x3e007dd7	0.12548004
10	0x3d284a31	0.04108638
11	0x3f025720	0.5091419
12	0x3d86f5f4	0.065898806
13	0x3ec97ffb	0.39355454
14	0x3d6349ef	0.05549043
15	0x3c6cb74c	0.014447998
16	0x3ce6294e	0.028095867
17	0x3def7e25	0.11693982
18	0xbe8a016b	-0.26954207
19	0xbe53b2d7	-0.2067369
20	0x3e38656b	0.18007438
21	0xbd4ff19e	-0.050767533
22	0xbf108783	-0.56456774
23	0xbedb2d4f	-0.42808005
24	0xbe6cd6be	-0.23128793
25	0x3e370119	0.17871512
26	0x3ebe4ee7	0.37169573
27	0x3e2f0f09	0.17095579
28	0x3e6c2a0f	0.23062919
29	0x3f3b6778	0.73204756
30	0xbdc13e76	-0.094357416
31	0x3d68d063	0.056839358
32	0x3e983c71	0.29733613
33	0xbc8e5354	-0.017373718
34	0x3c70ed57	0.014705024
35	0x3ee1c4fc	0.440956
36	0xbe931a26	-0.28730887
37	0x3f2bd9a5	0.67128974
38	0xbca13646	-0.0196792
39	0xbe56dea4	-0.20983368
40	0x3e92d416	0.28677434
41	0xbddb77df	-0.10716223
42	0x3e460f46	0.19341764
43	0xbd2546a4	-0.04035057
44	0xbe7ad6e6	-0.2449604
45	0x3e45ed5b	0.19328825
46	0x3d82e008	0.06390387
47	0x3e87b448	0.2650473
48	0x3c26b570	0.010175094
49	0xbedd9df0	-0.4328456
50	0x3dd605b8	0.104503095
51	0xbd9db9cb	-0.07701453
52	0x3f3fd7d8	0.74938726
53	0x3f0d1f99	0.5512634
54	0xbe8747f3	-0.2642208
55	0xbebfe64f	-0.374804
56	0xbeb96f76	-0.3621785
57	0xbdf86a38	-0.121296346
58	0xbe75671e	-0.23965117
59	0x3e4e7cfa	0.20164862
60	0x3de484ca	0.1115814
61	0xbdcab467	-0.0989769
62	0x3dc9e6e0	0.09858489
63	0x3aa03c0b	0.0012224925
64	0xbd996cb5	-0.07491437
65	0x3df1313e	0.1177697
66	0x3d928606	0.07154469
67	0xbedb2776	-0.42803544
68	0xbe9219ff	-0.28535458
69	0xbf13b762	-0.57701695
70	0xbdee7cf4	-0.11644927
71	0xbb5bbeaa	-0.0033530393
72	0x3e28305a	0.16424695
73	0xbc4af962	-0.012388559
74	0x3f023b62	0.5087186
75	0x3d2ec90a	0.042672195
76	0xbbaae09e	-0.0052147647
77	0x3e047626	0.12935695
78	0xbf04f9e8	-0.51943827
79	0x3dc095b2	0.09403552
80	0xbee35b2a	-0.4440549
81	0xbd581f49	-0.05276421
82	0xbe1428a0	-0.14468622
83	0xbd80ae61	-0.0628326
84	0xbd4211ce	-0.04738026
85	0xbd2719c5	-0.04079606
86	0x3e4fef2a	0.20306078
87	0xbe33a614	-0.17543823
88	0xbe444d4c	-0.19170111
89	0xbe3dc965	-0.18533857
90	0x3dee9412	0.11649336
91	0xbee16557	-0.4402263
92	0xbedac8f3	-0.42731437
93	0xbe72c128	-0.23706496
94	0xbb9a905e	-0.004716917
95	0xbe243d50	-0.16039014
96	0x3ee0adeb	0.4388269
97	0xbe9ba2b5	-0.30397573
98	0x3e46b883	0.19406323
99	0x3e17d6fe	0.14828107
100	0x3c8a158d	0.01685598
101	0x3eb84c9a	0.35995942
102	0x3ddc92ba	0.10770173
103	0xbcdd4d4a	-0.027014393
104	0xbe2a6128	-0.16638625
105	0x3c32d2d4	0.010914523
106	0x3e86b5e3	0.26310644
107	0x3e1b8b5b	0.15189879
108	0xbe54160b	-0.20711534
109	0xbe7ff5dc	-0.24996132
110	0xbee43cea	-0.44577724
111	0xbf3ea8d4	-0.7447636
112	0xbec8dfc4	-0.3923322
113	0xbe51a05d	-0.2047133
114	0xbe7848ae	-0.24246475
115	0xbe291622	-0.16512349
116	0x3da8f7bb	0.08250376
117	0xbc406b36	-0.011744311
118	0x3eed2dac	0.46323907
119	0xbd57b0ed	-0.052658964
120	0x3e5919ac	0.212012
121	0xbea09572	-0.31364018
122	0xbe9635f9	-0.29338053
123	0xbe1dd491	-0.15413119
124	0xbe5b2935	-0.21402438
125	0xbe5d51ea	-0.21613279
126	0xbe561dfa	-0.20909873
127	0x3e5235ea	0.20528379
128	0xbea87613	-0.32902583
129	0xbe6ff04c	-0.2343151
130	0xbd907109	-0.0705281
131	0xbe8bb4db	-0.2728642
132	0x3dffdca2	0.12493254
133	0xbe7c9883	-0.24667554
134	0xbda97980	-0.082751274
135	0xbdf1b62c	-0.11802325
136	0xbe0d7f5f	-0.1381812
137	0xbeaaa66a	-0.3333009
138	0xbd7bd77a	-0.06148479
139	0x3f01af9e	0.50658596
140	0x3e99462a	0.29936343
141	0x3dbab34a	0.09116228
142	0x3e712446	0.23548993
143	0xbef95dfc	-0.48704517
144	0xbf0a91ab	-0.5412852
145	0xbedef24f	-0.43544242
146	0xbe4a01fe	-0.19727322
147	0xbf138d14	-0.57637143
148	0xbe0804bb	-0.13283055
149	0x3c9ee239	0.01939498
150	0x3db12ed1	0.08651508
151	0xbbc454a7	-0.0059915367
152	0xbd8a108b	-0.067414366
153	0xbcf254d3	-0.029581463
154	0x3ccad2a5	0.024758646
155	0xbdb22560	-0.08698535
156	0xbe8ae53e	-0.27128023
157	0x3e3a3680	0.18184853
158	0xbe10f39e	-0.14155433
159	0xbec4f46b	-0.38467726
160	0xbf031e4e	-0.51218116
161	0x3ed1fa07	0.41011068
162	0x3cc66ff0	0.024223298
163	0xbe8c2660	-0.27373028
164	0xbea717b7	-0.3263528
165	0xbe9b6e2a	-0.30357486
166	0xbd12dd69	-0.035855684
167	0xbe5276a2	-0.20553067
168	0xbee3c1ad	-0.444837
169	0x3ca266ad	0.01982435
170	0xbd5c0f36	-0.053725444
171	0x3eb8a927	0.36066553
172	0x3df7bf54	0.1209704
173	0xbf0882d7	-0.53324646
174	0x3e67b15f	0.22626255
175	0xbe1edfc6	-0.1551505
176	0x3f0e276e	0.55528915
177	0x3ed41ce6	0.41428298
178	0x3e26e389	0.16297735
179	0x3e7e93d8	0.24861085
180	0xbdd0b935	-0.101915754
181	0x3d5e117f	0.054215904
182	0xbe2ff328	-0.171826
183	0x3d4f7772	0.05065102
184	0xbdb7f4f2	-0.089822665
185	0xbe87b83f	-0.26507756
186	0x3e0f5794	0.13998252
187	0x3e60fbff	0.21971129
188	0xbea9d24a	-0.3316825
189	0x3eef0d63	0.466899
190	0x3a9c1087	0.0011906781
191	0xbde8ebe9	-0.11373121
192	0x3e8c8442	0.27444655
193	0xbe92c0df	-0.28662774
194	0x3f4dd768	0.8040681
195	0xbe0c6fdd	-0.13714547
196	0xbe11d2fe	-0.14240643
197	0x3d96df99	0.073668666
198	0xbeff6489	-0.4988139
199	0xbb5a5f2a	-0.0033320882
200	0x3e08b512	0.13350323
201	0x3edb222c	0.4279951
202	0xbeadc646	-0.33940333
203	0xbea94d44	-0.33066761
204	0xbf001229	-0.5002771
205	0xbd2aab87	-0.041667487
206	0x3d1e68bb	0.038674098
207	0x3d202a2b	0.039102715
208	0x3e622e76	0.22088036
209	0xbe8eb0c9	-0.2786925
210	0x3ebfab3b	0.37435326
211	0xbe81b5d3	-0.25334033
212	0xbe0f8b92	-0.14018086
213	0x3e291b7d	0.16514392
214	0x3eb5953f	0.35465428
215	0x3e843e35	0.2582871
216	0xbc110731	-0.008851812
217	0x3e33fe8c	0.1757757
218	0x3ea2373b	0.31682763
219	0xbd8f6f77	-0.07003682
220	0xbe5479c1	-0.2074957
221	0xbcd20d92	-0.025641236
222	0x3e1930c8	0.14960015
223	0xbe22dbea	-0.15904203
224	0x3e96993b	0.2941378
225	0xbe0917fd	-0.13388057
226	0x3e3ae23e	0.18250367
227	0xbd0f4dd9	-0.03498635
228	0x3e5062ef	0.2035024
229	0x3e930304	0.28713238
230	0x3e333d7e	0.17503926
231	0xbbaaa46b	-0.0052075884
232	0xbda6e32d	-0.08148799
233	0x3e054baa	0.13017145
234	0xbe84e639	-0.25956896
235	0x3e8d324f	0.27577445
236	0x3d683eea	0.056700625
237	0x3e3d00dd	0.1845736
238	0x3e99dab9	0.30049685
239	0x3e7ec77c	0.24880785
240	0x3d48e556	0.049046837
241	0x3e5fb534	0.21846467
242	0xbc4af649	-0.0123878205
243	0x3d27cfb8	0.04096958
244	0x3e9c9947	0.3058569
245	0xbb2e7ffc	-0.0026626578
246	0xbd841122	-0.0644858
247	0xbd21c43a	-0.039493777
248	0xbdc9c51b	-0.09852048
249	0x3e66ac51	0.22526671
250	0xbd71ec65	-0.059063334
251	0x3de6d96d	0.112719394
252	0x3dd969ff	0.1061592
253	0x3ee5f2e6	0.4491188
254	0xbc018567	-0.007905341
255	0x3e496097	0.19665752

network_body._body_endoder.seq_layers.0.bias f4 [128]
0	0xbe9e3648	-0.30900788
1	0xbdc79ab1	-0.09746302
2	0xbd764a83	-0.060129654
3	0x3d9a8b08	0.07546049
4	0x3d156352	0.036471672
5	0xbd6df81d	-0.058097947
6	0xbd60bb2c	-0.054866
7	0x3ce0cc3b	0.027441135
8	0xbad6c659	-0.0016386017
9	0xbe693e7b	-0.2277774
10	0xbd7bd958	-0.061486572
11	0xbcb7720d	-0.02239325
12	0xbdd13337	-0.102148466
13	0xbe59c674	-0.2126711
14	0xbe02cdad	-0.12773772
15	0xbd944a55	-0.0724074
16	0xbd72cb68	-0.059276015
17	0x3de7afb8	0.113128126
18	0xbd8dd903	-0.06926157
19	0xbe0cfd65	-0.13768537
20	0xbe075ecb	-0.13219754
21	0x3e5fbfca	0.21850505
22	0x3e43bd1c	0.19115108
23	0xbd8ed5f4	-0.06974402
24	0x3bf4a1aa	0.007465561
25	0xbe002fe9	-0.12518276
26	0xbd95cf6a	-0.07314952
27	0x3d9fefaf	0.07809388
28	0x3cc802e3	0.024415439
29	0xbdf386b1	-0.11890925
30	0xbe5f1843	-0.21786599
31	0xbe5a24f5	-0.2130316
32	0xbe1708a3	-0.14749388
33	0x3d8f06fc	0.06983754
34	0xbdce1cd3	-0.100640915
35	0xbec72325	-0.38894
36	0x3d85cd92	0.0653335
37	0x3dc02f51	0.09384025
38	0xbdbea38a	-0.09308536
39	0xbe8be9bf	-0.27326772
40	0xbd46c23c	-0.04852508
41	0x3e095451	0.1341107
42	0x3e7be042	0.24597266
43	0x3d85755a	0.06516524
44	0xbd8aa10e	-0.06769
45	0xbe0bc37d	-0.13648792
46	0xbdf063c7	-0.11737781
47	0x3c2fb587	0.010724432
48	0x3e882a48	0.26594758
49	0xbe1781e4	-0.14795643
50	0xbe23a2be	-0.1598005
51	0x3c288625	0.010285889
52	0xbe50a517	-0.20375477
53	0xbe505d64	-0.20348126
54	0x3977dcd3	0.00023638019
55	0xbdbe9602	-0.093059555
56	0xbe763f07	-0.2404748
57	0xbdd3781a	-0.10325642
58	0xbe98b9b1	-0.2982917
59	0x3d9d5e5a	0.07684012
60	0xbe530638	-0.20607841
61	0xbde4e6a8	-0.11176807
62	0x3e7c275f	0.24624394
63	0x3d20c7e4	0.03925313
64	0xbcc1f241	-0.023675086
65	0xbd9b1d29	-0.07573921
66	0x3d9a658a	0.07538898
67	0x3d7ec230	0.06219691
68	0x3cc15341	0.023599269
69	0xbdbb1400	-0.09134674
70	0x3ea207be	0.31646532
71	0x3de641f6	0.1124305
72	0x3d66c05b	0.05633579
73	0xbce50f27	-0.027961327
74	0xbd10a624	-0.035314694
75	0xbd95367c	-0.07285783
76	0xbde294f0	-0.11063564
77	0xbe241e78	-0.16027248
78	0xbe315329	-0.1731688
79	0xbdf150a5	-0.1178296
80	0x3e55c5b7	0.20876203
81	0xbe8f1e2e	-0.27952713
82	0xbe73b0f5	-0.23797973
83	0x3e0df7fd	0.13864131
84	0xbdbb5727	-0.09147482
85	0x3d96603b	0.07342573
86	0x3db77f09	0.08959777
87	0xbe431e6e	-0.19054577
88	0xbc323190	-0.010876074
89	0x3d2f147f	0.042744156
90	0xbd55e97b	-0.052224617
91	0x3d86cad9	0.06581659
92	0xbe08c05c	-0.1335463
93	0xbdd5f8ee	-0.1044787
94	0x3e73a50e	0.23793432
95	0xbca0d32c	-0.019631945
96	0x3c9dbb7c	0.019254439
97	0xbe555d10	-0.20836282
98	0x3d6635e4	0.056203738
99	0xbe200d79	-0.1563014
100	0xbdaee35f	-0.08539461
101	0xbe89c303	-0.26906595
102	0xbe09dc67	-0.13462983
103	0x3d4437e1	0.047904853
104	0xbe6c5258	-0.23078287
105	0xbe050aeb	-0.12992446
106	0xbe37c098	-0.17944562
107	0xbdd9e058	-0.10638493
108	0x3c25a339	0.010109716
109	0xbe56adbb	-0.2096471
110	0xbe69ca5b	-0.22831099
111	0x3d53d387	0.0517154
112	0xbdbd1ab0	-0.09233606
113	0xbdeb1359	-0.114783
114	0x3e4622de	0.19349238
115	0x3c9e73c2	0.019342307
116	0xbda955cd	-0.08268318
117	0x3c6da376	0.014504304
118	0x3ded9f76	0.116026804
119	0x3e3b8831	0.18313672
120	0x3dd835ab	0.10557111
121	0xbc275ddf	-0.010215252
122	0xbe3f2a2b	-0.1866843
123	0xbd77f9de	-0.060541026
124	0x3df0b63a	0.11753507
125	0x3da93e81	0.08263875
126	0xbdf87718	-0.1213209
127	0xbe783884	-0.24240309

network_body._body_endoder.seq_layers.2.weight f4 [128, 128]
0	0x3ce3a1ad	0.027787054
1	0xbe66641f	-0.2249913
2	0xbe967634	-0.29387057
3	0x3df19556	0.11796062
4	0x3dcf1496	0.10111348
5	0xbdc2c944	-0.095110446
6	0xbe2c2113	-0.16809492
7	0xbdcbfbe9	-0.099601574
8	0xbe4b7ab6	-0.1987103
9	0xbddf2645	-0.10895971
10	0xbd2c3062	-0.04203833
11	0xbd8207ae	-0.06349121
12	0xbd267be5	-0.0406455
13	0xbdae7743	-0.08518841
14	0xbd3b78f9	-0.045769665
15	0x3d8909a8	0.06691295
16	0xbc35fe6c	-0.011108022
17	0xbdf985f6	-0.12183754
18	0xbe303e94	-0.17211372
19	0xbe09b7ff	-0.13449095
20	0x3d8e99ee	0.069629535
21	0x3e41f567	0.1894127
22	0xbdc90a8f	-0.09816467
23	0x3d259edc	0.040434703
24	0x3d6481f0	0.05578798
25	0x3e0a3a84	0.13498884
26	0x3cae4e22	0.021277491
27	0xbcf1a526	-0.029497694
28	0xbd921cb4	-0.07134381
29	0xbd2b15fc	-0.041769013
30	0xbcf32070	-0.029678553
31	0x3e5236b5	0.20528682
32	0xbe80f588	-0.25187325
33	0x3cefaef3	0.029258227
34	0xbd61ac7f	-0.055096146
35	0x3bc1059b	0.005890561
36	0xbc59f636	-0.01330333
37	0xbdb7cc73	-0.089745425
38	0xbdbb8f8d	-0.091582395
39	0xbd34f059	-0.044174526
40	0xbd3a77d6	-0.04552444
41	0xbce97db3	-0.02850232
42	0xbdc79d2d	-0.09746776
43	0x3dadb4d6	0.08481757
44	0x3de26747	0.11054855
45	0xbe092884	-0.13394362
46	0xbe7d245f	-0.24720906
47	0xbcc893f2	-0.024484608
48	0x3ca04af6	0.019566994
49	0xbc164909	-0.009172686
50	0xbd23bfd5	-0.039977867
51	0xbe6e7717	-0.23287617
52	0xbbdee27a	-0.0068019005
53	0xbe3b5c40	-0.1829691
54	0xbdd1f001	-0.10250855
55	0xbe1113e0	-0.14167738
56	0x3d8fe64d	0.07026348
57	0xbc8799af	-0.016552774
58	0x3d367410	0.04454428
59	0x3d6e7b5d	0.058223117
60	0xbd0e7376	-0.03477808
61	0xbdbb5dbe	-0.09148739
62	0xbd25ba1e	-0.0404607
63	0x3e287925	0.16452463
64	0x3e7ea255	0.24866612
65	0xbe5621c1	-0.20911314
66	0x3d4e513c	0.05037044
67	0xbe0f4d62	-0.13994363
68	0x3d3dca24	0.046335354
69	0xbd9793b6	-0.074012205
70	0xbc624092	-0.01380934
71	0xbb0a8295	-0.0021134962
72	0x3d899bf0	0.06719196
73	0xbde14d37	-0.11001056
74	0x3d2b78af	0.04186314
75	0xbd6de83f	-0.058082815
76	0xbdd6d349	-0.10489518
77	0x3dde7542	0.10862209
78	0xbe35d08b	-0.17755334
79	0xbb0bc0b5	-0.002132458
80	0xbe3fdf50	-0.1873753
81	0xbd8c15ca	-0.068400934
82	0x3dd84fc4	0.10562089
83	0x3d2d4e79	0.042311165
84	0x3d4790f3	0.04872222
85	0xbe56dfa7	-0.20983754
86	0xbe2faf16	-0.17156634
87	0xbb6ab1dc	-0.003581158
88	0x3d4a9ac5	0.049464006
89	0x3d996295	0.07489506
90	0xbcbdc7dd	-0.023166591
91	0xbdb64c73	-0.089013
92	0xbe0e46bf	-0.13894175
93	0x3e3466e9	0.17617382
94	0x3d3f014b	0.046632092
95	0xbde91526	-0.11380987
96	0xbd4e66de	-0.05039107
97	0x3de5d303	0.11221888
98	0xbd0bd70a	-0.034140624
99	0xbdec76fd	-0.11546133
100	0x3e0db5e9	0.13838924
101	0xbda30467	-0.07959824
102	0x3e525f11	0.20544077
103	0xbdec412d	-0.11535869
104	0x3d9c1512	0.07621206
105	0xbe862e75	-0.2620732
106	0xbd8eed19	-0.069788165
107	0xbdc0110e	-0.09378253
108	0x3c044052	0.008071976
109	0xbe64c470	-0.2234056
110	0xbb7217cd	-0.0036940456
111	0x3d32b64c	0.043630883
112	0x3d1aa50b	0.037755053
113	0xbd1ed1ee	-0.038774423
114	0xbdd81c3c	-0.1055226
115	0x3cfa3f41	0.03054774
116	0xbd4af77a	-0.04955242
117	0xbd7c2be5	-0.0615653
118	0x3d2a0c95	0.041515905
119	0x3ddc626e	0.107609615
120	0xbce3e2ce	-0.02781811
121	0x3c9963aa	0.018724281
122	0x3d9535d5	0.07285658
123	0x3dfe0089	0.12402446
124	0xbd1621ed	-0.036653448
125	0x3c3c5c54	0.011496622
126	0xbe2afd8a	-0.1669828
127	0x3db3b54b	0.08774813
128	0x3c22ca20	0.009935886
129	0xbd3b4b27	-0.045725968
130	0xbec4b266	-0.38417357
131	0x3dcd7908	0.100328505
132	0xbda9533d	-0.082678296
133	0xbda587d6	-0.08082549
134	0xbe112cc7	-0.14177237
135	0x3b58feb9	0.003311081
136	0xbdaa623c	-0.08319518
137	0xbe52eff0	-0.20599341
138	0xbed3780f	-0.41302535
139	0xbe62f662	-0.221643
140	0x3e60831a	0.21925011
141	0x3d731f73	0.059356164
142	0xbde3c528	-0.11121589
143	0xbe8f1f3e	-0.27953523
144	0xbd983bc2	-0.07433273
145	0xbcb81b38	-0.022473916
146	0xbdf0d724	-0.11759785
147	0xbd0a39c3	-0.033746492
148	0xbe3bd7de	-0.18344066
149	0xbe1087e3	-0.14114337
150	0xbd5e58cf	-0.054283913
151	0xbef46295	-0.47731462
152	0xbe8e4131	-0.27784112
153	0x3de23da1	0.11046911
154	0xbd11f4f0	-0.03563398
155	0x3ca1027c	0.019654505
156	0x3e037cd3	0.12840585
157	0x3da74158	0.0816676
158	0xbe4e3c68	-0.2014023
159	0xbc9b7fd0	-0.018981844
160	0xbd72933c	-0.059222445
161	0x3d7ef426	0.062244557
162	0x3dd7f246	0.10544257
163	0x3d47a7f4	0.048744157
164	0x3daa3e7b	0.083126985
165	0xbdda91dc	-0.10672352
166	0xbe9e1c51	-0.3088098
167	0xbd0fad5e	-0.035077445
168	0x3e1feadc	0.15616935
169	0x3e18cb80	0.14921379
170	0xbd604f23	-0.05476297
171	0xbdac5ff6	-0.084167406
172	0xbe5cc799	-0.21560515
173	0xbdc43864	-0.09581068
174	0x3d16d6cd	0.036825944
175	0xbe855c8d	-0.26047173
176	0xbe557776	-0.20846352
177	0xbee3e219	-0.44508436
178	0xbe6975ae	-0.22798797
179	0xbe40d32c	-0.18830556
180	0xbe10618e	-0.14099714
181	0xbd2e6627	-0.04257789
182	0xbd924747	-0.07142501
183	0xbd4426b6	-0.04788848
184	0x3d32d2b7	0.043657985
185	0x3c8ea16c	0.017410956
186	0x3e7f4891	0.24930026
187	0x3d41e93e	0.047341578
188	0xbe612bb0	-0.21989322
189	0xbe4e026c	-0.20118111
190	0xbe6d537e	-0.23176381
191	0xbd5ad367	-0.053424265
192	0xbe6a42c1	-0.22877027
193	0x3d315cfc	0.043301567
194	0x3d930d5c	0.071802825
195	0xbdff3699	-0.124615856
196	0xbed64a03	-0.4185334
197	0xbe8429af	-0.25813052
198	0x3e605c9b	0.21910326
199	0xbd09169a	-0.03346882
200	0xbeaa3954	-0.33246863
201	0x3e0106d2	0.12600258
202	0x3e60ca50	0.21952176
203	0xbd212e70	-0.039350927
204	0xbda41975	-0.08012668
205	0x3d9fcbb7	0.078025274
206	0xbdf08d99	-0.117457576
207	0xbe2bec6c	-0.16789407
208	0xbe2ac935	-0.16678317
209	0xbdfe870f	-0.12428104
210	0xbd715f2f	-0.058928665
211	0xbd9cb030	-0.076507926
212	0xbe7792d9	-0.24177112
213	0xbe1905a1	-0.14943554
214	0x3e301c8d	0.17198391
215	0xbde0a782	-0.109694496
216	0x3e2088a8	0.1567713
217	0xbdc2b9b9	-0.0950808
218	0x3d9169ed	0.07100282
219	0xbe74960e	-0.23885366
220	0xbe0188e8	-0.12649882
221	0xbe2779ea	-0.163551
222	0xbe508d88	-0.2036649
223	0xbe0c2bc1	-0.13688566
224	0x3d24df79	0.040252183
225	0xbc8f014f	-0.017456679
226	0xbd9f92f8	-0.07791704
227	0x3d203eda	0.03912244
228	0x3d56e1fc	0.05246161
229	0xbdbf24f0	-0.09333217
230	0x3e160c32	0.1465309
231	0xbdcf9f6f	-0.101378314
232	0xbe146330	-0.14490962
233	0xbd958c85	-0.073021926
234	0x3c442f2c	0.011974137
235	0x3c118337	0.008881382
236	0x3d774717	0.06037053
237	0x3b84c7f8	0.0040521584
238	0xbe8ef5d9	-0.27921942
239	0x3e4c15ca	0.19930187
240	0xbe070cc4	-0.13188463
241	0x3d860af8	0.06545061
242	0xbd9be35b	-0.07611724
243	0x3dae901f	0.08523583
244	0xbe8affc5	-0.27148262
245	0x3dd29d1e	0.10283874
246	0xbdd4dbd9	-0.10393495
247	0xbe84cb9f	-0.259366
248	0xbe41b86e	-0.1891801
249	0xbeadf1c6	-0.3397352
250	0x3e08db44	0.13364893
251	0xbe46e564	-0.19423443
252	0xbe25f209	-0.1620561
253	0xbe100ba3	-0.14066939
254	0x3e3af417	0.18257175
255	0x3c6fe3a1	0.014641673

network_body._body_endoder.seq_layers.2.bias f4 [128]
0	0xbd28d213	-0.041215967
1	0xbd02553d	-0.03181957
2	0xbdb300c8	-0.087403834
3	0xbd764559	-0.06012473
4	0xbe80e1f7	-0.25172397
5	0xbe1c90a4	-0.15289551
6	0xbdb4ebc6	-0.08834033
7	0xbe971e0c	-0.2951511
8	0xbe10b80d	-0.1413271
9	0xbddd2f92	-0.10800089
10	0xbdc5235f	-0.09625887
11	0xbd99bb0e	-0.07506381
12	0xbdc612a0	-0.09671521
13	0xbe8d8a7c	-0.27644718
14	0xbdc5a17c	-0.09649941
15	0xbe29d2fc	-0.1658439
16	0xbea370f9	-0.3192213
17	0xb9714f55	-0.00023013105
18	0x3c95d9aa	0.018292267
19	0xbda33c8f	-0.07970535
20	0xbe471794	-0.19442588
21	0xbd5effae	-0.054443054
22	0xbc0db8e0	-0.008650035
23	0xbe26b73c	-0.16280836
24	0xbdc96e88	-0.09835535
25	0xbe17fc02	-0.14842227
26	0xbe38edec	-0.1805951
27	0xbdb9afd4	-0.0906674
28	0xbe8d2d85	-0.2757379
29	0x3cb1a604	0.021685608
30	0xbc615aeb	-0.013754587
31	0xbe248c46	-0.16069135
32	0xbe2b3785	-0.16720398
33	0xbe04e4d1	-0.12977912
34	0xbe304190	-0.1721251
35	0x3bfc73fa	0.007704255
36	0xbe74330d	-0.238476
37	0xbdb7a9ae	-0.08967911
38	0xbe37f259	-0.17963542
39	0xbdefbfeb	-0.11706527
40	0xbe5483da	-0.20753422
41	0xbdb920bd	-0.090394475
42	0xbe502689	-0.203272
43	0xbdaee126	-0.085390374
44	0xbea83b6e	-0.3285784
45	0xbdf2405e	-0.11828683
46	0xbc275096	-0.010212084
47	0x3d6d340e	0.05791097
48	0xbde0b801	-0.10972596
49	0xbd7f9d7f	-0.06240606
50	0xbdeb50ce	-0.11490022
51	0xbdbd2e20	-0.09237313
52	0x3dfc609b	0.123231135
53	0xbe314bf0	-0.17314124
54	0xbdaa282d	-0.08308444
55	0xbe2ff27f	-0.17182349
56	0xbe647c72	-0.22313097
57	0xbe34e18d	-0.17664166
58	0xbdeec18e	-0.116580114
59	0xbe4d703d	-0.20062347
60	0xbd9b7f21	-0.07592607
61	0xbb2e45bb	-0.0026591856
62	0xbdfff43d	-0.12497757
63	0xbdef35e9	-0.116802044
64	0xbe11d799	-0.142424
65	0xbc60b9c5	-0.013716166
66	0xbe261a52	-0.16220978
67	0xbe14d539	-0.14534463
68	0xbdfa98f1	-0.122362025
69	0xbdd932b9	-0.10605378
70	0xbd2c5347	-0.042071607
71	0xbd23f6a2	-0.04003013
72	0xbe2aaba8	-0.16667044
73	0xbd36796f	-0.0445494
74	0xbdc809b5	-0.097674765
75	0xbd52fbe3	-0.05150975
76	0xbdde537d	-0.10855768
77	0xbd86ecca	-0.06588133
78	0xbbe90c9a	-0.007112098
79	0xbdb1be72	-0.08678903
80	0xbd985e21	-0.07439829
81	0xbe784c9b	-0.24247973
82	0xbe15c124	-0.14624459
83	0xbc73355b	-0.014844264
84	0xbe87dd8e	-0.2653622
85	0xbdfb94a0	-0.12284207
86	0xbe4a7488	-0.19771016
87	0xbcb4005e	-0.021972831
88	0xbd30b522	-0.04314149
89	0xbe425611	-0.18978144
90	0xbd99b1be	-0.07504605
91	0xbe3af081	-0.18255807
92	0x3ca58056	0.020202797
93	0xbda06897	-0.07832449
94	0xbe5f68e0	-0.2181735
95	0xbdd984f5	-0.10621063
96	0xbe10be27	-0.14135037
97	0xbd99fc6c	-0.07518849
98	0xbe2b0b46	-0.16703519
99	0xbdc3f768	-0.09568673
100	0xbe9921be	-0.29908556
101	0xbdb8b4ea	-0.090188816
102	0xbe4b7038	-0.19867027
103	0xbe4d01f0	-0.2002027
104	0xbe41a857	-0.18911873
105	0xbe47ca53	-0.19510774
106	0xbe1c6f71	-0.15276887
107	0xbd82fec9	-0.06396253
108	0xbd3197e3	-0.04335774
109	0xbe06a5bd	-0.13149162
110	0xbdd2c139	-0.102907605
111	0xbd908c0f	-0.07057964
112	0xbda383c1	-0.079841144
113	0xbd51b894	-0.051201418
114	0xbe07e4c5	-0.13270862
115	0xbe8a64c7	-0.27030012
116	0xbe0d81b7	-0.13819014
117	0xbd8a03ce	-0.06739007
118	0xbe7f7bf1	-0.24949624
119	0xbdb0d0ee	-0.086336
120	0xbdc401a7	-0.09570628
121	0x3ca10f26	0.019660544
122	0xbda0be86	-0.078488395
123	0xbdac645e	-0.08417581
124	0xbe1646e4	-0.1467548
125	0xbbbf9c85	-0.005847516
126	0xbda15702	-0.078779235
127	0xbe061681	-0.13094522

action_model._continuous_distribution.log_sigma f4 [1, 12]
0	0xbe84c87b	-0.25934204
1	0xbe6a11fd	-0.22858424
2	0xbeb15fa9	-0.34643295
3	0xbeda7a32	-0.42671353
4	0xbed4eca2	-0.41586787
5	0xbe97c5dd	-0.29643145
6	0xbebeecc3	-0.3729001
7	0xbe8ddebd	-0.27708998
8	0xbe1111fd	-0.14167018
9	0xbe8a437e	-0.27004617
10	0xbeaffba7	-0.34371683
11	0xbe0e5ed6	-0.13903365

action_model._continuous_distribution.mu.weight f4 [12, 128]
0	0xbc91077e	-0.017703768
1	0x3d532d91	0.051557127
2	0xbd0693ec	-0.032855913
3	0xbdd56496	-0.10419576
4	0x3e0fd599	0.14046325
5	0x3d530a0b	0.05152325
6	0x3e02c4e8	0.12770426
7	0x3e624c34	0.22099382
8	0xbc0aa8e4	-0.008463118
9	0x3d93e8cc	0.07222137
10	0xbd7d7e9a	-0.061888315
11	0x3d0f5215	0.03499039
12	0x3cbe0cf8	0.023199543
13	0xbdd4feff	-0.10400199
14	0x3d56ac76	0.052410565
15	0x3d022df4	0.031782106
16	0xbc82dad3	-0.015973484
17	0xbc0e8d4c	-0.00870068
18	0xbd94d913	-0.07267966
19	0xbd3bcb5c	-0.045848235
20	0x3dbc1a94	0.09184757
21	0x3cfcc721	0.03085667
22	0xbd42bda0	-0.04754412
23	0xbc82a648	-0.01594843
24	0xbc1d70e1	-0.009609432
25	0xbdbc0d6c	-0.091822475
26	0xbd694cd0	-0.05695802
27	0xbcc9a914	-0.024616756
28	0x3dbf3a30	0.0933727
29	0x3dbaa118	0.091127574
30	0xbe0cc2c2	-0.13746169
31	0x3d109297	0.03529605
32	0x3dda7bc8	0.10668141
33	0xbce34879	-0.027744519
34	0xbdd12a5c	-0.102131575
35	0x3d8eeb89	0.069785185
36	0xbd244922	-0.040108807
37	0x3cbebe88	0.023284212
38	0x3d2b723a	0.04185698
39	0x3cac55c1	0.021036984
40	0x3d9cd177	0.0765714
41	0xbd43d7b3	-0.04781313
42	0x3d1ec5fc	0.03876303
43	0x3d7d4a36	0.06183835
44	0x3e93d9d5	0.2887713
45	0xbdd949f2	-0.10609807
46	0x3bdbbfd3	0.006706217
47	0xbce6612b	-0.028122505
48	0x3b24b566	0.0025132536
49	0x3b94ad87	0.0045372876
50	0x3c893dad	0.016753042
51	0xbc6396ab	-0.0138909025
52	0x3ba26875	0.0049563
53	0xbcb5b600	-0.02218151
54	0xbb15570e	-0.0022787484
55	0xbd603186	-0.05473473
56	0xbde9a67a	-0.11408706
57	0x3d988e83	0.07449057
58	0xbb9ab25b	-0.0047209687
59	0xba7f0fd7	-0.00097298383
60	0xbd8a269e	-0.06745647
61	0x3df9a54d	0.12189732
62	0x3ddbc19a	0.10730286
63	0x3b6b2dfb	0.003588556
64	0xbdf53baa	-0.11974271
65	0x3d72349a	0.059132196
66	0x3c3eb0a4	0.011638794
67	0xbe36ec2a	-0.17863527
68	0x3c940b3b	0.018071761
69	0xbd831a05	-0.06401447
70	0x3da59266	0.08084564
71	0xbde1e64f	-0.11030256
72	0xbcf07f87	-0.029357685
73	0xbbeaf2f5	-0.007170076
74	0xbc0a5447	-0.008442945
75	0xbc807e39	-0.015685188
76	0x3d19a547	0.037511136
77	0xbcb34b44	-0.021886475
78	0xbdcef382	-0.10105039
79	0x3d7a4545	0.061101217
80	0xbd866a51	-0.06563247
81	0x3bf4fae9	0.0074762
82	0x3b92fbba	0.0044855746
83	0x3cfc8ad5	0.030827919
84	0xbdf1bd9c	-0.11803743
85	0x3db04c48	0.086082995
86	0x3dedf8b3	0.11619701
87	0xbcfeeb0a	-0.031117935
88	0xbd588b21	-0.05286706
89	0xbb18e616	-0.0023330501
90	0x3bcee129	0.0063134623
91	0xbccaa711	-0.024737867
92	0x3d20e112	0.039277144
93	0xbd9b9583	-0.075968765
94	0x3d275605	0.04085352
95	0xbdb06b55	-0.08614222
96	0x3c446e9a	0.01198926
97	0x3c29e323	0.010369095
98	0x3dc9202f	0.09820592
99	0xbdbf4b94	-0.09340587
100	0x3c1aeb5a	0.009455526
101	0x3d85112e	0.064974174
102	0x3d905eda	0.070493415
103	0x3d54a9a2	0.051919587
104	0xbdb7a856	-0.089676544
105	0xbe556369	-0.20838703
106	0x3ceb0bde	0.028692182
107	0xbda4c71a	-0.08045788
108	0xbda7303a	-0.08163495
109	0xbc69e931	-0.014276789
110	0xbcb20fe5	-0.021736095
111	0xbdba4282	-0.090947166
112	0xbb5bbe40	-0.0033530146
113	0x3d05c615	0.03265961
114	0x3bfe5aeb	0.007762303
115	0x3d9bfd85	0.076167144
116	0x3d6385e7	0.05554762
117	0x3dba2906	0.09089856
118	0x3e2a8cdb	0.16655295
119	0xbc28fba0	-0.010313898
120	0xbb2c3a9a	-0.0026280046
121	0xbcbe310e	-0.02321675
122	0xbd8cfc3f	-0.068840496
123	0xbcbdfce1	-0.023191871
124	0xbd791aa6	-0.06081643
125	0x3d769d0f	0.060208376
126	0x3c33f5c5	0.010983889
127	0xbcae6aa9	-0.021291094
128	0x3bd6f17e	0.00655955
129	0x3d20a68f	0.039221343
130	0x3d71edc8	0.059064656
131	0xbe48c57b	-0.19606583
132	0xbdc6a19c	-0.09698793
133	0x3c93d866	0.018047523
134	0xbd3bb4fe	-0.045826904
135	0xbcd52918	-0.026020572
136	0xbe3d6d8a	-0.18498817
137	0x3e159aa4	0.14609772
138	0xbcf9d4ec	-0.030497037
139	0x3c436683	0.011926296
140	0xbb953bba	-0.004554239
141	0xbd11883f	-0.035530325
142	0xbd7dbe60	-0.061949134
143	0x3ce3bae8	0.027799085
144	0xbc6ec707	-0.014573819
145	0x3c9eafd7	0.019370956
146	0xbdf7f616	-0.12107484
147	0x3d329350	0.04359752
148	0x3dd88e68	0.10574037
149	0xbb9bb3a6	-0.0047516404
150	0xbd0694a4	-0.0328566
151	0x3cd14d1a	0.02554946
152	0xbe107be7	-0.14109765
153	0x3db58a10	0.08864224
154	0x3d901d1b	0.070368014
155	0x3c0acf35	0.008472254
156	0x3cbde11e	0.023178633
157	0xbe2c1f50	-0.1680882
158	0x3d6235eb	0.0552272
159	0x3be66714	0.007031331
160	0x3e615136	0.22003636
161	0x3cc05ad9	0.02348082
162	0x3dbd47c9	0.092422076
163	0xbe00f232	-0.1259239
164	0x3ddb8fad	0.10720763
165	0x3cad9c48	0.021192685
166	0xbc00f013	-0.007869738
167	0xbd10dd3a	-0.035367228
168	0x3d185e91	0.03719956
169	0x3d8de837	0.06929057
170	0x3dbafadd	0.091298796
171	0x3ccaa59b	0.02473717
172	0x3c90d38b	0.017678997
173	0xbd415431	-0.04719943
174	0x3c6dd50c	0.014516126
175	0x3c42412b	0.011856358
176	0x3d1d7ece	0.03845101
177	0x3e4a9644	0.19783884
178	0x3cea1d9a	0.028578568
179	0x3dd590d3	0.10428014
180	0xbbb96cd4	-0.0056587253
181	0xbe210560	-0.15724707
182	0xbcca43f5	-0.024690608
183	0xbbd604c0	-0.006531328
184	0x3d0a7b7b	0.033809166
185	0x3d67a445	0.056553144
186	0xbb5e20dc	-0.0033894097
187	0x3c8aff49	0.016967433
188	0x3e33f742	0.1757479
189	0xbdc82e36	-0.09774439
190	0x3a1ad47b	0.0005906296
191	0xbd47b61d	-0.04875766
192	0x3dadeced	0.08492456
193	0xbdad7761	-0.08470035
194	0x3d807d83	0.062739395
195	0x3e1f910c	0.15582675
196	0x3dd2fb11	0.10301793
197	0xbd5a0575	-0.05322786
198	0x3d9946bf	0.07484197
199	0x3d083b41	0.033259634
200	0xbda0d361	-0.07852817
201	0xbde28dba	-0.110621884
202	0xbdb0e29d	-0.08636973
203	0xbd00079b	-0.031257253
204	0xbb38a6c0	-0.0028175563
205	0x3bd5cd83	0.006524743
206	0x3e224f44	0.1585055
207	0x3de79600	0.11307907
208	0x3dcb9da6	0.099421784
209	0x3db4744b	0.088112436
210	0xbdb9a6ad	-0.09064994
211	0xbcbc77d2	-0.023006354
212	0xbe0db561	-0.13838722
213	0x3d240346	0.040042184
214	0x3d69ab2d	0.05704801
215	0x3cdbf904	0.026852138
216	0x3bb6d527	0.005579609
217	0x3c06c395	0.008225341
218	0xbda7a4c5	-0.08185724
219	0x3d9d5418	0.07682055
220	0x3d59ae54	0.053144768
221	0x3e272b13	0.16325025
222	0x3da07c54	0.07836214
223	0x3dadcea5	0.0848668
224	0xbc98c2bc	-0.018647544
225	0x3c9be502	0.019030098
226	0x3d829d39	0.06377644
227	0xbb83c5be	-0.0040213754
228	0x3db06e6a	0.0861481
229	0xbdb5af10	-0.08871281
230	0x3e73e68d	0.23818417
231	0x3d852bc1	0.06502486
232	0xbdb5e9c2	-0.088824764
233	0x3da55d52	0.0807444
234	0xbcb245f5	-0.021761874
235	0xba8b12ce	-0.0010610463
236	0xbd85e4ce	-0.06537782
237	0xbc71e7b9	-0.01476472
238	0xbde95b2e	-0.11394344
239	0xbe04eb16	-0.12980303
240	0x3a72205c	0.00092363893
241	0x3ceccb6c	0.028905593
242	0xbd05dc49	-0.032680783
243	0x3e0073bd	0.1254415
244	0x3dff58d3	0.12468114
245	0x3e36019e	0.17774054
246	0x3d8cdc68	0.06877977
247	0xbddd2e31	-0.10799826
248	0xbd4dbc0e	-0.05022817
249	0xbd8ae9d3	-0.0678288
250	0xbe02fa63	-0.12790827
251	0x3d651982	0.05593253
252	0xbd2b10ec	-0.041764185
253	0xbbd6e334	-0.0065578464
254	0xbc4b495d	-0.012407628
255	0x3d5507cc	0.05200939

action_model._continuous_distribution.mu.bias f4 [12]
0	0x3b04e6a5	0.0020279076
1	0xbe1fdf80	-0.15612602
2	0xbdebbdd5	-0.11510817
3	0x3c385874	0.011251558
4	0xbe2216a6	-0.15828952
5	0x3c8eaf91	0.017417701
6	0x3e38ed0d	0.18059178
7	0xbd7a7f37	-0.061156478
8	0x3d815b95	0.06316296
9	0xbd77425f	-0.06036603
10	0xbd401136	-0.046891414
11	0x3d9b10b5	0.07571546

onnx::Div_51 f4 [18]
0	0x3a237d36	0.00062366144
1	0x3ee45a6f	0.44600245
2	0x3a237d36	0.00062366144
3	0x3ea25f06	0.31713122
4	0x3a237d36	0.00062366144
5	0x3a237d36	0.00062366144
6	0x3a237d36	0.00062366144
7	0x3a237d36	0.00062366144
8	0x3e6b6639	0.22988214
9	0x3df4ad7f	0.11947154
10	0x3e17b357	0.14814506
11	0x3de8ed75	0.11373416
12	0x3ec98cfa	0.3936537
13	0x3c9295e4	0.017893739
14	0x3deb929c	0.11502573
15	0x3ebde89f	0.37091538
16	0x3e56314a	0.2091724
17	0x3e48d622	0.19612935
