NICO-master/NICO_articulation_body/Assets/Models/NICO.onnx (onnx, 79652 bytes, 9 tensors)

network_body.observation_encoder.processors.0.normalizer.running_mean f4 [9]
000000 b4 49 81 3f 44 3e 55 bf 23 88 6f be 7f a7 e3 3e
       1.0100617 -0.83298135 -0.23391776 0.44463727
000010 a4 cc 03 bf c5 46 ed 3d 20 4a 80 be e1 3b 57 3c
       -0.5148413 0.11585764 -0.25056553 0.013136835
000020 ee 3e 3e bd
       -0.046446733

network_body._body_endoder.seq_layers.0.weight f4 [128, 9]
000000 b4 03 86 3e d8 2c a9 3e ed ca 65 3e d3 29 9b bd
       0.261747 0.33042026 0.22440691 -0.07576337
000010 5b 04 61 be 18 b3 36 3e 06 bf 6c be 81 d7 bd be
       -0.21974318 0.17841756 -0.23119745 -0.3707848
000020 d6 bb 83 3e 68 f5 24 3f de 1f 0f 3e 87 12 1d bf
       0.25729245 0.6443696 0.13977 -0.61356395
000030 ef a5 3f 3e f7 d8 ec be f1 ba 81 3d bb 60 9b be
       0.18715642 -0.4625928 0.06334484 -0.30347237
000040 46 d9 45 3f 52 41 f3 3e 70 ab f5 3e 7b 26 3e be
       0.7728466 0.47510773 0.4798236 -0.18569367
000050 93 4e e1 bd 25 7c 2c 3d 30 52 eb 3d 98 59 38 3d
       -0.11001315 0.04211058 0.114902854 0.04500732
000060 c6 29 54 bf a1 67 d6 3e e4 7e a7 bf f5 2e 55 bd
       -0.8287624 0.41875938 -1.3085599 -0.052046735
000070 92 6d f9 3e 34 71 21 3e 06 1d 8c be 6e 80 3f 3f
       0.48716408 0.1576584 -0.27365893 0.74805343
000080 97 9b 8a 3f ac 02 84 bf 93 a6 96 3e f0 36 ca be
       1.0828732 -1.0313315 0.2942396 -0.3949504
000090 e2 4d 67 3d da 11 34 3e da 24 d9 be 4c a8 47 3e
       0.05647076 0.17584935 -0.42410928 0.19497794
0000a0 af c4 32 bd 2e 45 a6 be 28 28 56 3f 58 81 e5 bd
       -0.043644603 -0.32474655 0.83655024 -0.11206311
0000b0 c4 b9 42 be bf 76 3d 3e d5 db 06 bf 47 eb 64 3e
       -0.19016176 0.1850233 -0.5267919 0.22355376
0000c0 e8 d8 c9 3e 3e b1 f4 3d 23 c0 db 3d 7a fd 60 be
       0.394233 0.11947869 0.107300065 -0.21971694
0000d0 c6 6c 64 bf e4 1c 12 3f 01 d9 96 be 98 d5 c2 bc
       -0.89228475 0.57075334 -0.29462436 -0.02378349
0000e0 98 c6 b6 bd d7 fc 2c bf f9 06 27 bd 22 9e 85 bd
       -0.089245975 -0.67573303 -0.040778134 -0.06524302
0000f0 07 42 54 3c 07 21 e4 3e 2f a2 ef be 1b 8d 13 bf
       0.012955195 0.44556448 -0.46803424 -0.57637185
000100 11 bd 44 bf 54 d9 2c bf 4e 62 71 3d f0 c4 0a bf
       -0.7685099 -0.67519116 0.05893164 -0.5420675
000110 eb 29 80 bd 06 df aa 3c ab 34 4a bf 3d c3 ca be
       -0.06257995 0.020858299 -0.78986615 -0.3960208
000120 f5 25 bf 3e 06 95 19 bf 3c 5a ad 3e 0c 72 59 bf
       0.37333646 -0.59993017 0.33857906 -0.84939647
000130 f7 ee 88 be 83 4a b7 3d ae f5 37 3f 34 26 07 be
       -0.26744816 0.08949759 0.7185925 -0.13198167
000140 9b 62 c8 3d d8 37 84 be b4 fc 49 3f 17 a5 d2 be
       0.097844325 -0.25823855 0.7890122 -0.4114158
000150 f1 32 0a be 07 68 07 3e 53 de da bc 8a da 9b 3e
       -0.13495995 0.13223277 -0.02671734 0.3044017
000160 18 2a 43 3f d7 ce 29 3f 0b fa 10 bf 23 73 9b 3e
       0.76236105 0.6633124 -0.56631535 0.3036128
000170 84 13 79 be e6 47 93 bc 59 04 a6 be df 73 ea 3d
       -0.24323851 -0.01797862 -0.32425192 0.11447882
000180 c1 e9 16 bf c4 c2 7f 3e 30 3a b6 3e cb 9c 63 3e
       -0.5895043 0.24976641 0.3559127 0.2222778
000190 25 1e bb 3c 74 10 8c be 62 24 1e be 84 38 09 be
       0.022841522 -0.27356303 -0.15443566 -0.13400465
0001a0 d7 cd 21 3d 72 79 7b 3e 9c d1 b8 3e a0 ed 38 3e
       0.039502945 0.24558046 0.3609742 0.18059397
0001b0 0a 50 17 bc a4 46 af be 31 4b 1d bd 63 24 d4 be
       -0.009235391 -0.34233582 -0.038401786 -0.4143401
0001c0 a3 68 87 3e 09 48 a1 3e 56 40 8c 3f 1a 62 e9 3d
       0.2644702 0.3150027 1.0957134 0.113956645
0001d0 58 3b 4b bd b5 3f e7 3e b2 70 82 be dc e7 e5 be
       -0.04961714 0.45165792 -0.25476605 -0.44903457
0001e0 7d fa b4 3e f2 67 31 be 76 6a ef 3e de 9c 36 3f
       0.35347357 -0.17324808 0.4676091 0.7133311
0001f0 21 18 08 bf 31 8b 42 be 62 bf 82 3d bc c2 4a be
       -0.5316182 -0.1899841 0.063841596 -0.19800848
000200 8d 14 df be 50 96 cb be 81 9d 04 be b4 9d 43 3f
       -0.43570367 -0.39763117 -0.12950708 0.7641251
000210 c0 94 8d be 8e 48 1e be 23 60 4a be b6 7d 59 3d
       -0.2765255 -0.15457365 -0.19763236 0.053098403
000220 71 00 98 be 18 52 af 3d ff 48 d2 3d 9d dd d2 bd
       -0.29687837 0.0856058 0.10267829 -0.10296176
000230 da 7c da bd 72 63 6d 3f ef 6e b5 be 32 08 01 3f
       -0.10668345 0.92729867 -0.35436198 0.5040313
000240 31 f0 dc 3d 4d aa 1a 3e a8 1c bc be 05 fc 83 3e
       0.107880004 0.15104027 -0.36740613 0.25778213
000250 72 4a 41 bd 34 66 73 be 11 41 ef bd 1d 02 f6 3d
       -0.047190137 -0.23769456 -0.11682332 0.12012122
000260 51 f7 08 be ea 4f a0 be 02 98 9d 3e 65 c2 66 3f
       -0.13375594 -0.3131097 0.30780035 0.9014037
000270 12 b1 ad bd 00 99 e0 3e 0f ac d7 3c 39 16 65 be
       -0.08481039 0.4386673 0.026327161 -0.22371759
000280 91 91 f6 be 20 20 8a be 42 c5 5d 3e 21 79 c4 3c
       -0.48157933 -0.26977634 0.21657279 0.02398354
000290 7e cf 47 3e 46 24 99 3e 17 3c 24 3e cd 08 6d be
       0.19512746 0.29910487 0.16038547 -0.23147888
0002a0 fc ce d9 be ef 3b f6 3d 9d fc a2 3e 81 2f b0 be
       -0.4254073 0.1202315 0.31833354 -0.34411243
0002b0 04 7c 7b bd ea e1 9b be 5b ee bc 3d 2d 82 81 3e
       -0.061397567 -0.30445796 0.0922515 0.2529463
0002c0 3d 9e 7b bd f7 62 70 3f c1 20 56 be f8 62 21 3f
       -0.061430205 0.9390101 -0.20910932 0.6304164
0002d0 1f 75 e0 3c 51 14 1e 3f 30 b7 b4 bd f3 93 a2 3e
       0.027399598 0.6174975 -0.08824003 0.317535
0002e0 a8 de 07 bf 2c 4a f9 bd dc 14 f8 be ec e5 05 3e
       -0.5307412 -0.1217235 -0.48453414 0.1307599
0002f0 d4 48 74 3e 14 bf 68 be bf 77 1d 3f 1b 1d a9 3d
       0.23855907 -0.2272914 0.61510843 0.082575046
000300 2c d0 9d 3d 5a 86 75 bf 86 04 a8 3c 75 c8 b3 be
       0.07705721 -0.9590813 0.02050997 -0.35113874
000310 99 f7 db 3e 15 21 09 bf 63 32 0e 3d 08 e7 12 be
       0.4296234 -0.53566104 0.03471602 -0.14345944
000320 37 54 13 bf 40 dd c9 be 0c f9 93 3c 9e e1 09 3f
       -0.57550377 -0.39426613 0.01806309 0.5385989
000330 57 41 ff 3e 49 d9 69 3e 84 93 30 be 75 a3 b5 be
       0.49854538 0.22836794 -0.17243773 -0.3547627
000340 e1 f5 6c bf 49 48 81 3f 9c ca 99 3e 0c 37 c8 3e
       -0.9256268 1.0100185 0.3003739 0.39104497
000350 aa ec 80 be 6b 2e 46 be 55 dd fb 3e ad 62 e1 be
       -0.2518056 -0.19353645 0.491923 -0.44020596
000360 a3 99 3b be c1 cc 32 be 90 2e 66 bc 8b f8 85 3e
       -0.18320327 -0.1746092 -0.014049187 0.26166186
000370 34 78 62 be b4 0a 17 be 02 ab 8c 3e be 61 ce be
       -0.22116166 -0.14750177 0.2747422 -0.40308946
000380 c9 2b 8c be 65 ed 8c 3e 8d c1 50 be 38 26 73 bf
       -0.27377155 0.27524868 -0.20386334 -0.9498019
000390 e9 10 46 be 69 86 44 bc 2f ee bd be cc 9c 92 bd
       -0.19342388 -0.0119949365 -0.37095782 -0.07158813
0003a0 d4 9f 26 3d 02 e6 0f 3e 95 c2 aa be 52 90 10 be
       0.040679768 0.14052585 -0.3335158 -0.14117554
0003b0 54 11 82 3f 10 8c 90 bf fe f4 ca bd 36 91 61 be
       1.0161538 -1.1292744 -0.0991001 -0.2202805
0003c0 6f 70 23 bf 10 ce d8 3d 05 fc 00 bf c4 1f f8 3d
       -0.63843435 0.10586178 -0.5038455 0.12115434
0003d0 ce 85 0b 3e 87 cc 00 3e bd 19 2f 3d db 3c eb 3d
       0.13625261 0.12578021 0.042749155 0.11486217
0003e0 3f 2e 5f be 42 48 87 be 53 d2 f5 bd f2 ec 6b 3d
       -0.21794985 -0.26422316 -0.12003007 0.057599016
0003f0 6e 66 f0 3c 49 2a 07 3f 91 8f cf 3d f8 85 81 bf
       0.029345717 0.527989 0.10134805 -1.0119009

network_body._body_endoder.seq_layers.0.bias f4 [128]
000000 f6 f9 cf bc 0e 24 4c be fa 09 f6 be 87 69 0f 3e
       -0.025387745 -0.19935629 -0.48054487 0.14005099
000010 fd 55 53 be f1 b9 e5 3d 0f 12 5f bc 9e 21 fe bc
       -0.2063827 0.11217106 -0.013615145 -0.03102189
000020 2d 8f 9e be 46 37 64 be 6a f6 16 bd 17 b4 f6 be
       -0.3096861 -0.2228671 -0.036856093 -0.48184273
000030 3d 31 67 be 19 4c 8e be b9 4e 77 3b 92 09 9e be
       -0.22577377 -0.27792433 0.0037736131 -0.30866677
000040 8a 5d 2e be ed 01 ed be 92 9c 04 bd 3b b3 3d be
       -0.1702787 -0.46290532 -0.03237588 -0.18525402
000050 9d 51 3c 3e 29 43 a9 3d 05 2e 70 be 0f 15 d1 3d
       0.18390508 0.08264763 -0.23455055 0.10209095
000060 d2 a2 f5 3c a2 37 a3 be 79 45 8e 3c fe 6a c5 3d
       0.029984865 -0.31878382 0.017367112 0.09639548
000070 22 44 13 be 14 7e ad bd 19 8a da 3d 40 4e 5c be
       -0.1438146 -0.08471313 0.10670871 -0.21514225
000080 7b 0b 2d be 55 f4 a9 3e ba 6e ce be d2 e3 96 3e
       -0.1689891 0.33194223 -0.40318853 0.29470688
000090 2c 30 ac be b6 16 ad bd 85 29 e7 3c a2 64 45 3e
       -0.33630502 -0.084515974 0.02821804 0.1927667
0000a0 46 60 9a 3d 49 85 47 3e e1 e1 90 3d 71 bf 61 be
       0.07537894 0.19484438 0.07074333 -0.22045685
0000b0 e5 61 ca 3c b5 40 ac be 93 ee cc 3d cb d3 3e be
       0.024704883 -0.33643118 0.10006442 -0.1863548
0000c0 fd 6c 91 be 00 b3 98 bc f8 d8 22 3b f8 a0 ab be
       -0.28403464 -0.018640041 0.0024848562 -0.33521247
0000d0 d0 5a 7e be f6 dc d4 bd 3a 43 35 be 31 0b 03 be
       -0.2483933 -0.103937075 -0.17701426 -0.12797238
0000e0 09 91 6b bd 17 d1 05 bd c7 bf d5 3d f2 66 01 3e
       -0.057511363 -0.032670107 0.10436969 0.12636927
0000f0 7d 88 7a 3b c9 f6 85 be 3d 70 2a be af 5e fd bd
       0.0038228326 -0.26164845 -0.16644378 -0.12371575
000100 0e 65 a8 bd 96 d8 f2 be 75 b6 80 be bd 6d 8b 3e
       -0.082224 -0.47430867 -0.25139204 0.2723216
000110 35 74 fd bc 1b d9 5a 3e ae 19 8b 3c eb a1 42 be
       -0.0309392 0.21371882 0.016980018 -0.1900708
000120 1c bf 80 3d 97 1a 8f be 1e 60 84 be 8c 11 a3 3d
       0.06286451 -0.27949974 -0.25854582 0.07962331
000130 75 a8 47 be 2b 03 13 3c 6a 53 30 be 8c 85 28 be
       -0.19497855 0.008972923 -0.1721932 -0.16457194
000140 93 cc 8f be 54 2e 6a be 5b 3e e9 bd a4 0e 8d 3d
       -0.28085765 -0.22869235 -0.113888465 0.06887558
000150 a7 1a 58 be 99 1a 28 be 56 22 bc bd df d1 22 be
       -0.21103917 -0.16416396 -0.091862366 -0.15900372
000160 aa 78 8c be 11 6a 8d be 1d 5a 06 bf 1f f1 21 3e
       -0.2743581 -0.27619985 -0.5248125 0.15814637
000170 9b ca cd be 4a d3 1b bd 9d ea 03 3e 73 a0 7b 3e
       -0.40193638 -0.038043298 0.12882467 0.24572925
000180 6f de ac 3c 28 32 29 3e d6 3e 22 3d 1a 5b 11 be
       0.021102158 0.1652304 0.039610706 -0.14194909
000190 3e ab f2 3d 20 8e ac 3d c3 51 2c 3e 80 89 68 be
       0.11849068 0.08425546 0.16828065 -0.22708702
0001a0 e2 3c 29 bd a9 f2 2c be b8 6a c9 be 0b bf be be
       -0.041317828 -0.16889443 -0.39339232 -0.3725513
0001b0 16 6a de bb 35 97 1b 3e a4 fc 57 3e a2 68 5f be
       -0.006787549 0.151944 0.21092469 -0.21817258
0001c0 81 dc a6 be c6 51 aa be 78 8a 94 bd e6 23 26 be
       -0.32590106 -0.33265513 -0.07252973 -0.16224632
0001d0 d0 5b ab be a3 2b b7 be cd e1 a4 3d ce a0 6b be
       -0.33468485 -0.3577548 0.080508806 -0.23010561
0001e0 ca 30 24 be e3 d5 a9 be 23 98 21 be 77 7d 82 be
       -0.16034237 -0.33170995 -0.15780692 -0.25486347
0001f0 5d 1b de bd 6f 2d de bc 61 8b 54 be e3 5b 2f be
       -0.10845063 -0.027121274 -0.20756294 -0.17124896

network_body._body_endoder.seq_layers.2.weight f4 [128, 128]
000000 35 7e 04 3d 8f 02 ab 3d ec 55 c4 bd 2f be 2b bb
       0.032346923 0.083500974 -0.09586701 -0.0026205888
000010 09 c7 1a bc 74 26 5f bd 08 eb ff bb 2a bb 09 bc
       -0.009446868 -0.05448003 -0.0078100003 -0.00840644
000020 32 ed a0 3b 84 40 84 3d ef bb 4e bd c0 2e 37 bd
       0.0049110884 0.06457618 -0.050472196 -0.04472232
000030 41 6b 90 bb 54 e1 82 3d 8f be b5 3c d5 30 0a 3d
       -0.004407317 0.06390634 0.022185592 0.033737976
000040 26 0f 1b 3d 94 22 66 3d ea 18 53 bd be 0d ea 3d
       0.037856244 0.05618532 -0.05153743 0.11428402
000050 1c 19 9c 3d 05 33 89 bb c3 77 44 bc d2 d5 de 3d
       0.07621977 -0.00418699 -0.011991444 0.10880627
000060 e5 37 29 3e ce b6 4e bd 18 81 64 bd a4 5d e7 bd
       0.16525228 -0.050467305 -0.055787176 -0.112971574
000070 c0 cf 21 3d 25 db d4 3d f5 07 bf bc 9d df c5 3b
       0.039504766 0.10393361 -0.023319224 0.0060386197
000080 a5 8c 01 3d 3a 53 26 3e db 3c 00 3d e3 6e eb 3c
       0.03162827 0.16242686 0.031308036 0.028739398
000090 03 0f 78 bc 82 00 a5 bd 08 b0 a2 bd 6a f0 24 bd
       -0.015140298 -0.080567375 -0.079437315 -0.04026834
0000a0 2b 44 c8 bd ca 47 89 bc 19 46 02 bc d4 6f 08 be
       -0.09778627 -0.016757865 -0.007951283 -0.13323909
0000b0 00 61 69 3c 5b ea c2 bd 10 24 9e bd 6d cc 5a bb
       0.014244318 -0.09517356 -0.07721722 -0.0033386007
0000c0 4b 2a 10 bd d4 08 cf bd c9 5f 64 3c f7 85 0f 3d
       -0.035196584 -0.10109106 0.013938853 0.03503987
0000d0 c9 8e 4a 3d 34 ed 99 bd f3 b0 81 3c 2b e6 78 bb
       0.049452577 -0.07515946 0.015831446 -0.0037978988
0000e0 d4 fd cb b8 79 41 9f 3b 7a c3 cb bc fc 99 78 bd
       -9.7270735e-05 0.0048601 -0.024873484 -0.060693726
0000f0 e9 28 f5 3c c1 dc 65 3c 20 d8 2c bc 22 ba 00 bd
       0.029926734 0.014029683 -0.010549575 -0.03142751
000100 af d1 b2 bd aa f2 18 3e 82 df ec bd 76 fb 0f 3e
       -0.087314 0.14936319 -0.11566068 0.14060768
000110 90 07 84 3d 09 a1 b7 bd 2c ec 58 be b2 dd b4 bb
       0.06446755 -0.08966262 -0.21183842 -0.005519592
000120 ec 3b 8a 3d 2f b2 c0 3c d5 83 66 bd 3e d5 c7 3d
       0.067497104 0.023522465 -0.05627807 0.097574696
000130 74 24 1c be 28 41 19 3c 96 ab 36 3d 38 f1 50 3d
       -0.15248281 0.009353913 0.04459723 0.051011294
000140 65 a7 80 bd a7 08 fd bd 35 af 34 bd eb 05 3e bd
       -0.06281928 -0.12355166 -0.044112403 -0.046392363
000150 c7 91 b2 3c 1d 9e ab bb 70 f6 9b 3c 9b 91 a8 bc
       0.021798028 -0.0052373544 0.019038409 -0.020577243
000160 8c 85 bb 3b 64 65 bd 3d 08 71 f9 bd ec 9f a7 bc
       0.005722707 0.09247854 -0.12179762 -0.020461999
000170 0f eb 80 3d 18 05 0c 3d 7c 26 bc 3d d0 ea 23 3c
       0.06294834 0.034184545 0.09187028 0.010004714
000180 80 d9 cb bb 31 ff de 3c 60 8e de 3c 97 49 db bc
       -0.0062209964 0.027221294 0.027167499 -0.026768489
000190 d4 b7 8c 3d 55 88 cb bc ee 89 df bc 88 38 32 bd
       0.06871 -0.024845282 -0.02728745 -0.043510944
0001a0 b2 54 10 bd 88 75 01 3c 5b 31 91 3c 89 80 88 3c
       -0.03523702 0.007901557 0.01772373 0.016662853
0001b0 fb 97 cb 3d 2a 0d d6 3d fc 27 0f be b3 79 0f 3d
       0.09941097 0.104517296 -0.13980097 0.03502817
0001c0 dc 9c 9a bd 85 7d 48 bd 47 54 cb 3d aa 2a 43 3c
       -0.0754945 -0.04894783 0.09928184 0.011912027
0001d0 c4 27 c5 bd 03 42 82 3c 2d f9 0d bd 8f ac af bc
       -0.09626725 0.015900617 -0.03466146 -0.021444587
0001e0 bb 62 09 3d 67 21 a0 3d 0b d4 fd bd 80 66 a7 3d
       0.033541422 0.07818871 -0.123939596 0.08173847
0001f0 b4 e0 6c 3c 85 47 9f bd 55 24 df bc 94 0b 0b 3e
       0.01445787 -0.07777313 -0.027239004 0.13578635
000200 20 56 66 3e 15 be 29 be e7 47 d2 bd d2 15 0d 3e
       0.22493792 -0.16576417 -0.102676205 0.13777855
000210 23 65 40 3d c3 29 1e be b8 0c c4 bd 67 c4 1e bd
       0.04697145 -0.15445618 -0.095727384 -0.038761523
000220 42 2b fb 3c 1b 94 b7 bc ff 8c 21 be c0 f7 4c ba
       0.030660275 -0.02240949 -0.15776442 -0.00078189
000230 66 fe bb be 15 bd 94 be b2 86 20 bc 21 a5 4b be
       -0.36717528 -0.29050508 -0.009797739 -0.1988721
000240 fc 6a f9 3c 32 12 95 be 4c 3b 9a 3d cd 85 ed be
       0.030446522 -0.29115444 0.07530841 -0.46391144
000250 6c e8 d3 be a9 cc ef bd c6 64 eb bd 54 3d fb bd
       -0.4138826 -0.11708958 -0.114938304 -0.12267557
000260 88 d5 fc bd f6 3a e9 ba 17 62 f9 3c 7b 5b c2 3d
       -0.12345415 -0.0017794061 0.03044228 0.09490105
000270 41 76 ec bc 58 48 bf 3d b0 5c 86 bd ed bf f8 bd
       -0.028864982 0.0933997 -0.065606475 -0.12145982
000280 a2 63 53 be 2a 51 bf bd d0 e7 bc 3b f9 a7 e0 be
       -0.20643476 -0.09341653 0.005764939 -0.43878153
000290 3d e7 70 bd 16 f2 a8 bd c1 fd 9d bd f5 e0 1a bd
       -0.058814276 -0.08249299 -0.07714415 -0.037812192
0002a0 0c 48 c4 3c 8d 18 60 be 19 ec fa bd ba 86 91 be
       0.023960136 -0.21884365 -0.12252063 -0.284231
0002b0 87 c9 2b be 5b c9 8f be 8e ba c2 bd c1 e5 4d bd
       -0.16776095 -0.2808331 -0.09508239 -0.05026794
0002c0 b4 55 ec bd 5d 8b 37 be 16 ee 85 bd b7 a9 03 3e
       -0.11539784 -0.17924257 -0.06539552 0.1285771
0002d0 29 cf 29 be a4 d7 6d be 52 5b 80 be f0 98 98 3c
       -0.16582932 -0.23226792 -0.25069672 0.018627614
0002e0 ab bb f7 3c 70 07 7c be 6e 3e c8 bd 72 05 a5 be
       0.030240854 -0.24612212 -0.097775325 -0.32230717
0002f0 46 df b5 3c ba 3c a9 bd ec f7 60 3d c4 52 01 be
       0.022201192 -0.08263536 0.054923937 -0.12629229
000300 2e 06 e2 3c 88 91 6d bd 33 ef 6c 3d d8 7f 25 be
       0.027590837 -0.058000118 0.057845306 -0.1616205
000310 10 27 2f bd 0c 1b dd be 4b 11 17 be 21 d2 8e be
       -0.042761862 -0.43184698 -0.1475269 -0.2789469
000320 37 b9 57 3d 50 2c c4 bd d9 05 12 bd 97 2e c6 bd
       0.05266687 -0.095787644 -0.035650108 -0.09676855
000330 23 b9 fb 3d ef 60 58 be 22 be a5 be ff a1 73 3e
       0.122911714 -0.21130727 -0.32371622 0.23792265
000340 3a 86 3d bc c7 3f 22 be 1d 06 df be 5b 55 42 be
       -0.011567647 -0.15844642 -0.43559352 -0.18977873
000350 df ec 96 bd c6 11 15 be 00 6f 3c 3d 4d 54 d8 3a
       -0.07369398 -0.14557561 0.046004295 0.0016504616
000360 93 72 2c 3c a6 4e 6a be 30 b8 f0 3d 21 50 54 3e
       0.0105253635 -0.22881564 0.11753881 0.20733692
000370 1a b6 7b be 97 26 00 bd a1 fb 87 3d ad 3f 95 bd
       -0.24581185 -0.031286802 0.06639791 -0.07287536
000380 91 5f ac 3d f3 c4 01 3c ee 5d 7f be 47 40 9c be
       0.08416665 0.0079204915 -0.24938175 -0.3051779
000390 a7 c6 8d 3c 2b a6 07 be 17 89 6d 3d a6 eb c6 be
       0.017306639 -0.13246982 0.057992067 -0.3885166
0003a0 03 2a 58 be 56 04 77 3d 19 1b 0d 3e 46 9a 88 be
       -0.21109776 0.06030687 0.13779868 -0.266802
0003b0 79 67 f7 3a 1c 40 d1 bd a1 90 92 bc b4 c9 57 bc
       0.0018875442 -0.10217306 -0.01789123 -0.013170648
0003c0 52 1f 0f bf d9 45 2c be 07 41 df 3c 48 28 75 3b
       -0.55907166 -0.1682352 0.027252687 0.0037408043
0003d0 c6 f7 cc 3d 25 c4 07 3d 52 0a 82 be fb 88 8b be
       0.100081965 0.033146042 -0.253985 -0.27252945
0003e0 be 3b 0f 3d c1 18 14 3e 6f 8b 2e 3e e7 3e 4a be
       0.034969084 0.14462568 0.17045377 -0.19750558
0003f0 87 ce aa 3c 52 e1 2c be a5 b1 3f be 1b 41 43 be
       0.020850433 -0.16882828 -0.1872011 -0.19067805

network_body._body_endoder.seq_layers.2.bias f4 [128]
000000 de 34 93 bd 73 20 49 bd 11 1e 3a 3e 98 58 b5 3e
       -0.07187818 -0.04910321 0.18175532 0.35419154
000010 83 1c 1f 3e 7d 38 c1 be d9 4e dd 3d e9 80 0a bd
       0.1553822 -0.3773841 0.108060546 -0.033814345
000020 64 7c e5 be 17 2b ba bd 94 f5 b3 bd 41 ea f4 bd
       -0.44821465 -0.0909025 -0.08787075 -0.11958743
000030 65 2e 14 be d5 9f 7a be 5e fc 88 3d fc 8b 19 be
       -0.14470823 -0.24475034 0.0668876 -0.14994806
000040 b9 ad be bc 92 dd bc be 39 70 a1 be e0 ec ff bd
       -0.023276197 -0.36887795 -0.31530932 -0.12496352
000050 b7 51 44 bd 0e 9e 94 ba 81 63 a1 be 89 fd 5b be
       -0.04792949 -0.0011338608 -0.31521228 -0.21483435
000060 ec 3b 53 3e 94 95 ba 3e 47 47 91 3e ad 57 b8 bd
       0.20628327 0.36442244 0.28374693 -0.09001098
000070 d0 d1 ad be f1 d6 95 bd 14 56 2e 3e ad 03 4b be
       -0.33949137 -0.073163874 0.17025024 -0.19825621
000080 20 7d 6d 3e 0e 0a 16 bc 0d 95 07 3e 57 85 54 be
       0.23192263 -0.009157671 0.13240452 -0.2075399
000090 a9 9c 54 be a2 94 f0 bd 97 e8 6f be 50 e0 5a be
       -0.20762886 -0.117470995 -0.2342857 -0.21374631
0000a0 90 57 d3 3d e6 50 09 be 65 e0 38 bc 8a fe 84 3e
       0.103194356 -0.13409767 -0.011283969 0.25975448
0000b0 46 06 3a bd 22 5e 4c bd 54 90 69 bd 9b 33 10 3e
       -0.04541614 -0.04989446 -0.057022408 0.14082186
0000c0 07 6f 0a be a1 f0 96 bc 36 cf 11 3e 10 7f 2c bd
       -0.13518916 -0.018425288 0.14239201 -0.042113364
0000d0 d5 c1 3a be 1a 5b de bd f2 ba 46 3d 16 17 d9 bd
       -0.18238004 -0.1085722 0.04851813 -0.106001064
0000e0 75 6a 43 be 54 5a 41 bd 26 fb 3c be 73 52 e6 bd
       -0.19083579 -0.047205284 -0.1845518 -0.11246195
0000f0 06 08 35 3e f0 63 7f 3e 90 fc e9 3b ec a4 81 3d
       0.17678842 0.24940467 0.0071407035 0.063302845
000100 e7 04 a0 be df b2 f1 bd db 69 ac be 17 f8 c5 bd
       -0.3125374 -0.11801695 -0.3367451 -0.0966646
000110 60 ff d9 3d 6d 47 6b be 76 72 7f bd 08 6d ef bd
       0.10644412 -0.22976466 -0.062365018 -0.11690718
000120 ec e0 ff 3d 64 2e 81 be 34 a6 8a bd 59 22 3b be
       0.12494072 -0.25230706 -0.06769982 -0.18274821
000130 bd 82 a6 bd 61 bf 89 be a7 fe 27 be e5 9c 6e bd
       -0.08130405 -0.26903823 -0.16405736 -0.058255095
000140 83 0b fa bc 20 a2 88 be aa 54 19 bd 70 e3 77 be
       -0.030523067 -0.26686192 -0.037434258 -0.24207854
000150 46 42 6f 3c 31 53 07 be 43 1d 31 be d7 fe 6d be
       0.014603203 -0.13215329 -0.17296319 -0.23241745
000160 5a b5 a0 bd 8f 08 b6 bd c2 21 6f 3d d9 39 22 3d
       -0.0784709 -0.08888351 0.058381803 0.03960595
000170 8b a1 f0 3d 41 fe 3b 3e 30 a3 06 be d2 93 c9 3c
       0.11749562 0.18358709 -0.13148189 0.024606619
000180 45 a4 13 be d7 c7 2c be 23 db c2 3d 89 29 8f be
       -0.14418133 -0.16873108 0.09514453 -0.27961376
000190 95 8c ab 3c 37 50 67 be 2b 2a a2 be 54 b3 08 be
       0.020941058 -0.22589193 -0.31672797 -0.13349658
0001a0 98 74 b2 3b a1 98 bb 3d c8 30 f1 be b2 53 68 bd
       0.005446028 0.09159971 -0.4710753 -0.056720443
0001b0 8e 5c 34 bd 5f 59 10 bd 96 32 d7 bd 0b bd 86 3d
       -0.04403358 -0.03524148 -0.105076954 0.06579026
0001c0 2e e9 2e be 81 b3 c7 bd 71 c0 60 be b6 9d cb bd
       -0.17081138 -0.097510345 -0.2194841 -0.0994219
0001d0 ea 7d 22 3e f0 7c 00 be e3 d6 ca 3e e5 62 8c be
       0.15868345 -0.1254766 0.3961707 -0.274192
0001e0 55 7b 34 bd 15 b1 7f be 18 3c 05 3e 38 f8 96 be
       -0.04406293 -0.24969895 0.13011205 -0.2948625
0001f0 78 0e 5b be f6 a8 4f be a6 09 0d 3e 56 2b 4d be
       -0.21392238 -0.20279297 0.13773212 -0.20036063

action_model._continuous_distribution.log_sigma f4 [1, 6]
000000 46 9e 00 bf 69 9a 70 be d6 06 ff be ff d3 81 be
       -0.50241506 -0.23496403 -0.49809903 -0.25357053
000010 43 82 e2 bd 3c 5b 97 be
       -0.11060002 -0.29561794

action_model._continuous_distribution.mu.weight f4 [6, 128]
000000 2d d7 1b 3b 1e 17 bc 3c dd 08 7c 3d c5 72 a4 3e
       0.0023779378 0.022960242 0.06153189 0.32118812
000010 7e 93 bc 3d d0 fa cb bd cb 48 44 3d 78 d1 fc 3d
       0.092078194 -0.09959948 0.047920983 0.123446405
000020 2f a0 c1 bd 51 5c 24 bd 26 78 8f bb c5 79 08 bd
       -0.09454381 -0.040127102 -0.0043783365 -0.033319253
000030 88 2e af 3d 0c d3 03 bc 38 ff 2f 3c f5 de f9 3c
       0.08553797 -0.008045923 0.010742001 0.030501822
000040 c1 02 27 bd 3b 49 88 bd 24 eb 24 be d6 6e c4 3d
       -0.04077411 -0.066545926 -0.16105324 0.09591453
000050 f0 57 c7 ba c2 e1 5d bc 74 bf dc bd 49 5e 8b be
       -0.0015208703 -0.013542594 -0.10778704 -0.2722037
000060 19 78 56 be 7b e5 72 bd 93 63 74 3e fc e0 17 3e
       -0.20944251 -0.05930088 0.2386611 0.14831918
000070 8d f2 80 bd de 48 4d 3d 82 79 93 3d f0 32 df bd
       -0.06296263 0.05011832 0.0720091 -0.108983874
000080 e8 96 5c bc 81 99 7f bb d8 23 e1 3c ce 16 22 be
       -0.013463713 -0.0039001408 0.027482912 -0.15829012
000090 ab ff 75 3d b7 20 40 3e 2c 4d 18 bd ef 8f 91 bd
       0.060058277 0.1876248 -0.03718297 -0.07107531
0000a0 16 8a 0a 3e c0 e0 eb 3d ba ea db b9 cc 68 29 bd
       0.13529238 0.11517477 -0.0004194582 -0.041359708
0000b0 c3 26 66 bb 2e e8 1e 3d 89 0d 92 3e 0f 04 4e 3e
       -0.0035118319 0.038795643 0.28525952 0.20118736
0000c0 af 39 97 3d 18 86 ac ba de 89 a2 3b 24 49 18 3b
       0.07384049 -0.0013162522 0.0049602827 0.0023236955
0000d0 d6 5c 53 3d e9 86 de bd c0 8a 79 bd ac 7b 32 bd
       0.051602207 -0.10865576 -0.060923338 -0.043574974
0000e0 5f 65 47 3d 93 93 a6 3d 7d 47 9a 3c 90 32 3f 3d
       0.04868066 0.08133616 0.018832916 0.04667908
0000f0 80 32 19 bc 51 a2 26 3e 03 d2 c8 ba 7f 76 47 3b
       -0.009350419 0.16272856 -0.0015321377 0.003043562
000100 1b 45 18 bc 57 86 e8 be 3b 45 c5 bd 94 0f b4 38
       -0.00929382 -0.45414993 -0.09632345 8.5859705e-05
000110 bd 03 a4 bc 54 b3 84 bc 06 f9 cf 3d d0 a8 51 bd
       -0.020021314 -0.016198792 0.10154919 -0.051186383
000120 64 8d 68 3d ec 03 0d be 60 d7 b3 3d f5 ef 98 be
       0.056775466 -0.13771027 0.08781314 -0.29870573
000130 57 dc 1a bd e3 46 c3 bd 4c d8 59 3c f1 91 78 3b
       -0.03780779 -0.09535005 0.013296198 0.0037928785
000140 7e b7 ee 3c 5b 85 86 bd fc 63 c6 bc 6d e1 2b 3d
       0.02914023 -0.06568404 -0.024217598 0.04196303
000150 48 7e 7b bd 64 b6 13 be 25 ed d0 bd 17 1c 9c be
       -0.061399728 -0.14425045 -0.10201482 -0.3049018
000160 33 c3 46 3d 9f ba 7e 3d 4d 09 a5 3d a1 fb 82 3d
       0.048526 0.062189694 0.080584146 0.06395651
000170 08 ca d2 3d 31 6f 9d 3e 58 9d 2e be 27 cf 81 3a
       0.10292441 0.30748895 -0.1705221 0.0009903655
000180 1b 8f 97 be 7c 2c 29 be 4b a0 b0 3d 63 49 98 bd
       -0.29601368 -0.16520876 0.086243235 -0.074358724
000190 e5 a8 7d 3d 4a 2f 08 bd 3c 4f ce bc 34 03 09 bc
       0.06192865 -0.033248223 -0.025184266 -0.00836258
0001a0 90 e8 4a ba 8f 69 e0 3d af 98 5f 3a d9 26 b8 3d
       -0.0007740343 0.10957634 0.00085295265 0.089917846
0001b0 92 ad de bb 92 0f 82 3a 1a 2b 72 bd 42 88 8b bc
       -0.0067955935 0.0009922853 -0.059123136 -0.017032746
0001c0 82 c5 91 bb c9 1a 7e ba e9 86 d5 3c 6a 6a aa 3b
       -0.0044485936 -0.00096933224 0.026065307 0.005200674
0001d0 e1 ab 33 3d 06 b8 5a 3b 6c f6 73 3d 57 ba ce bd
       0.04386509 0.0033373847 0.059561178 -0.10094135
0001e0 03 cc cf bb 46 02 56 3c 73 a6 df 3d fc 53 b8 bd
       -0.0063414588 0.0130620655 0.109204195 -0.09000394
0001f0 f1 e9 11 3e 3e 23 e9 bd 76 bd 72 3d 3d 2e b4 3c
       0.14249398 -0.11383675 0.059262715 0.021994704
000200 e9 ec 56 bb 3d 3d 0f 3c 4d a9 e7 bd 22 fc 76 bd
       -0.0032795018 0.008742628 -0.113115884 -0.060299046
000210 f1 1f b3 3d 48 e4 04 bd a1 e1 03 be 87 83 2d 3e
       0.08746327 -0.03244427 -0.1287904 0.16944705
000220 77 c2 1d 3d 8d b4 0e 3d 48 7b 60 bb ef 5c 85 bc
       0.038515534 0.034840155 -0.003425317 -0.016279666
000230 7f 09 15 3d 2f 3a 25 bb c3 ec 95 3c 84 4e 17 bd
       0.03638601 -0.0025211682 0.018301373 -0.036940113
000240 aa 66 1a bc c1 a4 02 3d 05 2b a7 3c 6d f8 c3 3d
       -0.009423891 0.031895403 0.020406255 0.09568868
000250 f6 63 09 3b 66 fc d7 bd 22 85 b4 3d 64 09 a0 bd
       0.0020964122 -0.10546188 0.088144556 -0.07814291
000260 07 71 bf 3c 3c 2d 76 3d f4 d9 6b 3d 65 9b 48 3e
       0.023369325 0.060101733 0.057580903 0.19590528
000270 ff 31 0c 3d 40 61 2b be 6d c2 0b 3d 70 07 de bd
       0.034227367 -0.16736317 0.034120966 -0.10841262
000280 a4 f8 20 3e 58 60 81 b9 72 fd 5c 3d ba e4 2f be
       0.15719849 -0.0002467658 0.05395264 -0.17177096
000290 4f ea 06 3e 70 ea a0 3d 63 6f f9 bd 96 3e c0 3d
       0.13175319 0.078572154 -0.121794485 0.09386937
0002a0 28 10 cc 3c 0a 18 fb bd f4 41 e5 3a 00 21 66 bd
       0.024910048 -0.122604445 0.0017490969 -0.056183815
0002b0 a1 c0 42 3a 7f ad ec 3d 14 39 bb 3d e1 21 bf bd
       0.00074292166 0.11556529 0.09141746 -0.09332634
0002c0 2d 54 6b 3d bc 38 d5 3a 10 8f d9 bd 96 25 98 bb
       0.057453323 0.0016267519 -0.1062299 -0.0046431525
0002d0 7c 86 ef 3c 73 87 64 3d 8b a9 3f 3e 92 d2 42 be
       0.029238932 0.055793237 0.1871702 -0.19025639
0002e0 c8 af 24 3c fb 81 31 3d 9b 82 ce bd 0b 0e cc 3d
       0.010051675 0.04333685 -0.10083505 0.09963616
0002f0 96 f0 f6 bc 83 e3 08 bd c6 00 1a b9 1f cc 20 bb
       -0.030144017 -0.033420097 -0.00014686873 -0.0024535728
000300 2c 19 59 3e 24 91 75 3e 56 00 aa 3d d3 76 21 3b
       0.21201009 0.23981148 0.08300845 0.0024637475
000310 69 07 02 be e1 64 ed bb 95 c7 77 3e 13 cc b4 bd
       -0.12698139 -0.0072446917 0.24197228 -0.088279866
000320 98 b3 26 3d f4 5e c8 bd 35 8b a8 bd 77 9e 51 3e
       0.040698618 -0.09783736 -0.08229677 0.20470606
000330 f4 04 59 be da b7 66 bd ba af 0e 3e a8 55 53 3e
       -0.21193296 -0.05632768 0.13934222 0.20638144
000340 d8 df 40 be 82 5e e1 3d fe 68 c5 bd e3 3a 70 3d
       -0.1883539 0.11004354 -0.09639166 0.05864991
000350 2a ad 80 bc a3 2b 23 3e 69 2f be bd 51 75 d3 3c
       -0.015707571 0.15934615 -0.092863865 0.025812777
000360 cf 00 70 3c a4 15 fe bc d6 65 15 bd 2f 90 15 3d
       0.01464863 -0.031016178 -0.03647407 0.036514457
000370 99 1c 84 3d cc ca d1 bd 2d 3b 83 bc 70 ba 1b ba
       0.06450767 -0.102437586 -0.016019428 -0.0005940562
000380 36 ef 80 bc e3 55 12 3e 3b e5 a0 3e 85 3f 7e bc
       -0.015739065 0.14290576 0.3142489 -0.015518074
000390 99 33 0b 3e d6 8e 7b 3b f2 5c 3a be 95 d8 b9 3b
       0.13593902 0.0038384697 -0.18199518 0.0056715705
0003a0 25 e4 94 b8 ed 43 73 bc ea 88 13 bc 3f d5 7e 3c
       -7.099685e-05 -0.014847738 -0.009004811 0.0155537715
0003b0 9c 61 4f bd f5 83 cb ba f5 99 e8 bc 1e 5b 9b 3d
       -0.050630197 -0.0015526997 -0.028393725 0.075857386
0003c0 2f fe 45 3c ff 8f b1 bc b1 6c e3 3c 9a 60 e8 3d
       0.012084528 -0.021675108 0.027761789 0.1134655
0003d0 3c 97 5b 3d c5 f5 d4 3a df 9b ad bd 75 4c d7 3d
       0.053611025 0.0016247561 -0.08476996 0.1051263
0003e0 fa 68 28 bd 1d af b4 bd d5 76 32 3b 4f 24 fd 3d
       -0.04111574 -0.08822463 0.0027231474 0.12360441
0003f0 f5 9c 19 be 52 6e 4f 3e a4 b1 6f 3e 61 05 35 be
       -0.1500128 0.20256928 0.23407608 -0.17677833

action_model._continuous_distribution.mu.bias f4 [6]
000000 1c 68 42 3e 1e 57 2e be 41 2a fa bc 01 9a 3c bd
       0.18985027 -0.1702542 -0.030537726 -0.046045307
000010 a2 01 cc bd 99 b3 7b 3d
       -0.09961249 0.061450575

onnx::Div_51 f4 [9]
000000 d8 9a e2 3e 43 d8 40 3f 78 4c 01 3f 6b 98 fe 3e
       0.4425876 0.7532999 0.5050731 0.4972566
000010 d7 91 61 3f 4f 7d df 3e 77 da 83 3e 59 6f a4 3d
       0.8811316 0.4365029 0.25752613 0.080290504
000020 81 eb 2f 3e
       0.17179681
